{"format": "graph-model", "generatedBy": "2.6.2", "convertedBy": "TensorFlow.js Converter v3.19.0", "signature": {"outputs": {"Identity": {"name": "Identity"}}}, "modelTopology": {"node": [{"name": "model/53702", "op": "Const", "device": "/job:localhost/replica:0/task:0/device:GPU:0", "attr": {"value": {"tensor": {"dtype": "DT_FLOAT", "tensorShape": {}}}, "dtype": {"type": "DT_FLOAT"}}}, {"name": "model/conv2d_11/Conv2D/ReadVariableOp", "op": "Const", "attr": {"value": {"tensor": {"dtype": "DT_FLOAT", "tensorShape": {"dim": [{"size": "1"}, {"size": "1"}, {"size": "512"}, {"size": "96"}]}}}, "dtype": {"type": "DT_FLOAT"}}}, {"name": "model/tf.image.resize_6/resize/size", "op": "Const", "attr": {"value": {"tensor": {"dtype": "DT_INT32", "tensorShape": {"dim": [{"size": "2"}]}}}, "dtype": {"type": "DT_INT32"}}}, {"name": "model/conv2d_12/Conv2D/ReadVariableOp", "op": "Const", "attr": {"dtype": {"type": "DT_FLOAT"}, "value": {"tensor": {"dtype": "DT_FLOAT", "tensorShape": {"dim": [{"size": "3"}, {"size": "3"}, {"size": "96"}, {"size": "96"}]}}}}}, {"name": "model/conv2d_13/Conv2D/ReadVariableOp", "op": "Const", "attr": {"value": {"tensor": {"dtype": "DT_FLOAT", "tensorShape": {"dim": [{"size": "1"}, {"size": "1"}, {"size": "512"}, {"size": "96"}]}}}, "dtype": {"type": "DT_FLOAT"}}}, {"name": "model/tf.image.resize_7/resize/size", "op": "Const", "attr": {"dtype": {"type": "DT_INT32"}, "value": {"tensor": {"dtype": "DT_INT32", "tensorShape": {"dim": [{"size": "2"}]}}}}}, {"name": "model/conv2d_14/Conv2D/ReadVariableOp", "op": "Const", "attr": {"value": {"tensor": {"dtype": "DT_FLOAT", "tensorShape": {"dim": [{"size": "3"}, {"size": "3"}, {"size": "96"}, {"size": "96"}]}}}, "dtype": {"type": "DT_FLOAT"}}}, {"name": "model/conv2d_15/Conv2D/ReadVariableOp", "op": "Const", "attr": {"value": {"tensor": {"dtype": "DT_FLOAT", "tensorShape": {"dim": [{"size": "1"}, {"size": "1"}, {"size": "512"}, {"size": "96"}]}}}, "dtype": {"type": "DT_FLOAT"}}}, {"name": "model/tf.image.resize_8/resize/size", "op": "Const", "attr": {"dtype": {"type": "DT_INT32"}, "value": {"tensor": {"dtype": "DT_INT32", "tensorShape": {"dim": [{"size": "2"}]}}}}}, {"name": "model/conv2d_16/Conv2D/ReadVariableOp", "op": "Const", "attr": {"value": {"tensor": {"dtype": "DT_FLOAT", "tensorShape": {"dim": [{"size": "3"}, {"size": "3"}, {"size": "96"}, {"size": "96"}]}}}, "dtype": {"type": "DT_FLOAT"}}}, {"name": "model/conv2d_17/Conv2D/ReadVariableOp", "op": "Const", "attr": {"dtype": {"type": "DT_FLOAT"}, "value": {"tensor": {"dtype": "DT_FLOAT", "tensorShape": {"dim": [{"size": "1"}, {"size": "1"}, {"size": "512"}, {"size": "96"}]}}}}}, {"name": "model/tf.image.resize_9/resize/size", "op": "Const", "attr": {"dtype": {"type": "DT_INT32"}, "value": {"tensor": {"dtype": "DT_INT32", "tensorShape": {"dim": [{"size": "2"}]}}}}}, {"name": "model/conv2d_10/Conv2D/ReadVariableOp", "op": "Const", "attr": {"dtype": {"type": "DT_FLOAT"}, "value": {"tensor": {"dtype": "DT_FLOAT", "tensorShape": {"dim": [{"size": "1"}, {"size": "1"}, {"size": "512"}, {"size": "96"}]}}}}}, {"name": "model/conv2d_18/Conv2D/ReadVariableOp", "op": "Const", "attr": {"dtype": {"type": "DT_FLOAT"}, "value": {"tensor": {"dtype": "DT_FLOAT", "tensorShape": {"dim": [{"size": "3"}, {"size": "3"}, {"size": "96"}, {"size": "96"}]}}}}}, {"name": "model/pappm_concat/concat/axis", "op": "Const", "attr": {"dtype": {"type": "DT_INT32"}, "value": {"tensor": {"dtype": "DT_INT32", "tensorShape": {}}}}}, {"name": "model/conv2d_19/Conv2D/ReadVariableOp", "op": "Const", "attr": {"value": {"tensor": {"dtype": "DT_FLOAT", "tensorShape": {"dim": [{"size": "1"}, {"size": "1"}, {"size": "480"}, {"size": "128"}]}}}, "dtype": {"type": "DT_FLOAT"}}}, {"name": "model/conv2d_20/Conv2D/ReadVariableOp", "op": "Const", "attr": {"value": {"tensor": {"dtype": "DT_FLOAT", "tensorShape": {"dim": [{"size": "1"}, {"size": "1"}, {"size": "512"}, {"size": "128"}]}}}, "dtype": {"type": "DT_FLOAT"}}}, {"name": "model/tf.image.resize_10/resize/size", "op": "Const", "attr": {"dtype": {"type": "DT_INT32"}, "value": {"tensor": {"dtype": "DT_INT32", "tensorShape": {"dim": [{"size": "2"}]}}}}}, {"name": "model/tf.image.resize_2/resize/size", "op": "Const", "attr": {"value": {"tensor": {"dtype": "DT_INT32", "tensorShape": {"dim": [{"size": "2"}]}}}, "dtype": {"type": "DT_INT32"}}}, {"name": "model/tf.image.resize_5/resize/size", "op": "Const", "attr": {"dtype": {"type": "DT_INT32"}, "value": {"tensor": {"dtype": "DT_INT32", "tensorShape": {"dim": [{"size": "2"}]}}}}}, {"name": "model/53391", "op": "Const", "device": "/job:localhost/replica:0/task:0/device:GPU:0", "attr": {"value": {"tensor": {"dtype": "DT_FLOAT", "tensorShape": {}}}, "dtype": {"type": "DT_FLOAT"}}}, {"name": "model/52899", "op": "Const", "device": "/job:localhost/replica:0/task:0/device:GPU:0", "attr": {"value": {"tensor": {"dtype": "DT_FLOAT", "tensorShape": {}}}, "dtype": {"type": "DT_FLOAT"}}}, {"name": "model/tf.image.resize/resize/size", "op": "Const", "attr": {"value": {"tensor": {"dtype": "DT_INT32", "tensorShape": {"dim": [{"size": "2"}]}}}, "dtype": {"type": "DT_INT32"}}}, {"name": "model/tf.math.reduce_sum/Sum/reduction_indices", "op": "Const", "attr": {"dtype": {"type": "DT_INT32"}, "value": {"tensor": {"dtype": "DT_INT32", "tensorShape": {}}}}}, {"name": "model/tf.image.resize_1/resize/size", "op": "Const", "attr": {"value": {"tensor": {"dtype": "DT_INT32", "tensorShape": {"dim": [{"size": "2"}]}}}, "dtype": {"type": "DT_INT32"}}}, {"name": "model/tf.image.resize_3/resize/size", "op": "Const", "attr": {"dtype": {"type": "DT_INT32"}, "value": {"tensor": {"dtype": "DT_INT32", "tensorShape": {"dim": [{"size": "2"}]}}}}}, {"name": "model/tf.math.reduce_sum_1/Sum/reduction_indices", "op": "Const", "attr": {"dtype": {"type": "DT_INT32"}, "value": {"tensor": {"dtype": "DT_INT32", "tensorShape": {}}}}}, {"name": "model/tf.image.resize_4/resize/size", "op": "Const", "attr": {"value": {"tensor": {"dtype": "DT_INT32", "tensorShape": {"dim": [{"size": "2"}]}}}, "dtype": {"type": "DT_INT32"}}}, {"name": "model/conv2d_24/Conv2D/ReadVariableOp", "op": "Const", "attr": {"value": {"tensor": {"dtype": "DT_FLOAT", "tensorShape": {"dim": [{"size": "1"}, {"size": "1"}, {"size": "128"}, {"size": "2"}]}}}, "dtype": {"type": "DT_FLOAT"}}}, {"name": "model/conv2d_24/BiasAdd/ReadVariableOp", "op": "Const", "attr": {"dtype": {"type": "DT_FLOAT"}, "value": {"tensor": {"dtype": "DT_FLOAT", "tensorShape": {"dim": [{"size": "2"}]}}}}}, {"name": "model/main/mul", "op": "Const", "attr": {"dtype": {"type": "DT_INT32"}, "value": {"tensor": {"dtype": "DT_INT32", "tensorShape": {"dim": [{"size": "2"}]}}}}}, {"name": "model/tf.math.argmax/ArgMax/dimension", "op": "Const", "attr": {"dtype": {"type": "DT_INT32"}, "value": {"tensor": {"dtype": "DT_INT32", "tensorShape": {}}}}}, {"name": "x", "op": "Placeholder", "attr": {"dtype": {"type": "DT_FLOAT"}, "shape": {"shape": {"dim": [{"size": "-1"}, {"size": "640"}, {"size": "360"}, {"size": "3"}]}}}}, {"name": "model/conv2d/Conv2D_weights", "op": "Const", "attr": {"dtype": {"type": "DT_FLOAT"}, "value": {"tensor": {"dtype": "DT_FLOAT", "tensorShape": {"dim": [{"size": "3"}, {"size": "3"}, {"size": "3"}, {"size": "32"}]}}}}}, {"name": "model/conv2d_23/Conv2D_weights", "op": "Const", "attr": {"value": {"tensor": {"dtype": "DT_FLOAT", "tensorShape": {"dim": [{"size": "3"}, {"size": "3"}, {"size": "128"}, {"size": "128"}]}}}, "dtype": {"type": "DT_FLOAT"}}}, {"name": "model/conv2d/Conv2D_bn_offset", "op": "Const", "attr": {"value": {"tensor": {"dtype": "DT_FLOAT", "tensorShape": {"dim": [{"size": "32"}]}}}, "dtype": {"type": "DT_FLOAT"}}}, {"name": "model/conv2d_1/Conv2D_weights", "op": "Const", "attr": {"value": {"tensor": {"dtype": "DT_FLOAT", "tensorShape": {"dim": [{"size": "3"}, {"size": "3"}, {"size": "32"}, {"size": "32"}]}}}, "dtype": {"type": "DT_FLOAT"}}}, {"name": "model/conv2d_23/Conv2D_bn_offset", "op": "Const", "attr": {"value": {"tensor": {"dtype": "DT_FLOAT", "tensorShape": {"dim": [{"size": "128"}]}}}, "dtype": {"type": "DT_FLOAT"}}}, {"name": "model/conv2d_1/Conv2D_bn_offset", "op": "Const", "attr": {"value": {"tensor": {"dtype": "DT_FLOAT", "tensorShape": {"dim": [{"size": "32"}]}}}, "dtype": {"type": "DT_FLOAT"}}}, {"name": "model/layer_1_basic_0_conv3x3_1/Conv2D_weights", "op": "Const", "attr": {"value": {"tensor": {"dtype": "DT_FLOAT", "tensorShape": {"dim": [{"size": "3"}, {"size": "3"}, {"size": "32"}, {"size": "32"}]}}}, "dtype": {"type": "DT_FLOAT"}}}, {"name": "model/layer_1_basic_0_conv3x3_1/Conv2D_bn_offset", "op": "Const", "attr": {"dtype": {"type": "DT_FLOAT"}, "value": {"tensor": {"dtype": "DT_FLOAT", "tensorShape": {"dim": [{"size": "32"}]}}}}}, {"name": "model/batch_normalization_11/FusedBatchNormV3/Offset", "op": "Const", "attr": {"dtype": {"type": "DT_FLOAT"}, "value": {"tensor": {"dtype": "DT_FLOAT", "tensorShape": {"dim": [{"size": "512"}]}}}}}, {"name": "model/layer_1_basic_0_conv3x3_2/Conv2D_weights", "op": "Const", "attr": {"dtype": {"type": "DT_FLOAT"}, "value": {"tensor": {"dtype": "DT_FLOAT", "tensorShape": {"dim": [{"size": "3"}, {"size": "3"}, {"size": "32"}, {"size": "32"}]}}}}}, {"name": "model/layer_1_basic_0_conv3x3_2/Conv2D_bn_offset", "op": "Const", "attr": {"value": {"tensor": {"dtype": "DT_FLOAT", "tensorShape": {"dim": [{"size": "32"}]}}}, "dtype": {"type": "DT_FLOAT"}}}, {"name": "model/layer_1_basic_1_conv3x3_1/Conv2D_weights", "op": "Const", "attr": {"value": {"tensor": {"dtype": "DT_FLOAT", "tensorShape": {"dim": [{"size": "3"}, {"size": "3"}, {"size": "32"}, {"size": "32"}]}}}, "dtype": {"type": "DT_FLOAT"}}}, {"name": "model/layer_1_basic_1_conv3x3_1/Conv2D_bn_offset", "op": "Const", "attr": {"value": {"tensor": {"dtype": "DT_FLOAT", "tensorShape": {"dim": [{"size": "32"}]}}}, "dtype": {"type": "DT_FLOAT"}}}, {"name": "model/layer_1_basic_1_conv3x3_2/Conv2D_weights", "op": "Const", "attr": {"dtype": {"type": "DT_FLOAT"}, "value": {"tensor": {"dtype": "DT_FLOAT", "tensorShape": {"dim": [{"size": "3"}, {"size": "3"}, {"size": "32"}, {"size": "32"}]}}}}}, {"name": "model/layer_1_basic_1_conv3x3_2/Conv2D_bn_offset", "op": "Const", "attr": {"dtype": {"type": "DT_FLOAT"}, "value": {"tensor": {"dtype": "DT_FLOAT", "tensorShape": {"dim": [{"size": "32"}]}}}}}, {"name": "model/layer_2_basic_0_conv3x3_1/Conv2D_weights", "op": "Const", "attr": {"dtype": {"type": "DT_FLOAT"}, "value": {"tensor": {"dtype": "DT_FLOAT", "tensorShape": {"dim": [{"size": "3"}, {"size": "3"}, {"size": "32"}, {"size": "64"}]}}}}}, {"name": "model/layer_2_basic_0_conv3x3_1/Conv2D_bn_offset", "op": "Const", "attr": {"dtype": {"type": "DT_FLOAT"}, "value": {"tensor": {"dtype": "DT_FLOAT", "tensorShape": {"dim": [{"size": "64"}]}}}}}, {"name": "model/layer_2_conv2d/Conv2D_weights", "op": "Const", "attr": {"value": {"tensor": {"dtype": "DT_FLOAT", "tensorShape": {"dim": [{"size": "1"}, {"size": "1"}, {"size": "32"}, {"size": "64"}]}}}, "dtype": {"type": "DT_FLOAT"}}}, {"name": "model/layer_2_conv2d/Conv2D_bn_offset", "op": "Const", "attr": {"dtype": {"type": "DT_FLOAT"}, "value": {"tensor": {"dtype": "DT_FLOAT", "tensorShape": {"dim": [{"size": "64"}]}}}}}, {"name": "model/layer_2_basic_0_conv3x3_2/Conv2D_weights", "op": "Const", "attr": {"value": {"tensor": {"dtype": "DT_FLOAT", "tensorShape": {"dim": [{"size": "3"}, {"size": "3"}, {"size": "64"}, {"size": "64"}]}}}, "dtype": {"type": "DT_FLOAT"}}}, {"name": "model/layer_2_basic_0_conv3x3_2/Conv2D_bn_offset", "op": "Const", "attr": {"value": {"tensor": {"dtype": "DT_FLOAT", "tensorShape": {"dim": [{"size": "64"}]}}}, "dtype": {"type": "DT_FLOAT"}}}, {"name": "model/layer_2_basic_1_conv3x3_1/Conv2D_weights", "op": "Const", "attr": {"dtype": {"type": "DT_FLOAT"}, "value": {"tensor": {"dtype": "DT_FLOAT", "tensorShape": {"dim": [{"size": "3"}, {"size": "3"}, {"size": "64"}, {"size": "64"}]}}}}}, {"name": "model/batch_normalization_23/FusedBatchNormV3/Scaled", "op": "Const", "attr": {"dtype": {"type": "DT_FLOAT"}, "value": {"tensor": {"dtype": "DT_FLOAT", "tensorShape": {"dim": [{"size": "128"}]}}}}}, {"name": "model/layer_2_basic_1_conv3x3_1/Conv2D_bn_offset", "op": "Const", "attr": {"value": {"tensor": {"dtype": "DT_FLOAT", "tensorShape": {"dim": [{"size": "64"}]}}}, "dtype": {"type": "DT_FLOAT"}}}, {"name": "model/layer_2_basic_1_conv3x3_2/Conv2D_weights", "op": "Const", "attr": {"dtype": {"type": "DT_FLOAT"}, "value": {"tensor": {"dtype": "DT_FLOAT", "tensorShape": {"dim": [{"size": "3"}, {"size": "3"}, {"size": "64"}, {"size": "64"}]}}}}}, {"name": "model/layer_2_basic_1_conv3x3_2/Conv2D_bn_offset", "op": "Const", "attr": {"value": {"tensor": {"dtype": "DT_FLOAT", "tensorShape": {"dim": [{"size": "64"}]}}}, "dtype": {"type": "DT_FLOAT"}}}, {"name": "model/layer_3_d_basic_0_conv3x3_1/Conv2D_weights", "op": "Const", "attr": {"value": {"tensor": {"dtype": "DT_FLOAT", "tensorShape": {"dim": [{"size": "3"}, {"size": "3"}, {"size": "64"}, {"size": "32"}]}}}, "dtype": {"type": "DT_FLOAT"}}}, {"name": "model/batch_normalization_23/FusedBatchNormV3/Offset", "op": "Const", "attr": {"dtype": {"type": "DT_FLOAT"}, "value": {"tensor": {"dtype": "DT_FLOAT", "tensorShape": {"dim": [{"size": "128"}]}}}}}, {"name": "model/layer_3_d_basic_0_conv3x3_1/Conv2D_bn_offset", "op": "Const", "attr": {"dtype": {"type": "DT_FLOAT"}, "value": {"tensor": {"dtype": "DT_FLOAT", "tensorShape": {"dim": [{"size": "32"}]}}}}}, {"name": "model/layer_3_d_conv2d/Conv2D_weights", "op": "Const", "attr": {"dtype": {"type": "DT_FLOAT"}, "value": {"tensor": {"dtype": "DT_FLOAT", "tensorShape": {"dim": [{"size": "1"}, {"size": "1"}, {"size": "64"}, {"size": "32"}]}}}}}, {"name": "model/layer_3_d_conv2d/Conv2D_bn_offset", "op": "Const", "attr": {"value": {"tensor": {"dtype": "DT_FLOAT", "tensorShape": {"dim": [{"size": "32"}]}}}, "dtype": {"type": "DT_FLOAT"}}}, {"name": "model/layer_3_0_basic_0_conv3x3_1/Conv2D_weights", "op": "Const", "attr": {"value": {"tensor": {"dtype": "DT_FLOAT", "tensorShape": {"dim": [{"size": "3"}, {"size": "3"}, {"size": "64"}, {"size": "64"}]}}}, "dtype": {"type": "DT_FLOAT"}}}, {"name": "model/layer_3_0_basic_0_conv3x3_1/Conv2D_bn_offset", "op": "Const", "attr": {"value": {"tensor": {"dtype": "DT_FLOAT", "tensorShape": {"dim": [{"size": "64"}]}}}, "dtype": {"type": "DT_FLOAT"}}}, {"name": "model/batch_normalization_20/FusedBatchNormV3/Scaled", "op": "Const", "attr": {"value": {"tensor": {"dtype": "DT_FLOAT", "tensorShape": {"dim": [{"size": "512"}]}}}, "dtype": {"type": "DT_FLOAT"}}}, {"name": "model/layer_3_basic_0_conv3x3_1/Conv2D_weights", "op": "Const", "attr": {"dtype": {"type": "DT_FLOAT"}, "value": {"tensor": {"dtype": "DT_FLOAT", "tensorShape": {"dim": [{"size": "3"}, {"size": "3"}, {"size": "64"}, {"size": "128"}]}}}}}, {"name": "model/layer_3_basic_0_conv3x3_1/Conv2D_bn_offset", "op": "Const", "attr": {"value": {"tensor": {"dtype": "DT_FLOAT", "tensorShape": {"dim": [{"size": "128"}]}}}, "dtype": {"type": "DT_FLOAT"}}}, {"name": "model/layer_3_conv2d/Conv2D_weights", "op": "Const", "attr": {"value": {"tensor": {"dtype": "DT_FLOAT", "tensorShape": {"dim": [{"size": "1"}, {"size": "1"}, {"size": "64"}, {"size": "128"}]}}}, "dtype": {"type": "DT_FLOAT"}}}, {"name": "model/batch_normalization_20/FusedBatchNormV3/Offset", "op": "Const", "attr": {"dtype": {"type": "DT_FLOAT"}, "value": {"tensor": {"dtype": "DT_FLOAT", "tensorShape": {"dim": [{"size": "512"}]}}}}}, {"name": "model/layer_3_conv2d/Conv2D_bn_offset", "op": "Const", "attr": {"dtype": {"type": "DT_FLOAT"}, "value": {"tensor": {"dtype": "DT_FLOAT", "tensorShape": {"dim": [{"size": "128"}]}}}}}, {"name": "model/layer_3_d_basic_0_conv3x3_2/Conv2D_weights", "op": "Const", "attr": {"value": {"tensor": {"dtype": "DT_FLOAT", "tensorShape": {"dim": [{"size": "3"}, {"size": "3"}, {"size": "32"}, {"size": "32"}]}}}, "dtype": {"type": "DT_FLOAT"}}}, {"name": "model/layer_3_d_basic_0_conv3x3_2/Conv2D_bn_offset", "op": "Const", "attr": {"value": {"tensor": {"dtype": "DT_FLOAT", "tensorShape": {"dim": [{"size": "32"}]}}}, "dtype": {"type": "DT_FLOAT"}}}, {"name": "model/layer_3_0_basic_0_conv3x3_2/Conv2D_weights", "op": "Const", "attr": {"dtype": {"type": "DT_FLOAT"}, "value": {"tensor": {"dtype": "DT_FLOAT", "tensorShape": {"dim": [{"size": "3"}, {"size": "3"}, {"size": "64"}, {"size": "64"}]}}}}}, {"name": "model/layer_3_0_basic_0_conv3x3_2/Conv2D_bn_offset", "op": "Const", "attr": {"value": {"tensor": {"dtype": "DT_FLOAT", "tensorShape": {"dim": [{"size": "64"}]}}}, "dtype": {"type": "DT_FLOAT"}}}, {"name": "model/layer_3_basic_0_conv3x3_2/Conv2D_weights", "op": "Const", "attr": {"dtype": {"type": "DT_FLOAT"}, "value": {"tensor": {"dtype": "DT_FLOAT", "tensorShape": {"dim": [{"size": "3"}, {"size": "3"}, {"size": "128"}, {"size": "128"}]}}}}}, {"name": "model/layer_3_basic_0_conv3x3_2/Conv2D_bn_offset", "op": "Const", "attr": {"value": {"tensor": {"dtype": "DT_FLOAT", "tensorShape": {"dim": [{"size": "128"}]}}}, "dtype": {"type": "DT_FLOAT"}}}, {"name": "model/layer_3_0_basic_1_conv3x3_1/Conv2D_weights", "op": "Const", "attr": {"dtype": {"type": "DT_FLOAT"}, "value": {"tensor": {"dtype": "DT_FLOAT", "tensorShape": {"dim": [{"size": "3"}, {"size": "3"}, {"size": "64"}, {"size": "64"}]}}}}}, {"name": "model/batch_normalization_19/FusedBatchNormV3/Scaled", "op": "Const", "attr": {"value": {"tensor": {"dtype": "DT_FLOAT", "tensorShape": {"dim": [{"size": "480"}]}}}, "dtype": {"type": "DT_FLOAT"}}}, {"name": "model/layer_3_0_basic_1_conv3x3_1/Conv2D_bn_offset", "op": "Const", "attr": {"value": {"tensor": {"dtype": "DT_FLOAT", "tensorShape": {"dim": [{"size": "64"}]}}}, "dtype": {"type": "DT_FLOAT"}}}, {"name": "model/layer_3_basic_1_conv3x3_1/Conv2D_weights", "op": "Const", "attr": {"dtype": {"type": "DT_FLOAT"}, "value": {"tensor": {"dtype": "DT_FLOAT", "tensorShape": {"dim": [{"size": "3"}, {"size": "3"}, {"size": "128"}, {"size": "128"}]}}}}}, {"name": "model/layer_3_basic_1_conv3x3_1/Conv2D_bn_offset", "op": "Const", "attr": {"dtype": {"type": "DT_FLOAT"}, "value": {"tensor": {"dtype": "DT_FLOAT", "tensorShape": {"dim": [{"size": "128"}]}}}}}, {"name": "model/batch_normalization_19/FusedBatchNormV3/Offset", "op": "Const", "attr": {"value": {"tensor": {"dtype": "DT_FLOAT", "tensorShape": {"dim": [{"size": "480"}]}}}, "dtype": {"type": "DT_FLOAT"}}}, {"name": "model/layer_3_0_basic_1_conv3x3_2/Conv2D_weights", "op": "Const", "attr": {"value": {"tensor": {"dtype": "DT_FLOAT", "tensorShape": {"dim": [{"size": "3"}, {"size": "3"}, {"size": "64"}, {"size": "64"}]}}}, "dtype": {"type": "DT_FLOAT"}}}, {"name": "model/layer_3_0_basic_1_conv3x3_2/Conv2D_bn_offset", "op": "Const", "attr": {"value": {"tensor": {"dtype": "DT_FLOAT", "tensorShape": {"dim": [{"size": "64"}]}}}, "dtype": {"type": "DT_FLOAT"}}}, {"name": "model/layer_3_basic_1_conv3x3_2/Conv2D_weights", "op": "Const", "attr": {"dtype": {"type": "DT_FLOAT"}, "value": {"tensor": {"dtype": "DT_FLOAT", "tensorShape": {"dim": [{"size": "3"}, {"size": "3"}, {"size": "128"}, {"size": "128"}]}}}}}, {"name": "model/layer_3_basic_1_conv3x3_2/Conv2D_bn_offset", "op": "Const", "attr": {"value": {"tensor": {"dtype": "DT_FLOAT", "tensorShape": {"dim": [{"size": "128"}]}}}, "dtype": {"type": "DT_FLOAT"}}}, {"name": "model/conv2d_4/Conv2D_weights", "op": "Const", "attr": {"dtype": {"type": "DT_FLOAT"}, "value": {"tensor": {"dtype": "DT_FLOAT", "tensorShape": {"dim": [{"size": "1"}, {"size": "1"}, {"size": "64"}, {"size": "32"}]}}}}}, {"name": "model/conv2d_4/Conv2D_bn_offset", "op": "Const", "attr": {"dtype": {"type": "DT_FLOAT"}, "value": {"tensor": {"dtype": "DT_FLOAT", "tensorShape": {"dim": [{"size": "32"}]}}}}}, {"name": "model/layer_3_basic_2_conv3x3_1/Conv2D_weights", "op": "Const", "attr": {"dtype": {"type": "DT_FLOAT"}, "value": {"tensor": {"dtype": "DT_FLOAT", "tensorShape": {"dim": [{"size": "3"}, {"size": "3"}, {"size": "128"}, {"size": "128"}]}}}}}, {"name": "model/batch_normalization_18/FusedBatchNormV3/Scaled", "op": "Const", "attr": {"value": {"tensor": {"dtype": "DT_FLOAT", "tensorShape": {"dim": [{"size": "96"}]}}}, "dtype": {"type": "DT_FLOAT"}}}, {"name": "model/layer_3_basic_2_conv3x3_1/Conv2D_bn_offset", "op": "Const", "attr": {"dtype": {"type": "DT_FLOAT"}, "value": {"tensor": {"dtype": "DT_FLOAT", "tensorShape": {"dim": [{"size": "128"}]}}}}}, {"name": "model/layer_3_basic_2_conv3x3_2/Conv2D_weights", "op": "Const", "attr": {"value": {"tensor": {"dtype": "DT_FLOAT", "tensorShape": {"dim": [{"size": "3"}, {"size": "3"}, {"size": "128"}, {"size": "128"}]}}}, "dtype": {"type": "DT_FLOAT"}}}, {"name": "model/layer_3_basic_2_conv3x3_2/Conv2D_bn_offset", "op": "Const", "attr": {"dtype": {"type": "DT_FLOAT"}, "value": {"tensor": {"dtype": "DT_FLOAT", "tensorShape": {"dim": [{"size": "128"}]}}}}}, {"name": "model/conv2d_5/Conv2D_weights", "op": "Const", "attr": {"value": {"tensor": {"dtype": "DT_FLOAT", "tensorShape": {"dim": [{"size": "3"}, {"size": "3"}, {"size": "128"}, {"size": "32"}]}}}, "dtype": {"type": "DT_FLOAT"}}}, {"name": "model/batch_normalization_18/FusedBatchNormV3/Offset", "op": "Const", "attr": {"value": {"tensor": {"dtype": "DT_FLOAT", "tensorShape": {"dim": [{"size": "96"}]}}}, "dtype": {"type": "DT_FLOAT"}}}, {"name": "model/conv2d_5/Conv2D_bn_offset", "op": "Const", "attr": {"value": {"tensor": {"dtype": "DT_FLOAT", "tensorShape": {"dim": [{"size": "32"}]}}}, "dtype": {"type": "DT_FLOAT"}}}, {"name": "model/conv2d_2/Conv2D_weights", "op": "Const", "attr": {"dtype": {"type": "DT_FLOAT"}, "value": {"tensor": {"dtype": "DT_FLOAT", "tensorShape": {"dim": [{"size": "1"}, {"size": "1"}, {"size": "128"}, {"size": "64"}]}}}}}, {"name": "model/conv2d_2/Conv2D_bn_offset", "op": "Const", "attr": {"value": {"tensor": {"dtype": "DT_FLOAT", "tensorShape": {"dim": [{"size": "64"}]}}}, "dtype": {"type": "DT_FLOAT"}}}, {"name": "model/layer_4_basic_0_conv3x3_1/Conv2D_weights", "op": "Const", "attr": {"dtype": {"type": "DT_FLOAT"}, "value": {"tensor": {"dtype": "DT_FLOAT", "tensorShape": {"dim": [{"size": "3"}, {"size": "3"}, {"size": "128"}, {"size": "256"}]}}}}}, {"name": "model/layer_4_basic_0_conv3x3_1/Conv2D_bn_offset", "op": "Const", "attr": {"value": {"tensor": {"dtype": "DT_FLOAT", "tensorShape": {"dim": [{"size": "256"}]}}}, "dtype": {"type": "DT_FLOAT"}}}, {"name": "model/layer_4_conv2d/Conv2D_weights", "op": "Const", "attr": {"value": {"tensor": {"dtype": "DT_FLOAT", "tensorShape": {"dim": [{"size": "1"}, {"size": "1"}, {"size": "128"}, {"size": "256"}]}}}, "dtype": {"type": "DT_FLOAT"}}}, {"name": "model/batch_normalization_16/FusedBatchNormV3/Scaled", "op": "Const", "attr": {"dtype": {"type": "DT_FLOAT"}, "value": {"tensor": {"dtype": "DT_FLOAT", "tensorShape": {"dim": [{"size": "96"}]}}}}}, {"name": "model/layer_4_conv2d/Conv2D_bn_offset", "op": "Const", "attr": {"dtype": {"type": "DT_FLOAT"}, "value": {"tensor": {"dtype": "DT_FLOAT", "tensorShape": {"dim": [{"size": "256"}]}}}}}, {"name": "model/conv2d_3/Conv2D_weights", "op": "Const", "attr": {"dtype": {"type": "DT_FLOAT"}, "value": {"tensor": {"dtype": "DT_FLOAT", "tensorShape": {"dim": [{"size": "1"}, {"size": "1"}, {"size": "64"}, {"size": "32"}]}}}}}, {"name": "model/conv2d_3/Conv2D_bn_offset", "op": "Const", "attr": {"dtype": {"type": "DT_FLOAT"}, "value": {"tensor": {"dtype": "DT_FLOAT", "tensorShape": {"dim": [{"size": "32"}]}}}}}, {"name": "model/layer_4_basic_0_conv3x3_2/Conv2D_weights", "op": "Const", "attr": {"value": {"tensor": {"dtype": "DT_FLOAT", "tensorShape": {"dim": [{"size": "3"}, {"size": "3"}, {"size": "256"}, {"size": "256"}]}}}, "dtype": {"type": "DT_FLOAT"}}}, {"name": "model/layer_4_basic_0_conv3x3_2/Conv2D_bn_offset", "op": "Const", "attr": {"value": {"tensor": {"dtype": "DT_FLOAT", "tensorShape": {"dim": [{"size": "256"}]}}}, "dtype": {"type": "DT_FLOAT"}}}, {"name": "model/layer_4_d_basic_0bottle_neck_conv1x1_1/Conv2D_weights", "op": "Const", "attr": {"dtype": {"type": "DT_FLOAT"}, "value": {"tensor": {"dtype": "DT_FLOAT", "tensorShape": {"dim": [{"size": "1"}, {"size": "1"}, {"size": "32"}, {"size": "32"}]}}}}}, {"name": "model/batch_normalization_16/FusedBatchNormV3/Offset", "op": "Const", "attr": {"dtype": {"type": "DT_FLOAT"}, "value": {"tensor": {"dtype": "DT_FLOAT", "tensorShape": {"dim": [{"size": "96"}]}}}}}, {"name": "model/layer_4_d_basic_0bottle_neck_conv1x1_1/Conv2D_bn_offset", "op": "Const", "attr": {"dtype": {"type": "DT_FLOAT"}, "value": {"tensor": {"dtype": "DT_FLOAT", "tensorShape": {"dim": [{"size": "32"}]}}}}}, {"name": "model/layer_4_d_conv2d/Conv2D_weights", "op": "Const", "attr": {"dtype": {"type": "DT_FLOAT"}, "value": {"tensor": {"dtype": "DT_FLOAT", "tensorShape": {"dim": [{"size": "1"}, {"size": "1"}, {"size": "32"}, {"size": "64"}]}}}}}, {"name": "model/layer_4_d_conv2d/Conv2D_bn_offset", "op": "Const", "attr": {"value": {"tensor": {"dtype": "DT_FLOAT", "tensorShape": {"dim": [{"size": "64"}]}}}, "dtype": {"type": "DT_FLOAT"}}}, {"name": "model/layer_4_basic_1_conv3x3_1/Conv2D_weights", "op": "Const", "attr": {"value": {"tensor": {"dtype": "DT_FLOAT", "tensorShape": {"dim": [{"size": "3"}, {"size": "3"}, {"size": "256"}, {"size": "256"}]}}}, "dtype": {"type": "DT_FLOAT"}}}, {"name": "model/layer_4_basic_1_conv3x3_1/Conv2D_bn_offset", "op": "Const", "attr": {"value": {"tensor": {"dtype": "DT_FLOAT", "tensorShape": {"dim": [{"size": "256"}]}}}, "dtype": {"type": "DT_FLOAT"}}}, {"name": "model/batch_normalization_14/FusedBatchNormV3/Scaled", "op": "Const", "attr": {"value": {"tensor": {"dtype": "DT_FLOAT", "tensorShape": {"dim": [{"size": "96"}]}}}, "dtype": {"type": "DT_FLOAT"}}}, {"name": "model/layer_4_d_basic_0bottle_neck_conv3x3_1/Conv2D_weights", "op": "Const", "attr": {"value": {"tensor": {"dtype": "DT_FLOAT", "tensorShape": {"dim": [{"size": "3"}, {"size": "3"}, {"size": "32"}, {"size": "32"}]}}}, "dtype": {"type": "DT_FLOAT"}}}, {"name": "model/layer_4_d_basic_0bottle_neck_conv3x3_1/Conv2D_bn_offset", "op": "Const", "attr": {"dtype": {"type": "DT_FLOAT"}, "value": {"tensor": {"dtype": "DT_FLOAT", "tensorShape": {"dim": [{"size": "32"}]}}}}}, {"name": "model/layer_4_basic_1_conv3x3_2/Conv2D_weights", "op": "Const", "attr": {"dtype": {"type": "DT_FLOAT"}, "value": {"tensor": {"dtype": "DT_FLOAT", "tensorShape": {"dim": [{"size": "3"}, {"size": "3"}, {"size": "256"}, {"size": "256"}]}}}}}, {"name": "model/batch_normalization_14/FusedBatchNormV3/Offset", "op": "Const", "attr": {"value": {"tensor": {"dtype": "DT_FLOAT", "tensorShape": {"dim": [{"size": "96"}]}}}, "dtype": {"type": "DT_FLOAT"}}}, {"name": "model/layer_4_basic_1_conv3x3_2/Conv2D_bn_offset", "op": "Const", "attr": {"dtype": {"type": "DT_FLOAT"}, "value": {"tensor": {"dtype": "DT_FLOAT", "tensorShape": {"dim": [{"size": "256"}]}}}}}, {"name": "model/layer_4_d_basic_0bottle_neck_conv1x1_2/Conv2D_weights", "op": "Const", "attr": {"value": {"tensor": {"dtype": "DT_FLOAT", "tensorShape": {"dim": [{"size": "1"}, {"size": "1"}, {"size": "32"}, {"size": "64"}]}}}, "dtype": {"type": "DT_FLOAT"}}}, {"name": "model/layer_4_d_basic_0bottle_neck_conv1x1_2/Conv2D_bn_offset", "op": "Const", "attr": {"value": {"tensor": {"dtype": "DT_FLOAT", "tensorShape": {"dim": [{"size": "64"}]}}}, "dtype": {"type": "DT_FLOAT"}}}, {"name": "model/layer_4_0_basic_0_conv3x3_1/Conv2D_weights", "op": "Const", "attr": {"value": {"tensor": {"dtype": "DT_FLOAT", "tensorShape": {"dim": [{"size": "3"}, {"size": "3"}, {"size": "64"}, {"size": "64"}]}}}, "dtype": {"type": "DT_FLOAT"}}}, {"name": "model/layer_4_0_basic_0_conv3x3_1/Conv2D_bn_offset", "op": "Const", "attr": {"dtype": {"type": "DT_FLOAT"}, "value": {"tensor": {"dtype": "DT_FLOAT", "tensorShape": {"dim": [{"size": "64"}]}}}}}, {"name": "model/layer_4_basic_2_conv3x3_1/Conv2D_weights", "op": "Const", "attr": {"value": {"tensor": {"dtype": "DT_FLOAT", "tensorShape": {"dim": [{"size": "3"}, {"size": "3"}, {"size": "256"}, {"size": "256"}]}}}, "dtype": {"type": "DT_FLOAT"}}}, {"name": "model/batch_normalization_12/FusedBatchNormV3/Scaled", "op": "Const", "attr": {"dtype": {"type": "DT_FLOAT"}, "value": {"tensor": {"dtype": "DT_FLOAT", "tensorShape": {"dim": [{"size": "96"}]}}}}}, {"name": "model/layer_4_basic_2_conv3x3_1/Conv2D_bn_offset", "op": "Const", "attr": {"dtype": {"type": "DT_FLOAT"}, "value": {"tensor": {"dtype": "DT_FLOAT", "tensorShape": {"dim": [{"size": "256"}]}}}}}, {"name": "model/layer_4_0_basic_0_conv3x3_2/Conv2D_weights", "op": "Const", "attr": {"dtype": {"type": "DT_FLOAT"}, "value": {"tensor": {"dtype": "DT_FLOAT", "tensorShape": {"dim": [{"size": "3"}, {"size": "3"}, {"size": "64"}, {"size": "64"}]}}}}}, {"name": "model/layer_4_0_basic_0_conv3x3_2/Conv2D_bn_offset", "op": "Const", "attr": {"dtype": {"type": "DT_FLOAT"}, "value": {"tensor": {"dtype": "DT_FLOAT", "tensorShape": {"dim": [{"size": "64"}]}}}}}, {"name": "model/layer_4_basic_2_conv3x3_2/Conv2D_weights", "op": "Const", "attr": {"value": {"tensor": {"dtype": "DT_FLOAT", "tensorShape": {"dim": [{"size": "3"}, {"size": "3"}, {"size": "256"}, {"size": "256"}]}}}, "dtype": {"type": "DT_FLOAT"}}}, {"name": "model/batch_normalization_12/FusedBatchNormV3/Offset", "op": "Const", "attr": {"dtype": {"type": "DT_FLOAT"}, "value": {"tensor": {"dtype": "DT_FLOAT", "tensorShape": {"dim": [{"size": "96"}]}}}}}, {"name": "model/layer_4_basic_2_conv3x3_2/Conv2D_bn_offset", "op": "Const", "attr": {"dtype": {"type": "DT_FLOAT"}, "value": {"tensor": {"dtype": "DT_FLOAT", "tensorShape": {"dim": [{"size": "256"}]}}}}}, {"name": "model/layer_4_0_basic_1_conv3x3_1/Conv2D_weights", "op": "Const", "attr": {"value": {"tensor": {"dtype": "DT_FLOAT", "tensorShape": {"dim": [{"size": "3"}, {"size": "3"}, {"size": "64"}, {"size": "64"}]}}}, "dtype": {"type": "DT_FLOAT"}}}, {"name": "model/layer_4_0_basic_1_conv3x3_1/Conv2D_bn_offset", "op": "Const", "attr": {"dtype": {"type": "DT_FLOAT"}, "value": {"tensor": {"dtype": "DT_FLOAT", "tensorShape": {"dim": [{"size": "64"}]}}}}}, {"name": "model/layer_5_basic_0bottle_neck_conv1x1_1/Conv2D_weights", "op": "Const", "attr": {"dtype": {"type": "DT_FLOAT"}, "value": {"tensor": {"dtype": "DT_FLOAT", "tensorShape": {"dim": [{"size": "1"}, {"size": "1"}, {"size": "256"}, {"size": "256"}]}}}}}, {"name": "model/layer_5_basic_0bottle_neck_conv1x1_1/Conv2D_bn_offset", "op": "Const", "attr": {"value": {"tensor": {"dtype": "DT_FLOAT", "tensorShape": {"dim": [{"size": "256"}]}}}, "dtype": {"type": "DT_FLOAT"}}}, {"name": "model/batch_normalization_10/FusedBatchNormV3/Scaled", "op": "Const", "attr": {"dtype": {"type": "DT_FLOAT"}, "value": {"tensor": {"dtype": "DT_FLOAT", "tensorShape": {"dim": [{"size": "512"}]}}}}}, {"name": "model/layer_5_conv2d/Conv2D_weights", "op": "Const", "attr": {"value": {"tensor": {"dtype": "DT_FLOAT", "tensorShape": {"dim": [{"size": "1"}, {"size": "1"}, {"size": "256"}, {"size": "512"}]}}}, "dtype": {"type": "DT_FLOAT"}}}, {"name": "model/layer_5_conv2d/Conv2D_bn_offset", "op": "Const", "attr": {"dtype": {"type": "DT_FLOAT"}, "value": {"tensor": {"dtype": "DT_FLOAT", "tensorShape": {"dim": [{"size": "512"}]}}}}}, {"name": "model/conv2d_9/Conv2D_weights", "op": "Const", "attr": {"value": {"tensor": {"dtype": "DT_FLOAT", "tensorShape": {"dim": [{"size": "3"}, {"size": "3"}, {"size": "256"}, {"size": "64"}]}}}, "dtype": {"type": "DT_FLOAT"}}}, {"name": "model/conv2d_9/Conv2D_bn_offset", "op": "Const", "attr": {"value": {"tensor": {"dtype": "DT_FLOAT", "tensorShape": {"dim": [{"size": "64"}]}}}, "dtype": {"type": "DT_FLOAT"}}}, {"name": "model/conv2d_6/Conv2D_weights", "op": "Const", "attr": {"value": {"tensor": {"dtype": "DT_FLOAT", "tensorShape": {"dim": [{"size": "1"}, {"size": "1"}, {"size": "256"}, {"size": "64"}]}}}, "dtype": {"type": "DT_FLOAT"}}}, {"name": "model/batch_normalization_10/FusedBatchNormV3/Offset", "op": "Const", "attr": {"dtype": {"type": "DT_FLOAT"}, "value": {"tensor": {"dtype": "DT_FLOAT", "tensorShape": {"dim": [{"size": "512"}]}}}}}, {"name": "model/conv2d_6/Conv2D_bn_offset", "op": "Const", "attr": {"value": {"tensor": {"dtype": "DT_FLOAT", "tensorShape": {"dim": [{"size": "64"}]}}}, "dtype": {"type": "DT_FLOAT"}}}, {"name": "model/layer_4_0_basic_1_conv3x3_2/Conv2D_weights", "op": "Const", "attr": {"value": {"tensor": {"dtype": "DT_FLOAT", "tensorShape": {"dim": [{"size": "3"}, {"size": "3"}, {"size": "64"}, {"size": "64"}]}}}, "dtype": {"type": "DT_FLOAT"}}}, {"name": "model/layer_4_0_basic_1_conv3x3_2/Conv2D_bn_offset", "op": "Const", "attr": {"value": {"tensor": {"dtype": "DT_FLOAT", "tensorShape": {"dim": [{"size": "64"}]}}}, "dtype": {"type": "DT_FLOAT"}}}, {"name": "model/conv2d_7/Conv2D_weights", "op": "Const", "attr": {"dtype": {"type": "DT_FLOAT"}, "value": {"tensor": {"dtype": "DT_FLOAT", "tensorShape": {"dim": [{"size": "1"}, {"size": "1"}, {"size": "64"}, {"size": "32"}]}}}}}, {"name": "model/conv2d_7/Conv2D_bn_offset", "op": "Const", "attr": {"value": {"tensor": {"dtype": "DT_FLOAT", "tensorShape": {"dim": [{"size": "32"}]}}}, "dtype": {"type": "DT_FLOAT"}}}, {"name": "model/layer_5_basic_0bottle_neck_conv3x3_1/Conv2D_weights", "op": "Const", "attr": {"dtype": {"type": "DT_FLOAT"}, "value": {"tensor": {"dtype": "DT_FLOAT", "tensorShape": {"dim": [{"size": "3"}, {"size": "3"}, {"size": "256"}, {"size": "256"}]}}}}}, {"name": "model/layer_5_basic_0bottle_neck_conv3x3_1/Conv2D_bn_offset", "op": "Const", "attr": {"dtype": {"type": "DT_FLOAT"}, "value": {"tensor": {"dtype": "DT_FLOAT", "tensorShape": {"dim": [{"size": "256"}]}}}}}, {"name": "model/batch_normalization_17/FusedBatchNormV3/Scaled", "op": "Const", "attr": {"dtype": {"type": "DT_FLOAT"}, "value": {"tensor": {"dtype": "DT_FLOAT", "tensorShape": {"dim": [{"size": "512"}]}}}}}, {"name": "model/conv2d_8/Conv2D_weights", "op": "Const", "attr": {"value": {"tensor": {"dtype": "DT_FLOAT", "tensorShape": {"dim": [{"size": "1"}, {"size": "1"}, {"size": "64"}, {"size": "32"}]}}}, "dtype": {"type": "DT_FLOAT"}}}, {"name": "model/conv2d_8/Conv2D_bn_offset", "op": "Const", "attr": {"dtype": {"type": "DT_FLOAT"}, "value": {"tensor": {"dtype": "DT_FLOAT", "tensorShape": {"dim": [{"size": "32"}]}}}}}, {"name": "model/layer_5_d_basic_0bottle_neck_conv1x1_1/Conv2D_weights", "op": "Const", "attr": {"dtype": {"type": "DT_FLOAT"}, "value": {"tensor": {"dtype": "DT_FLOAT", "tensorShape": {"dim": [{"size": "1"}, {"size": "1"}, {"size": "64"}, {"size": "64"}]}}}}}, {"name": "model/layer_5_d_basic_0bottle_neck_conv1x1_1/Conv2D_bn_offset", "op": "Const", "attr": {"value": {"tensor": {"dtype": "DT_FLOAT", "tensorShape": {"dim": [{"size": "64"}]}}}, "dtype": {"type": "DT_FLOAT"}}}, {"name": "model/batch_normalization_17/FusedBatchNormV3/Offset", "op": "Const", "attr": {"value": {"tensor": {"dtype": "DT_FLOAT", "tensorShape": {"dim": [{"size": "512"}]}}}, "dtype": {"type": "DT_FLOAT"}}}, {"name": "model/layer_5_d_conv2d/Conv2D_weights", "op": "Const", "attr": {"value": {"tensor": {"dtype": "DT_FLOAT", "tensorShape": {"dim": [{"size": "1"}, {"size": "1"}, {"size": "64"}, {"size": "128"}]}}}, "dtype": {"type": "DT_FLOAT"}}}, {"name": "model/layer_5_d_conv2d/Conv2D_bn_offset", "op": "Const", "attr": {"dtype": {"type": "DT_FLOAT"}, "value": {"tensor": {"dtype": "DT_FLOAT", "tensorShape": {"dim": [{"size": "128"}]}}}}}, {"name": "model/layer_5_basic_0bottle_neck_conv1x1_2/Conv2D_weights", "op": "Const", "attr": {"value": {"tensor": {"dtype": "DT_FLOAT", "tensorShape": {"dim": [{"size": "1"}, {"size": "1"}, {"size": "256"}, {"size": "512"}]}}}, "dtype": {"type": "DT_FLOAT"}}}, {"name": "model/layer_5_basic_0bottle_neck_conv1x1_2/Conv2D_bn_offset", "op": "Const", "attr": {"value": {"tensor": {"dtype": "DT_FLOAT", "tensorShape": {"dim": [{"size": "512"}]}}}, "dtype": {"type": "DT_FLOAT"}}}, {"name": "model/layer_5_d_basic_0bottle_neck_conv3x3_1/Conv2D_weights", "op": "Const", "attr": {"dtype": {"type": "DT_FLOAT"}, "value": {"tensor": {"dtype": "DT_FLOAT", "tensorShape": {"dim": [{"size": "3"}, {"size": "3"}, {"size": "64"}, {"size": "64"}]}}}}}, {"name": "model/layer_5_d_basic_0bottle_neck_conv3x3_1/Conv2D_bn_offset", "op": "Const", "attr": {"dtype": {"type": "DT_FLOAT"}, "value": {"tensor": {"dtype": "DT_FLOAT", "tensorShape": {"dim": [{"size": "64"}]}}}}}, {"name": "model/batch_normalization_15/FusedBatchNormV3/Scaled", "op": "Const", "attr": {"value": {"tensor": {"dtype": "DT_FLOAT", "tensorShape": {"dim": [{"size": "512"}]}}}, "dtype": {"type": "DT_FLOAT"}}}, {"name": "model/layer_5_basic_1bottle_neck_conv1x1_1/Conv2D_weights", "op": "Const", "attr": {"dtype": {"type": "DT_FLOAT"}, "value": {"tensor": {"dtype": "DT_FLOAT", "tensorShape": {"dim": [{"size": "1"}, {"size": "1"}, {"size": "512"}, {"size": "256"}]}}}}}, {"name": "model/layer_5_basic_1bottle_neck_conv1x1_1/Conv2D_bn_offset", "op": "Const", "attr": {"dtype": {"type": "DT_FLOAT"}, "value": {"tensor": {"dtype": "DT_FLOAT", "tensorShape": {"dim": [{"size": "256"}]}}}}}, {"name": "model/layer_5_d_basic_0bottle_neck_conv1x1_2/Conv2D_weights", "op": "Const", "attr": {"dtype": {"type": "DT_FLOAT"}, "value": {"tensor": {"dtype": "DT_FLOAT", "tensorShape": {"dim": [{"size": "1"}, {"size": "1"}, {"size": "64"}, {"size": "128"}]}}}}}, {"name": "model/batch_normalization_15/FusedBatchNormV3/Offset", "op": "Const", "attr": {"value": {"tensor": {"dtype": "DT_FLOAT", "tensorShape": {"dim": [{"size": "512"}]}}}, "dtype": {"type": "DT_FLOAT"}}}, {"name": "model/layer_5_d_basic_0bottle_neck_conv1x1_2/Conv2D_bn_offset", "op": "Const", "attr": {"value": {"tensor": {"dtype": "DT_FLOAT", "tensorShape": {"dim": [{"size": "128"}]}}}, "dtype": {"type": "DT_FLOAT"}}}, {"name": "model/layer_5_basic_1bottle_neck_conv3x3_1/Conv2D_weights", "op": "Const", "attr": {"value": {"tensor": {"dtype": "DT_FLOAT", "tensorShape": {"dim": [{"size": "3"}, {"size": "3"}, {"size": "256"}, {"size": "256"}]}}}, "dtype": {"type": "DT_FLOAT"}}}, {"name": "model/layer_5_basic_1bottle_neck_conv3x3_1/Conv2D_bn_offset", "op": "Const", "attr": {"value": {"tensor": {"dtype": "DT_FLOAT", "tensorShape": {"dim": [{"size": "256"}]}}}, "dtype": {"type": "DT_FLOAT"}}}, {"name": "model/layer_5_0_basic_0bottle_neck_conv1x1_1/Conv2D_weights", "op": "Const", "attr": {"dtype": {"type": "DT_FLOAT"}, "value": {"tensor": {"dtype": "DT_FLOAT", "tensorShape": {"dim": [{"size": "1"}, {"size": "1"}, {"size": "64"}, {"size": "64"}]}}}}}, {"name": "model/layer_5_0_basic_0bottle_neck_conv1x1_1/Conv2D_bn_offset", "op": "Const", "attr": {"value": {"tensor": {"dtype": "DT_FLOAT", "tensorShape": {"dim": [{"size": "64"}]}}}, "dtype": {"type": "DT_FLOAT"}}}, {"name": "model/batch_normalization_13/FusedBatchNormV3/Scaled", "op": "Const", "attr": {"value": {"tensor": {"dtype": "DT_FLOAT", "tensorShape": {"dim": [{"size": "512"}]}}}, "dtype": {"type": "DT_FLOAT"}}}, {"name": "model/layer_5_0_conv2d/Conv2D_weights", "op": "Const", "attr": {"dtype": {"type": "DT_FLOAT"}, "value": {"tensor": {"dtype": "DT_FLOAT", "tensorShape": {"dim": [{"size": "1"}, {"size": "1"}, {"size": "64"}, {"size": "128"}]}}}}}, {"name": "model/layer_5_0_conv2d/Conv2D_bn_offset", "op": "Const", "attr": {"value": {"tensor": {"dtype": "DT_FLOAT", "tensorShape": {"dim": [{"size": "128"}]}}}, "dtype": {"type": "DT_FLOAT"}}}, {"name": "model/layer_5_basic_1bottle_neck_conv1x1_2/Conv2D_weights", "op": "Const", "attr": {"value": {"tensor": {"dtype": "DT_FLOAT", "tensorShape": {"dim": [{"size": "1"}, {"size": "1"}, {"size": "256"}, {"size": "512"}]}}}, "dtype": {"type": "DT_FLOAT"}}}, {"name": "model/layer_5_basic_1bottle_neck_conv1x1_2/Conv2D_bn_offset", "op": "Const", "attr": {"dtype": {"type": "DT_FLOAT"}, "value": {"tensor": {"dtype": "DT_FLOAT", "tensorShape": {"dim": [{"size": "512"}]}}}}}, {"name": "model/layer_5_0_basic_0bottle_neck_conv3x3_1/Conv2D_weights", "op": "Const", "attr": {"value": {"tensor": {"dtype": "DT_FLOAT", "tensorShape": {"dim": [{"size": "3"}, {"size": "3"}, {"size": "64"}, {"size": "64"}]}}}, "dtype": {"type": "DT_FLOAT"}}}, {"name": "model/batch_normalization_13/FusedBatchNormV3/Offset", "op": "Const", "attr": {"dtype": {"type": "DT_FLOAT"}, "value": {"tensor": {"dtype": "DT_FLOAT", "tensorShape": {"dim": [{"size": "512"}]}}}}}, {"name": "model/layer_5_0_basic_0bottle_neck_conv3x3_1/Conv2D_bn_offset", "op": "Const", "attr": {"value": {"tensor": {"dtype": "DT_FLOAT", "tensorShape": {"dim": [{"size": "64"}]}}}, "dtype": {"type": "DT_FLOAT"}}}, {"name": "model/layer_5_0_basic_0bottle_neck_conv1x1_2/Conv2D_weights", "op": "Const", "attr": {"dtype": {"type": "DT_FLOAT"}, "value": {"tensor": {"dtype": "DT_FLOAT", "tensorShape": {"dim": [{"size": "1"}, {"size": "1"}, {"size": "64"}, {"size": "128"}]}}}}}, {"name": "model/layer_5_0_basic_0bottle_neck_conv1x1_2/Conv2D_bn_offset", "op": "Const", "attr": {"dtype": {"type": "DT_FLOAT"}, "value": {"tensor": {"dtype": "DT_FLOAT", "tensorShape": {"dim": [{"size": "128"}]}}}}}, {"name": "model/conv2d_22/Conv2D_weights", "op": "Const", "attr": {"dtype": {"type": "DT_FLOAT"}, "value": {"tensor": {"dtype": "DT_FLOAT", "tensorShape": {"dim": [{"size": "1"}, {"size": "1"}, {"size": "128"}, {"size": "128"}]}}}}}, {"name": "model/conv2d_22/Conv2D_bn_offset", "op": "Const", "attr": {"value": {"tensor": {"dtype": "DT_FLOAT", "tensorShape": {"dim": [{"size": "128"}]}}}, "dtype": {"type": "DT_FLOAT"}}}, {"name": "model/conv2d_21/Conv2D_weights", "op": "Const", "attr": {"value": {"tensor": {"dtype": "DT_FLOAT", "tensorShape": {"dim": [{"size": "1"}, {"size": "1"}, {"size": "128"}, {"size": "128"}]}}}, "dtype": {"type": "DT_FLOAT"}}}, {"name": "model/batch_normalization_11/FusedBatchNormV3/Scaled", "op": "Const", "attr": {"dtype": {"type": "DT_FLOAT"}, "value": {"tensor": {"dtype": "DT_FLOAT", "tensorShape": {"dim": [{"size": "512"}]}}}}}, {"name": "model/conv2d_21/Conv2D_bn_offset", "op": "Const", "attr": {"dtype": {"type": "DT_FLOAT"}, "value": {"tensor": {"dtype": "DT_FLOAT", "tensorShape": {"dim": [{"size": "128"}]}}}}}, {"name": "model/activation/Relu", "op": "_FusedConv2D", "input": ["x", "model/conv2d/Conv2D_weights", "model/conv2d/Conv2D_bn_offset"], "device": "/device:CPU:0", "attr": {"T": {"type": "DT_FLOAT"}, "data_format": {"s": "TkhXQw=="}, "fused_ops": {"list": {"s": ["Qmlhc0FkZA==", "UmVsdQ=="]}}, "dilations": {"list": {"i": ["1", "1", "1", "1"]}}, "padding": {"s": "U0FNRQ=="}, "epsilon": {"f": 0.0}, "use_cudnn_on_gpu": {"b": true}, "explicit_paddings": {"list": {}}, "strides": {"list": {"i": ["1", "2", "2", "1"]}}, "num_args": {"i": "1"}}}, {"name": "model/activation_1/Relu", "op": "_FusedConv2D", "input": ["model/activation/Relu", "model/conv2d_1/Conv2D_weights", "model/conv2d_1/Conv2D_bn_offset"], "device": "/device:CPU:0", "attr": {"num_args": {"i": "1"}, "dilations": {"list": {"i": ["1", "1", "1", "1"]}}, "T": {"type": "DT_FLOAT"}, "epsilon": {"f": 0.0}, "fused_ops": {"list": {"s": ["Qmlhc0FkZA==", "UmVsdQ=="]}}, "strides": {"list": {"i": ["1", "2", "2", "1"]}}, "explicit_paddings": {"list": {}}, "padding": {"s": "U0FNRQ=="}, "use_cudnn_on_gpu": {"b": true}, "data_format": {"s": "TkhXQw=="}}}, {"name": "model/layer_1_basic_0_activation_1/Relu", "op": "_FusedConv2D", "input": ["model/activation_1/Relu", "model/layer_1_basic_0_conv3x3_1/Conv2D_weights", "model/layer_1_basic_0_conv3x3_1/Conv2D_bn_offset"], "device": "/device:CPU:0", "attr": {"fused_ops": {"list": {"s": ["Qmlhc0FkZA==", "UmVsdQ=="]}}, "strides": {"list": {"i": ["1", "1", "1", "1"]}}, "epsilon": {"f": 0.0}, "use_cudnn_on_gpu": {"b": true}, "explicit_paddings": {"list": {}}, "padding": {"s": "U0FNRQ=="}, "dilations": {"list": {"i": ["1", "1", "1", "1"]}}, "T": {"type": "DT_FLOAT"}, "data_format": {"s": "TkhXQw=="}, "num_args": {"i": "1"}}}, {"name": "model/layer_1_basic_0_bn_2/FusedBatchNormV3", "op": "_FusedConv2D", "input": ["model/layer_1_basic_0_activation_1/Relu", "model/layer_1_basic_0_conv3x3_2/Conv2D_weights", "model/layer_1_basic_0_conv3x3_2/Conv2D_bn_offset"], "device": "/device:CPU:0", "attr": {"dilations": {"list": {"i": ["1", "1", "1", "1"]}}, "T": {"type": "DT_FLOAT"}, "fused_ops": {"list": {"s": ["Qmlhc0FkZA=="]}}, "data_format": {"s": "TkhXQw=="}, "use_cudnn_on_gpu": {"b": true}, "padding": {"s": "U0FNRQ=="}, "explicit_paddings": {"list": {}}, "epsilon": {"f": 0.0}, "strides": {"list": {"i": ["1", "1", "1", "1"]}}, "num_args": {"i": "1"}}}, {"name": "model/layer_1_basic_0_residual_add/add", "op": "AddV2", "input": ["model/layer_1_basic_0_bn_2/FusedBatchNormV3", "model/activation_1/Relu"], "attr": {"T": {"type": "DT_FLOAT"}}}, {"name": "model/layer_1_basic_0_residual_activation/Relu", "op": "Relu", "input": ["model/layer_1_basic_0_residual_add/add"], "attr": {"T": {"type": "DT_FLOAT"}}}, {"name": "model/layer_1_basic_1_activation_1/Relu", "op": "_FusedConv2D", "input": ["model/layer_1_basic_0_residual_activation/Relu", "model/layer_1_basic_1_conv3x3_1/Conv2D_weights", "model/layer_1_basic_1_conv3x3_1/Conv2D_bn_offset"], "device": "/device:CPU:0", "attr": {"explicit_paddings": {"list": {}}, "data_format": {"s": "TkhXQw=="}, "fused_ops": {"list": {"s": ["Qmlhc0FkZA==", "UmVsdQ=="]}}, "num_args": {"i": "1"}, "strides": {"list": {"i": ["1", "1", "1", "1"]}}, "use_cudnn_on_gpu": {"b": true}, "padding": {"s": "U0FNRQ=="}, "epsilon": {"f": 0.0}, "dilations": {"list": {"i": ["1", "1", "1", "1"]}}, "T": {"type": "DT_FLOAT"}}}, {"name": "model/layer_1_basic_1_bn_2/FusedBatchNormV3", "op": "_FusedConv2D", "input": ["model/layer_1_basic_1_activation_1/Relu", "model/layer_1_basic_1_conv3x3_2/Conv2D_weights", "model/layer_1_basic_1_conv3x3_2/Conv2D_bn_offset"], "device": "/device:CPU:0", "attr": {"num_args": {"i": "1"}, "explicit_paddings": {"list": {}}, "data_format": {"s": "TkhXQw=="}, "T": {"type": "DT_FLOAT"}, "fused_ops": {"list": {"s": ["Qmlhc0FkZA=="]}}, "strides": {"list": {"i": ["1", "1", "1", "1"]}}, "dilations": {"list": {"i": ["1", "1", "1", "1"]}}, "use_cudnn_on_gpu": {"b": true}, "epsilon": {"f": 0.0}, "padding": {"s": "U0FNRQ=="}}}, {"name": "model/layer_1_basic_1_residual_add/add", "op": "AddV2", "input": ["model/layer_1_basic_1_bn_2/FusedBatchNormV3", "model/layer_1_basic_0_residual_activation/Relu"], "attr": {"T": {"type": "DT_FLOAT"}}}, {"name": "model/activation_2/Relu", "op": "Relu", "input": ["model/layer_1_basic_1_residual_add/add"], "attr": {"T": {"type": "DT_FLOAT"}}}, {"name": "model/layer_2_basic_0_activation_1/Relu", "op": "_FusedConv2D", "input": ["model/activation_2/Relu", "model/layer_2_basic_0_conv3x3_1/Conv2D_weights", "model/layer_2_basic_0_conv3x3_1/Conv2D_bn_offset"], "device": "/device:CPU:0", "attr": {"data_format": {"s": "TkhXQw=="}, "padding": {"s": "U0FNRQ=="}, "strides": {"list": {"i": ["1", "2", "2", "1"]}}, "explicit_paddings": {"list": {}}, "T": {"type": "DT_FLOAT"}, "fused_ops": {"list": {"s": ["Qmlhc0FkZA==", "UmVsdQ=="]}}, "dilations": {"list": {"i": ["1", "1", "1", "1"]}}, "use_cudnn_on_gpu": {"b": true}, "num_args": {"i": "1"}, "epsilon": {"f": 0.0}}}, {"name": "model/layer_2_bn/FusedBatchNormV3", "op": "_FusedConv2D", "input": ["model/activation_2/Relu", "model/layer_2_conv2d/Conv2D_weights", "model/layer_2_conv2d/Conv2D_bn_offset"], "device": "/device:CPU:0", "attr": {"dilations": {"list": {"i": ["1", "1", "1", "1"]}}, "T": {"type": "DT_FLOAT"}, "strides": {"list": {"i": ["1", "2", "2", "1"]}}, "explicit_paddings": {"list": {}}, "data_format": {"s": "TkhXQw=="}, "epsilon": {"f": 0.0}, "fused_ops": {"list": {"s": ["Qmlhc0FkZA=="]}}, "num_args": {"i": "1"}, "use_cudnn_on_gpu": {"b": true}, "padding": {"s": "VkFMSUQ="}}}, {"name": "model/layer_2_basic_0_bn_2/FusedBatchNormV3", "op": "_FusedConv2D", "input": ["model/layer_2_basic_0_activation_1/Relu", "model/layer_2_basic_0_conv3x3_2/Conv2D_weights", "model/layer_2_basic_0_conv3x3_2/Conv2D_bn_offset"], "device": "/device:CPU:0", "attr": {"padding": {"s": "U0FNRQ=="}, "fused_ops": {"list": {"s": ["Qmlhc0FkZA=="]}}, "T": {"type": "DT_FLOAT"}, "use_cudnn_on_gpu": {"b": true}, "epsilon": {"f": 0.0}, "explicit_paddings": {"list": {}}, "dilations": {"list": {"i": ["1", "1", "1", "1"]}}, "strides": {"list": {"i": ["1", "1", "1", "1"]}}, "num_args": {"i": "1"}, "data_format": {"s": "TkhXQw=="}}}, {"name": "model/layer_2_basic_0_residual_add/add", "op": "AddV2", "input": ["model/layer_2_basic_0_bn_2/FusedBatchNormV3", "model/layer_2_bn/FusedBatchNormV3"], "attr": {"T": {"type": "DT_FLOAT"}}}, {"name": "model/layer_2_basic_0_residual_activation/Relu", "op": "Relu", "input": ["model/layer_2_basic_0_residual_add/add"], "attr": {"T": {"type": "DT_FLOAT"}}}, {"name": "model/layer_2_basic_1_activation_1/Relu", "op": "_FusedConv2D", "input": ["model/layer_2_basic_0_residual_activation/Relu", "model/layer_2_basic_1_conv3x3_1/Conv2D_weights", "model/layer_2_basic_1_conv3x3_1/Conv2D_bn_offset"], "device": "/device:CPU:0", "attr": {"data_format": {"s": "TkhXQw=="}, "num_args": {"i": "1"}, "use_cudnn_on_gpu": {"b": true}, "fused_ops": {"list": {"s": ["Qmlhc0FkZA==", "UmVsdQ=="]}}, "strides": {"list": {"i": ["1", "1", "1", "1"]}}, "explicit_paddings": {"list": {}}, "dilations": {"list": {"i": ["1", "1", "1", "1"]}}, "padding": {"s": "U0FNRQ=="}, "T": {"type": "DT_FLOAT"}, "epsilon": {"f": 0.0}}}, {"name": "model/layer_2_basic_1_bn_2/FusedBatchNormV3", "op": "_FusedConv2D", "input": ["model/layer_2_basic_1_activation_1/Relu", "model/layer_2_basic_1_conv3x3_2/Conv2D_weights", "model/layer_2_basic_1_conv3x3_2/Conv2D_bn_offset"], "device": "/device:CPU:0", "attr": {"use_cudnn_on_gpu": {"b": true}, "data_format": {"s": "TkhXQw=="}, "fused_ops": {"list": {"s": ["Qmlhc0FkZA=="]}}, "strides": {"list": {"i": ["1", "1", "1", "1"]}}, "explicit_paddings": {"list": {}}, "dilations": {"list": {"i": ["1", "1", "1", "1"]}}, "T": {"type": "DT_FLOAT"}, "num_args": {"i": "1"}, "padding": {"s": "U0FNRQ=="}, "epsilon": {"f": 0.0}}}, {"name": "model/layer_2_basic_1_residual_add/add", "op": "AddV2", "input": ["model/layer_2_basic_1_bn_2/FusedBatchNormV3", "model/layer_2_basic_0_residual_activation/Relu"], "attr": {"T": {"type": "DT_FLOAT"}}}, {"name": "model/activation_3/Relu", "op": "Relu", "input": ["model/layer_2_basic_1_residual_add/add"], "attr": {"T": {"type": "DT_FLOAT"}}}, {"name": "model/layer_3_d_basic_0_activation_1/Relu", "op": "_FusedConv2D", "input": ["model/activation_3/Relu", "model/layer_3_d_basic_0_conv3x3_1/Conv2D_weights", "model/layer_3_d_basic_0_conv3x3_1/Conv2D_bn_offset"], "device": "/device:CPU:0", "attr": {"data_format": {"s": "TkhXQw=="}, "padding": {"s": "U0FNRQ=="}, "strides": {"list": {"i": ["1", "1", "1", "1"]}}, "epsilon": {"f": 0.0}, "num_args": {"i": "1"}, "fused_ops": {"list": {"s": ["Qmlhc0FkZA==", "UmVsdQ=="]}}, "dilations": {"list": {"i": ["1", "1", "1", "1"]}}, "use_cudnn_on_gpu": {"b": true}, "explicit_paddings": {"list": {}}, "T": {"type": "DT_FLOAT"}}}, {"name": "model/layer_3_d_bn/FusedBatchNormV3", "op": "_FusedConv2D", "input": ["model/activation_3/Relu", "model/layer_3_d_conv2d/Conv2D_weights", "model/layer_3_d_conv2d/Conv2D_bn_offset"], "device": "/device:CPU:0", "attr": {"num_args": {"i": "1"}, "dilations": {"list": {"i": ["1", "1", "1", "1"]}}, "explicit_paddings": {"list": {}}, "epsilon": {"f": 0.0}, "use_cudnn_on_gpu": {"b": true}, "fused_ops": {"list": {"s": ["Qmlhc0FkZA=="]}}, "T": {"type": "DT_FLOAT"}, "strides": {"list": {"i": ["1", "1", "1", "1"]}}, "padding": {"s": "VkFMSUQ="}, "data_format": {"s": "TkhXQw=="}}}, {"name": "model/layer_3_0_basic_0_activation_1/Relu", "op": "_FusedConv2D", "input": ["model/activation_3/Relu", "model/layer_3_0_basic_0_conv3x3_1/Conv2D_weights", "model/layer_3_0_basic_0_conv3x3_1/Conv2D_bn_offset"], "device": "/device:CPU:0", "attr": {"data_format": {"s": "TkhXQw=="}, "use_cudnn_on_gpu": {"b": true}, "num_args": {"i": "1"}, "epsilon": {"f": 0.0}, "T": {"type": "DT_FLOAT"}, "dilations": {"list": {"i": ["1", "1", "1", "1"]}}, "explicit_paddings": {"list": {}}, "padding": {"s": "U0FNRQ=="}, "fused_ops": {"list": {"s": ["Qmlhc0FkZA==", "UmVsdQ=="]}}, "strides": {"list": {"i": ["1", "1", "1", "1"]}}}}, {"name": "model/layer_3_basic_0_activation_1/Relu", "op": "_FusedConv2D", "input": ["model/activation_3/Relu", "model/layer_3_basic_0_conv3x3_1/Conv2D_weights", "model/layer_3_basic_0_conv3x3_1/Conv2D_bn_offset"], "device": "/device:CPU:0", "attr": {"explicit_paddings": {"list": {}}, "fused_ops": {"list": {"s": ["Qmlhc0FkZA==", "UmVsdQ=="]}}, "dilations": {"list": {"i": ["1", "1", "1", "1"]}}, "epsilon": {"f": 0.0}, "padding": {"s": "U0FNRQ=="}, "strides": {"list": {"i": ["1", "2", "2", "1"]}}, "use_cudnn_on_gpu": {"b": true}, "T": {"type": "DT_FLOAT"}, "data_format": {"s": "TkhXQw=="}, "num_args": {"i": "1"}}}, {"name": "model/layer_3_bn/FusedBatchNormV3", "op": "_FusedConv2D", "input": ["model/activation_3/Relu", "model/layer_3_conv2d/Conv2D_weights", "model/layer_3_conv2d/Conv2D_bn_offset"], "device": "/device:CPU:0", "attr": {"explicit_paddings": {"list": {}}, "T": {"type": "DT_FLOAT"}, "data_format": {"s": "TkhXQw=="}, "padding": {"s": "VkFMSUQ="}, "strides": {"list": {"i": ["1", "2", "2", "1"]}}, "fused_ops": {"list": {"s": ["Qmlhc0FkZA=="]}}, "dilations": {"list": {"i": ["1", "1", "1", "1"]}}, "epsilon": {"f": 0.0}, "use_cudnn_on_gpu": {"b": true}, "num_args": {"i": "1"}}}, {"name": "model/layer_3_d_basic_0_bn_2/FusedBatchNormV3", "op": "_FusedConv2D", "input": ["model/layer_3_d_basic_0_activation_1/Relu", "model/layer_3_d_basic_0_conv3x3_2/Conv2D_weights", "model/layer_3_d_basic_0_conv3x3_2/Conv2D_bn_offset"], "device": "/device:CPU:0", "attr": {"fused_ops": {"list": {"s": ["Qmlhc0FkZA=="]}}, "epsilon": {"f": 0.0}, "num_args": {"i": "1"}, "use_cudnn_on_gpu": {"b": true}, "padding": {"s": "U0FNRQ=="}, "T": {"type": "DT_FLOAT"}, "dilations": {"list": {"i": ["1", "1", "1", "1"]}}, "strides": {"list": {"i": ["1", "1", "1", "1"]}}, "explicit_paddings": {"list": {}}, "data_format": {"s": "TkhXQw=="}}}, {"name": "model/layer_3_0_basic_0_bn_2/FusedBatchNormV3", "op": "_FusedConv2D", "input": ["model/layer_3_0_basic_0_activation_1/Relu", "model/layer_3_0_basic_0_conv3x3_2/Conv2D_weights", "model/layer_3_0_basic_0_conv3x3_2/Conv2D_bn_offset"], "device": "/device:CPU:0", "attr": {"data_format": {"s": "TkhXQw=="}, "dilations": {"list": {"i": ["1", "1", "1", "1"]}}, "strides": {"list": {"i": ["1", "1", "1", "1"]}}, "use_cudnn_on_gpu": {"b": true}, "padding": {"s": "U0FNRQ=="}, "num_args": {"i": "1"}, "explicit_paddings": {"list": {}}, "fused_ops": {"list": {"s": ["Qmlhc0FkZA=="]}}, "T": {"type": "DT_FLOAT"}, "epsilon": {"f": 0.0}}}, {"name": "model/layer_3_basic_0_bn_2/FusedBatchNormV3", "op": "_FusedConv2D", "input": ["model/layer_3_basic_0_activation_1/Relu", "model/layer_3_basic_0_conv3x3_2/Conv2D_weights", "model/layer_3_basic_0_conv3x3_2/Conv2D_bn_offset"], "device": "/device:CPU:0", "attr": {"T": {"type": "DT_FLOAT"}, "num_args": {"i": "1"}, "padding": {"s": "U0FNRQ=="}, "dilations": {"list": {"i": ["1", "1", "1", "1"]}}, "epsilon": {"f": 0.0}, "explicit_paddings": {"list": {}}, "use_cudnn_on_gpu": {"b": true}, "data_format": {"s": "TkhXQw=="}, "fused_ops": {"list": {"s": ["Qmlhc0FkZA=="]}}, "strides": {"list": {"i": ["1", "1", "1", "1"]}}}}, {"name": "model/layer_3_d_basic_0_residual_add/add", "op": "AddV2", "input": ["model/layer_3_d_basic_0_bn_2/FusedBatchNormV3", "model/layer_3_d_bn/FusedBatchNormV3"], "attr": {"T": {"type": "DT_FLOAT"}}}, {"name": "model/layer_3_0_basic_0_residual_add/add", "op": "AddV2", "input": ["model/layer_3_0_basic_0_bn_2/FusedBatchNormV3", "model/activation_3/Relu"], "attr": {"T": {"type": "DT_FLOAT"}}}, {"name": "model/layer_3_basic_0_residual_add/add", "op": "AddV2", "input": ["model/layer_3_basic_0_bn_2/FusedBatchNormV3", "model/layer_3_bn/FusedBatchNormV3"], "attr": {"T": {"type": "DT_FLOAT"}}}, {"name": "model/layer_3_d_basic_0_residual_activation/Relu", "op": "Relu", "input": ["model/layer_3_d_basic_0_residual_add/add"], "attr": {"T": {"type": "DT_FLOAT"}}}, {"name": "model/layer_3_0_basic_0_residual_activation/Relu", "op": "Relu", "input": ["model/layer_3_0_basic_0_residual_add/add"], "attr": {"T": {"type": "DT_FLOAT"}}}, {"name": "model/layer_3_basic_0_residual_activation/Relu", "op": "Relu", "input": ["model/layer_3_basic_0_residual_add/add"], "attr": {"T": {"type": "DT_FLOAT"}}}, {"name": "model/activation_4/Relu", "op": "Relu", "input": ["model/layer_3_d_basic_0_residual_activation/Relu"], "attr": {"T": {"type": "DT_FLOAT"}}}, {"name": "model/layer_3_0_basic_1_activation_1/Relu", "op": "_FusedConv2D", "input": ["model/layer_3_0_basic_0_residual_activation/Relu", "model/layer_3_0_basic_1_conv3x3_1/Conv2D_weights", "model/layer_3_0_basic_1_conv3x3_1/Conv2D_bn_offset"], "device": "/device:CPU:0", "attr": {"num_args": {"i": "1"}, "padding": {"s": "U0FNRQ=="}, "explicit_paddings": {"list": {}}, "fused_ops": {"list": {"s": ["Qmlhc0FkZA==", "UmVsdQ=="]}}, "data_format": {"s": "TkhXQw=="}, "T": {"type": "DT_FLOAT"}, "use_cudnn_on_gpu": {"b": true}, "strides": {"list": {"i": ["1", "1", "1", "1"]}}, "epsilon": {"f": 0.0}, "dilations": {"list": {"i": ["1", "1", "1", "1"]}}}}, {"name": "model/layer_3_basic_1_activation_1/Relu", "op": "_FusedConv2D", "input": ["model/layer_3_basic_0_residual_activation/Relu", "model/layer_3_basic_1_conv3x3_1/Conv2D_weights", "model/layer_3_basic_1_conv3x3_1/Conv2D_bn_offset"], "device": "/device:CPU:0", "attr": {"data_format": {"s": "TkhXQw=="}, "strides": {"list": {"i": ["1", "1", "1", "1"]}}, "epsilon": {"f": 0.0}, "T": {"type": "DT_FLOAT"}, "dilations": {"list": {"i": ["1", "1", "1", "1"]}}, "explicit_paddings": {"list": {}}, "num_args": {"i": "1"}, "fused_ops": {"list": {"s": ["Qmlhc0FkZA==", "UmVsdQ=="]}}, "padding": {"s": "U0FNRQ=="}, "use_cudnn_on_gpu": {"b": true}}}, {"name": "model/layer_3_0_basic_1_bn_2/FusedBatchNormV3", "op": "_FusedConv2D", "input": ["model/layer_3_0_basic_1_activation_1/Relu", "model/layer_3_0_basic_1_conv3x3_2/Conv2D_weights", "model/layer_3_0_basic_1_conv3x3_2/Conv2D_bn_offset"], "device": "/device:CPU:0", "attr": {"T": {"type": "DT_FLOAT"}, "padding": {"s": "U0FNRQ=="}, "data_format": {"s": "TkhXQw=="}, "use_cudnn_on_gpu": {"b": true}, "epsilon": {"f": 0.0}, "num_args": {"i": "1"}, "dilations": {"list": {"i": ["1", "1", "1", "1"]}}, "explicit_paddings": {"list": {}}, "strides": {"list": {"i": ["1", "1", "1", "1"]}}, "fused_ops": {"list": {"s": ["Qmlhc0FkZA=="]}}}}, {"name": "model/layer_3_basic_1_bn_2/FusedBatchNormV3", "op": "_FusedConv2D", "input": ["model/layer_3_basic_1_activation_1/Relu", "model/layer_3_basic_1_conv3x3_2/Conv2D_weights", "model/layer_3_basic_1_conv3x3_2/Conv2D_bn_offset"], "device": "/device:CPU:0", "attr": {"dilations": {"list": {"i": ["1", "1", "1", "1"]}}, "padding": {"s": "U0FNRQ=="}, "explicit_paddings": {"list": {}}, "fused_ops": {"list": {"s": ["Qmlhc0FkZA=="]}}, "data_format": {"s": "TkhXQw=="}, "use_cudnn_on_gpu": {"b": true}, "T": {"type": "DT_FLOAT"}, "num_args": {"i": "1"}, "strides": {"list": {"i": ["1", "1", "1", "1"]}}, "epsilon": {"f": 0.0}}}, {"name": "model/layer_3_0_basic_1_residual_add/add", "op": "AddV2", "input": ["model/layer_3_0_basic_1_bn_2/FusedBatchNormV3", "model/layer_3_0_basic_0_residual_activation/Relu"], "attr": {"T": {"type": "DT_FLOAT"}}}, {"name": "model/layer_3_basic_1_residual_add/add", "op": "AddV2", "input": ["model/layer_3_basic_1_bn_2/FusedBatchNormV3", "model/layer_3_basic_0_residual_activation/Relu"], "attr": {"T": {"type": "DT_FLOAT"}}}, {"name": "model/batch_normalization_4/FusedBatchNormV3", "op": "_FusedConv2D", "input": ["model/layer_3_0_basic_1_residual_add/add", "model/conv2d_4/Conv2D_weights", "model/conv2d_4/Conv2D_bn_offset"], "device": "/device:CPU:0", "attr": {"num_args": {"i": "1"}, "data_format": {"s": "TkhXQw=="}, "strides": {"list": {"i": ["1", "1", "1", "1"]}}, "epsilon": {"f": 0.0}, "fused_ops": {"list": {"s": ["Qmlhc0FkZA=="]}}, "use_cudnn_on_gpu": {"b": true}, "T": {"type": "DT_FLOAT"}, "padding": {"s": "VkFMSUQ="}, "dilations": {"list": {"i": ["1", "1", "1", "1"]}}, "explicit_paddings": {"list": {}}}}, {"name": "model/layer_3_basic_1_residual_activation/Relu", "op": "Relu", "input": ["model/layer_3_basic_1_residual_add/add"], "attr": {"T": {"type": "DT_FLOAT"}}}, {"name": "model/layer_3_basic_2_activation_1/Relu", "op": "_FusedConv2D", "input": ["model/layer_3_basic_1_residual_activation/Relu", "model/layer_3_basic_2_conv3x3_1/Conv2D_weights", "model/layer_3_basic_2_conv3x3_1/Conv2D_bn_offset"], "device": "/device:CPU:0", "attr": {"data_format": {"s": "TkhXQw=="}, "dilations": {"list": {"i": ["1", "1", "1", "1"]}}, "strides": {"list": {"i": ["1", "1", "1", "1"]}}, "fused_ops": {"list": {"s": ["Qmlhc0FkZA==", "UmVsdQ=="]}}, "use_cudnn_on_gpu": {"b": true}, "num_args": {"i": "1"}, "padding": {"s": "U0FNRQ=="}, "T": {"type": "DT_FLOAT"}, "explicit_paddings": {"list": {}}, "epsilon": {"f": 0.0}}}, {"name": "model/layer_3_basic_2_bn_2/FusedBatchNormV3", "op": "_FusedConv2D", "input": ["model/layer_3_basic_2_activation_1/Relu", "model/layer_3_basic_2_conv3x3_2/Conv2D_weights", "model/layer_3_basic_2_conv3x3_2/Conv2D_bn_offset"], "device": "/device:CPU:0", "attr": {"strides": {"list": {"i": ["1", "1", "1", "1"]}}, "explicit_paddings": {"list": {}}, "epsilon": {"f": 0.0}, "fused_ops": {"list": {"s": ["Qmlhc0FkZA=="]}}, "use_cudnn_on_gpu": {"b": true}, "num_args": {"i": "1"}, "dilations": {"list": {"i": ["1", "1", "1", "1"]}}, "T": {"type": "DT_FLOAT"}, "padding": {"s": "U0FNRQ=="}, "data_format": {"s": "TkhXQw=="}}}, {"name": "model/layer_3_basic_2_residual_add/add", "op": "AddV2", "input": ["model/layer_3_basic_2_bn_2/FusedBatchNormV3", "model/layer_3_basic_1_residual_activation/Relu"], "attr": {"T": {"type": "DT_FLOAT"}}}, {"name": "model/activation_5/Relu", "op": "Relu", "input": ["model/layer_3_basic_2_residual_add/add"], "attr": {"T": {"type": "DT_FLOAT"}}}, {"name": "model/batch_normalization_5/FusedBatchNormV3", "op": "_FusedConv2D", "input": ["model/activation_5/Relu", "model/conv2d_5/Conv2D_weights", "model/conv2d_5/Conv2D_bn_offset"], "device": "/device:CPU:0", "attr": {"T": {"type": "DT_FLOAT"}, "epsilon": {"f": 0.0}, "fused_ops": {"list": {"s": ["Qmlhc0FkZA=="]}}, "strides": {"list": {"i": ["1", "1", "1", "1"]}}, "explicit_paddings": {"list": {}}, "use_cudnn_on_gpu": {"b": true}, "num_args": {"i": "1"}, "data_format": {"s": "TkhXQw=="}, "padding": {"s": "U0FNRQ=="}, "dilations": {"list": {"i": ["1", "1", "1", "1"]}}}}, {"name": "model/batch_normalization_2/FusedBatchNormV3", "op": "_FusedConv2D", "input": ["model/activation_5/Relu", "model/conv2d_2/Conv2D_weights", "model/conv2d_2/Conv2D_bn_offset"], "device": "/device:CPU:0", "attr": {"data_format": {"s": "TkhXQw=="}, "strides": {"list": {"i": ["1", "1", "1", "1"]}}, "use_cudnn_on_gpu": {"b": true}, "padding": {"s": "VkFMSUQ="}, "dilations": {"list": {"i": ["1", "1", "1", "1"]}}, "num_args": {"i": "1"}, "explicit_paddings": {"list": {}}, "T": {"type": "DT_FLOAT"}, "epsilon": {"f": 0.0}, "fused_ops": {"list": {"s": ["Qmlhc0FkZA=="]}}}}, {"name": "model/layer_4_basic_0_activation_1/Relu", "op": "_FusedConv2D", "input": ["model/activation_5/Relu", "model/layer_4_basic_0_conv3x3_1/Conv2D_weights", "model/layer_4_basic_0_conv3x3_1/Conv2D_bn_offset"], "device": "/device:CPU:0", "attr": {"explicit_paddings": {"list": {}}, "strides": {"list": {"i": ["1", "2", "2", "1"]}}, "num_args": {"i": "1"}, "use_cudnn_on_gpu": {"b": true}, "padding": {"s": "U0FNRQ=="}, "T": {"type": "DT_FLOAT"}, "fused_ops": {"list": {"s": ["Qmlhc0FkZA==", "UmVsdQ=="]}}, "dilations": {"list": {"i": ["1", "1", "1", "1"]}}, "data_format": {"s": "TkhXQw=="}, "epsilon": {"f": 0.0}}}, {"name": "model/layer_4_bn/FusedBatchNormV3", "op": "_FusedConv2D", "input": ["model/activation_5/Relu", "model/layer_4_conv2d/Conv2D_weights", "model/layer_4_conv2d/Conv2D_bn_offset"], "device": "/device:CPU:0", "attr": {"use_cudnn_on_gpu": {"b": true}, "dilations": {"list": {"i": ["1", "1", "1", "1"]}}, "strides": {"list": {"i": ["1", "2", "2", "1"]}}, "num_args": {"i": "1"}, "fused_ops": {"list": {"s": ["Qmlhc0FkZA=="]}}, "data_format": {"s": "TkhXQw=="}, "T": {"type": "DT_FLOAT"}, "explicit_paddings": {"list": {}}, "epsilon": {"f": 0.0}, "padding": {"s": "VkFMSUQ="}}}, {"name": "model/tf.image.resize_2/resize/ResizeBilinear", "op": "ResizeBilinear", "input": ["model/batch_normalization_5/FusedBatchNormV3", "model/tf.image.resize_2/resize/size"], "attr": {"half_pixel_centers": {"b": true}, "T": {"type": "DT_FLOAT"}, "align_corners": {"b": false}}}, {"name": "model/tf.image.resize_1/resize/ResizeBilinear", "op": "ResizeBilinear", "input": ["model/batch_normalization_2/FusedBatchNormV3", "model/tf.image.resize_1/resize/size"], "attr": {"align_corners": {"b": false}, "T": {"type": "DT_FLOAT"}, "half_pixel_centers": {"b": true}}}, {"name": "model/batch_normalization_3/FusedBatchNormV3", "op": "_FusedConv2D", "input": ["model/batch_normalization_2/FusedBatchNormV3", "model/conv2d_3/Conv2D_weights", "model/conv2d_3/Conv2D_bn_offset"], "device": "/device:CPU:0", "attr": {"dilations": {"list": {"i": ["1", "1", "1", "1"]}}, "T": {"type": "DT_FLOAT"}, "num_args": {"i": "1"}, "explicit_paddings": {"list": {}}, "strides": {"list": {"i": ["1", "1", "1", "1"]}}, "epsilon": {"f": 0.0}, "fused_ops": {"list": {"s": ["Qmlhc0FkZA=="]}}, "data_format": {"s": "TkhXQw=="}, "use_cudnn_on_gpu": {"b": true}, "padding": {"s": "VkFMSUQ="}}}, {"name": "model/layer_4_basic_0_bn_2/FusedBatchNormV3", "op": "_FusedConv2D", "input": ["model/layer_4_basic_0_activation_1/Relu", "model/layer_4_basic_0_conv3x3_2/Conv2D_weights", "model/layer_4_basic_0_conv3x3_2/Conv2D_bn_offset"], "device": "/device:CPU:0", "attr": {"use_cudnn_on_gpu": {"b": true}, "fused_ops": {"list": {"s": ["Qmlhc0FkZA=="]}}, "epsilon": {"f": 0.0}, "explicit_paddings": {"list": {}}, "num_args": {"i": "1"}, "T": {"type": "DT_FLOAT"}, "data_format": {"s": "TkhXQw=="}, "strides": {"list": {"i": ["1", "1", "1", "1"]}}, "padding": {"s": "U0FNRQ=="}, "dilations": {"list": {"i": ["1", "1", "1", "1"]}}}}, {"name": "model/add/add", "op": "AddV2", "input": ["model/activation_4/Relu", "model/tf.image.resize_2/resize/ResizeBilinear"], "attr": {"T": {"type": "DT_FLOAT"}}}, {"name": "model/tf.image.resize/resize/ResizeBilinear", "op": "ResizeBilinear", "input": ["model/batch_normalization_3/FusedBatchNormV3", "model/tf.image.resize/resize/size"], "attr": {"align_corners": {"b": false}, "T": {"type": "DT_FLOAT"}, "half_pixel_centers": {"b": true}}}, {"name": "model/layer_4_basic_0_residual_add/add", "op": "AddV2", "input": ["model/layer_4_basic_0_bn_2/FusedBatchNormV3", "model/layer_4_bn/FusedBatchNormV3"], "attr": {"T": {"type": "DT_FLOAT"}}}, {"name": "model/activation_9/Relu", "op": "Relu", "input": ["model/add/add"], "attr": {"T": {"type": "DT_FLOAT"}}}, {"name": "model/tf.math.multiply/Mul", "op": "Mul", "input": ["model/batch_normalization_4/FusedBatchNormV3", "model/tf.image.resize/resize/ResizeBilinear"], "attr": {"T": {"type": "DT_FLOAT"}}}, {"name": "model/layer_4_basic_0_residual_activation/Relu", "op": "Relu", "input": ["model/layer_4_basic_0_residual_add/add"], "attr": {"T": {"type": "DT_FLOAT"}}}, {"name": "model/layer_4_d_basic_0bottle_neck_activation_1/Relu", "op": "_FusedConv2D", "input": ["model/activation_9/Relu", "model/layer_4_d_basic_0bottle_neck_conv1x1_1/Conv2D_weights", "model/layer_4_d_basic_0bottle_neck_conv1x1_1/Conv2D_bn_offset"], "device": "/device:CPU:0", "attr": {"explicit_paddings": {"list": {}}, "padding": {"s": "VkFMSUQ="}, "use_cudnn_on_gpu": {"b": true}, "data_format": {"s": "TkhXQw=="}, "dilations": {"list": {"i": ["1", "1", "1", "1"]}}, "epsilon": {"f": 0.0}, "strides": {"list": {"i": ["1", "1", "1", "1"]}}, "T": {"type": "DT_FLOAT"}, "fused_ops": {"list": {"s": ["Qmlhc0FkZA==", "UmVsdQ=="]}}, "num_args": {"i": "1"}}}, {"name": "model/layer_4_d_bn/FusedBatchNormV3", "op": "_FusedConv2D", "input": ["model/activation_9/Relu", "model/layer_4_d_conv2d/Conv2D_weights", "model/layer_4_d_conv2d/Conv2D_bn_offset"], "device": "/device:CPU:0", "attr": {"num_args": {"i": "1"}, "dilations": {"list": {"i": ["1", "1", "1", "1"]}}, "fused_ops": {"list": {"s": ["Qmlhc0FkZA=="]}}, "explicit_paddings": {"list": {}}, "data_format": {"s": "TkhXQw=="}, "epsilon": {"f": 0.0}, "use_cudnn_on_gpu": {"b": true}, "strides": {"list": {"i": ["1", "1", "1", "1"]}}, "padding": {"s": "VkFMSUQ="}, "T": {"type": "DT_FLOAT"}}}, {"name": "model/tf.math.reduce_sum/Sum", "op": "Sum", "input": ["model/tf.math.multiply/Mul", "model/tf.math.reduce_sum/Sum/reduction_indices"], "attr": {"Tidx": {"type": "DT_INT32"}, "keep_dims": {"b": true}, "T": {"type": "DT_FLOAT"}}}, {"name": "model/layer_4_basic_1_activation_1/Relu", "op": "_FusedConv2D", "input": ["model/layer_4_basic_0_residual_activation/Relu", "model/layer_4_basic_1_conv3x3_1/Conv2D_weights", "model/layer_4_basic_1_conv3x3_1/Conv2D_bn_offset"], "device": "/device:CPU:0", "attr": {"fused_ops": {"list": {"s": ["Qmlhc0FkZA==", "UmVsdQ=="]}}, "T": {"type": "DT_FLOAT"}, "use_cudnn_on_gpu": {"b": true}, "data_format": {"s": "TkhXQw=="}, "dilations": {"list": {"i": ["1", "1", "1", "1"]}}, "padding": {"s": "U0FNRQ=="}, "strides": {"list": {"i": ["1", "1", "1", "1"]}}, "epsilon": {"f": 0.0}, "num_args": {"i": "1"}, "explicit_paddings": {"list": {}}}}, {"name": "model/layer_4_d_basic_0bottle_neck_activation_2/Relu", "op": "_FusedConv2D", "input": ["model/layer_4_d_basic_0bottle_neck_activation_1/Relu", "model/layer_4_d_basic_0bottle_neck_conv3x3_1/Conv2D_weights", "model/layer_4_d_basic_0bottle_neck_conv3x3_1/Conv2D_bn_offset"], "device": "/device:CPU:0", "attr": {"data_format": {"s": "TkhXQw=="}, "strides": {"list": {"i": ["1", "1", "1", "1"]}}, "fused_ops": {"list": {"s": ["Qmlhc0FkZA==", "UmVsdQ=="]}}, "padding": {"s": "U0FNRQ=="}, "dilations": {"list": {"i": ["1", "1", "1", "1"]}}, "use_cudnn_on_gpu": {"b": true}, "epsilon": {"f": 0.0}, "T": {"type": "DT_FLOAT"}, "explicit_paddings": {"list": {}}, "num_args": {"i": "1"}}}, {"name": "model/activation_6/Sigmoid", "op": "Sigmoid", "input": ["model/tf.math.reduce_sum/Sum"], "attr": {"T": {"type": "DT_FLOAT"}}}, {"name": "model/layer_4_basic_1_bn_2/FusedBatchNormV3", "op": "_FusedConv2D", "input": ["model/layer_4_basic_1_activation_1/Relu", "model/layer_4_basic_1_conv3x3_2/Conv2D_weights", "model/layer_4_basic_1_conv3x3_2/Conv2D_bn_offset"], "device": "/device:CPU:0", "attr": {"padding": {"s": "U0FNRQ=="}, "explicit_paddings": {"list": {}}, "use_cudnn_on_gpu": {"b": true}, "fused_ops": {"list": {"s": ["Qmlhc0FkZA=="]}}, "epsilon": {"f": 0.0}, "T": {"type": "DT_FLOAT"}, "dilations": {"list": {"i": ["1", "1", "1", "1"]}}, "strides": {"list": {"i": ["1", "1", "1", "1"]}}, "data_format": {"s": "TkhXQw=="}, "num_args": {"i": "1"}}}, {"name": "model/layer_4_d_basic_0bottle_neck_bn_3/FusedBatchNormV3", "op": "_FusedConv2D", "input": ["model/layer_4_d_basic_0bottle_neck_activation_2/Relu", "model/layer_4_d_basic_0bottle_neck_conv1x1_2/Conv2D_weights", "model/layer_4_d_basic_0bottle_neck_conv1x1_2/Conv2D_bn_offset"], "device": "/device:CPU:0", "attr": {"epsilon": {"f": 0.0}, "strides": {"list": {"i": ["1", "1", "1", "1"]}}, "padding": {"s": "VkFMSUQ="}, "data_format": {"s": "TkhXQw=="}, "use_cudnn_on_gpu": {"b": true}, "T": {"type": "DT_FLOAT"}, "explicit_paddings": {"list": {}}, "fused_ops": {"list": {"s": ["Qmlhc0FkZA=="]}}, "num_args": {"i": "1"}, "dilations": {"list": {"i": ["1", "1", "1", "1"]}}}}, {"name": "model/tf.math.subtract/Sub", "op": "Sub", "input": ["model/52899", "model/activation_6/Sigmoid"], "attr": {"T": {"type": "DT_FLOAT"}}}, {"name": "model/tf.math.multiply_2/Mul", "op": "Mul", "input": ["model/activation_6/Sigmoid", "model/tf.image.resize_1/resize/ResizeBilinear"], "attr": {"T": {"type": "DT_FLOAT"}}}, {"name": "model/layer_4_basic_1_residual_add/add", "op": "AddV2", "input": ["model/layer_4_basic_1_bn_2/FusedBatchNormV3", "model/layer_4_basic_0_residual_activation/Relu"], "attr": {"T": {"type": "DT_FLOAT"}}}, {"name": "model/tf.math.multiply_1/Mul", "op": "Mul", "input": ["model/tf.math.subtract/Sub", "model/layer_3_0_basic_1_residual_add/add"], "attr": {"T": {"type": "DT_FLOAT"}}}, {"name": "model/layer_4_basic_1_residual_activation/Relu", "op": "Relu", "input": ["model/layer_4_basic_1_residual_add/add"], "attr": {"T": {"type": "DT_FLOAT"}}}, {"name": "model/tf.__operators__.add/AddV2", "op": "AddV2", "input": ["model/tf.math.multiply_1/Mul", "model/tf.math.multiply_2/Mul"], "attr": {"T": {"type": "DT_FLOAT"}}}, {"name": "model/layer_4_basic_2_activation_1/Relu", "op": "_FusedConv2D", "input": ["model/layer_4_basic_1_residual_activation/Relu", "model/layer_4_basic_2_conv3x3_1/Conv2D_weights", "model/layer_4_basic_2_conv3x3_1/Conv2D_bn_offset"], "device": "/device:CPU:0", "attr": {"use_cudnn_on_gpu": {"b": true}, "padding": {"s": "U0FNRQ=="}, "data_format": {"s": "TkhXQw=="}, "explicit_paddings": {"list": {}}, "strides": {"list": {"i": ["1", "1", "1", "1"]}}, "dilations": {"list": {"i": ["1", "1", "1", "1"]}}, "fused_ops": {"list": {"s": ["Qmlhc0FkZA==", "UmVsdQ=="]}}, "num_args": {"i": "1"}, "T": {"type": "DT_FLOAT"}, "epsilon": {"f": 0.0}}}, {"name": "model/activation_8/Relu", "op": "Relu", "input": ["model/tf.__operators__.add/AddV2"], "attr": {"T": {"type": "DT_FLOAT"}}}, {"name": "model/layer_4_basic_2_bn_2/FusedBatchNormV3", "op": "_FusedConv2D", "input": ["model/layer_4_basic_2_activation_1/Relu", "model/layer_4_basic_2_conv3x3_2/Conv2D_weights", "model/layer_4_basic_2_conv3x3_2/Conv2D_bn_offset"], "device": "/device:CPU:0", "attr": {"dilations": {"list": {"i": ["1", "1", "1", "1"]}}, "fused_ops": {"list": {"s": ["Qmlhc0FkZA=="]}}, "data_format": {"s": "TkhXQw=="}, "epsilon": {"f": 0.0}, "padding": {"s": "U0FNRQ=="}, "T": {"type": "DT_FLOAT"}, "num_args": {"i": "1"}, "use_cudnn_on_gpu": {"b": true}, "explicit_paddings": {"list": {}}, "strides": {"list": {"i": ["1", "1", "1", "1"]}}}}, {"name": "model/layer_4_0_basic_0_activation_1/Relu", "op": "_FusedConv2D", "input": ["model/activation_8/Relu", "model/layer_4_0_basic_0_conv3x3_1/Conv2D_weights", "model/layer_4_0_basic_0_conv3x3_1/Conv2D_bn_offset"], "device": "/device:CPU:0", "attr": {"epsilon": {"f": 0.0}, "padding": {"s": "U0FNRQ=="}, "data_format": {"s": "TkhXQw=="}, "T": {"type": "DT_FLOAT"}, "fused_ops": {"list": {"s": ["Qmlhc0FkZA==", "UmVsdQ=="]}}, "dilations": {"list": {"i": ["1", "1", "1", "1"]}}, "num_args": {"i": "1"}, "explicit_paddings": {"list": {}}, "use_cudnn_on_gpu": {"b": true}, "strides": {"list": {"i": ["1", "1", "1", "1"]}}}}, {"name": "model/layer_4_basic_2_residual_add/add", "op": "AddV2", "input": ["model/layer_4_basic_2_bn_2/FusedBatchNormV3", "model/layer_4_basic_1_residual_activation/Relu"], "attr": {"T": {"type": "DT_FLOAT"}}}, {"name": "model/layer_4_0_basic_0_bn_2/FusedBatchNormV3", "op": "_FusedConv2D", "input": ["model/layer_4_0_basic_0_activation_1/Relu", "model/layer_4_0_basic_0_conv3x3_2/Conv2D_weights", "model/layer_4_0_basic_0_conv3x3_2/Conv2D_bn_offset"], "device": "/device:CPU:0", "attr": {"use_cudnn_on_gpu": {"b": true}, "explicit_paddings": {"list": {}}, "num_args": {"i": "1"}, "dilations": {"list": {"i": ["1", "1", "1", "1"]}}, "data_format": {"s": "TkhXQw=="}, "strides": {"list": {"i": ["1", "1", "1", "1"]}}, "padding": {"s": "U0FNRQ=="}, "T": {"type": "DT_FLOAT"}, "fused_ops": {"list": {"s": ["Qmlhc0FkZA=="]}}, "epsilon": {"f": 0.0}}}, {"name": "model/activation_7/Relu", "op": "Relu", "input": ["model/layer_4_basic_2_residual_add/add"], "attr": {"T": {"type": "DT_FLOAT"}}}, {"name": "model/layer_4_0_basic_0_residual_add/add", "op": "AddV2", "input": ["model/layer_4_0_basic_0_bn_2/FusedBatchNormV3", "model/activation_8/Relu"], "attr": {"T": {"type": "DT_FLOAT"}}}, {"name": "model/layer_5_basic_0bottle_neck_activation_1/Relu", "op": "_FusedConv2D", "input": ["model/activation_7/Relu", "model/layer_5_basic_0bottle_neck_conv1x1_1/Conv2D_weights", "model/layer_5_basic_0bottle_neck_conv1x1_1/Conv2D_bn_offset"], "device": "/device:CPU:0", "attr": {"num_args": {"i": "1"}, "padding": {"s": "VkFMSUQ="}, "fused_ops": {"list": {"s": ["Qmlhc0FkZA==", "UmVsdQ=="]}}, "explicit_paddings": {"list": {}}, "T": {"type": "DT_FLOAT"}, "use_cudnn_on_gpu": {"b": true}, "epsilon": {"f": 0.0}, "data_format": {"s": "TkhXQw=="}, "dilations": {"list": {"i": ["1", "1", "1", "1"]}}, "strides": {"list": {"i": ["1", "1", "1", "1"]}}}}, {"name": "model/layer_5_bn/FusedBatchNormV3", "op": "_FusedConv2D", "input": ["model/activation_7/Relu", "model/layer_5_conv2d/Conv2D_weights", "model/layer_5_conv2d/Conv2D_bn_offset"], "device": "/device:CPU:0", "attr": {"padding": {"s": "VkFMSUQ="}, "strides": {"list": {"i": ["1", "2", "2", "1"]}}, "explicit_paddings": {"list": {}}, "num_args": {"i": "1"}, "epsilon": {"f": 0.0}, "use_cudnn_on_gpu": {"b": true}, "fused_ops": {"list": {"s": ["Qmlhc0FkZA=="]}}, "dilations": {"list": {"i": ["1", "1", "1", "1"]}}, "data_format": {"s": "TkhXQw=="}, "T": {"type": "DT_FLOAT"}}}, {"name": "model/batch_normalization_9/FusedBatchNormV3", "op": "_FusedConv2D", "input": ["model/activation_7/Relu", "model/conv2d_9/Conv2D_weights", "model/conv2d_9/Conv2D_bn_offset"], "device": "/device:CPU:0", "attr": {"T": {"type": "DT_FLOAT"}, "explicit_paddings": {"list": {}}, "epsilon": {"f": 0.0}, "use_cudnn_on_gpu": {"b": true}, "padding": {"s": "U0FNRQ=="}, "data_format": {"s": "TkhXQw=="}, "dilations": {"list": {"i": ["1", "1", "1", "1"]}}, "strides": {"list": {"i": ["1", "1", "1", "1"]}}, "num_args": {"i": "1"}, "fused_ops": {"list": {"s": ["Qmlhc0FkZA=="]}}}}, {"name": "model/batch_normalization_6/FusedBatchNormV3", "op": "_FusedConv2D", "input": ["model/activation_7/Relu", "model/conv2d_6/Conv2D_weights", "model/conv2d_6/Conv2D_bn_offset"], "device": "/device:CPU:0", "attr": {"num_args": {"i": "1"}, "epsilon": {"f": 0.0}, "dilations": {"list": {"i": ["1", "1", "1", "1"]}}, "explicit_paddings": {"list": {}}, "T": {"type": "DT_FLOAT"}, "data_format": {"s": "TkhXQw=="}, "strides": {"list": {"i": ["1", "1", "1", "1"]}}, "use_cudnn_on_gpu": {"b": true}, "fused_ops": {"list": {"s": ["Qmlhc0FkZA=="]}}, "padding": {"s": "VkFMSUQ="}}}, {"name": "model/layer_4_0_basic_0_residual_activation/Relu", "op": "Relu", "input": ["model/layer_4_0_basic_0_residual_add/add"], "attr": {"T": {"type": "DT_FLOAT"}}}, {"name": "model/layer_5_basic_0bottle_neck_activation_2/Relu", "op": "_FusedConv2D", "input": ["model/layer_5_basic_0bottle_neck_activation_1/Relu", "model/layer_5_basic_0bottle_neck_conv3x3_1/Conv2D_weights", "model/layer_5_basic_0bottle_neck_conv3x3_1/Conv2D_bn_offset"], "device": "/device:CPU:0", "attr": {"use_cudnn_on_gpu": {"b": true}, "explicit_paddings": {"list": {}}, "padding": {"s": "U0FNRQ=="}, "dilations": {"list": {"i": ["1", "1", "1", "1"]}}, "T": {"type": "DT_FLOAT"}, "epsilon": {"f": 0.0}, "data_format": {"s": "TkhXQw=="}, "fused_ops": {"list": {"s": ["Qmlhc0FkZA==", "UmVsdQ=="]}}, "num_args": {"i": "1"}, "strides": {"list": {"i": ["1", "2", "2", "1"]}}}}, {"name": "model/tf.image.resize_5/resize/ResizeBilinear", "op": "ResizeBilinear", "input": ["model/batch_normalization_9/FusedBatchNormV3", "model/tf.image.resize_5/resize/size"], "attr": {"half_pixel_centers": {"b": true}, "align_corners": {"b": false}, "T": {"type": "DT_FLOAT"}}}, {"name": "model/tf.image.resize_4/resize/ResizeBilinear", "op": "ResizeBilinear", "input": ["model/batch_normalization_6/FusedBatchNormV3", "model/tf.image.resize_4/resize/size"], "attr": {"half_pixel_centers": {"b": true}, "align_corners": {"b": false}, "T": {"type": "DT_FLOAT"}}}, {"name": "model/batch_normalization_7/FusedBatchNormV3", "op": "_FusedConv2D", "input": ["model/batch_normalization_6/FusedBatchNormV3", "model/conv2d_7/Conv2D_weights", "model/conv2d_7/Conv2D_bn_offset"], "device": "/device:CPU:0", "attr": {"T": {"type": "DT_FLOAT"}, "num_args": {"i": "1"}, "strides": {"list": {"i": ["1", "1", "1", "1"]}}, "explicit_paddings": {"list": {}}, "use_cudnn_on_gpu": {"b": true}, "fused_ops": {"list": {"s": ["Qmlhc0FkZA=="]}}, "dilations": {"list": {"i": ["1", "1", "1", "1"]}}, "padding": {"s": "VkFMSUQ="}, "data_format": {"s": "TkhXQw=="}, "epsilon": {"f": 0.0}}}, {"name": "model/layer_4_0_basic_1_activation_1/Relu", "op": "_FusedConv2D", "input": ["model/layer_4_0_basic_0_residual_activation/Relu", "model/layer_4_0_basic_1_conv3x3_1/Conv2D_weights", "model/layer_4_0_basic_1_conv3x3_1/Conv2D_bn_offset"], "device": "/device:CPU:0", "attr": {"dilations": {"list": {"i": ["1", "1", "1", "1"]}}, "padding": {"s": "U0FNRQ=="}, "epsilon": {"f": 0.0}, "data_format": {"s": "TkhXQw=="}, "strides": {"list": {"i": ["1", "1", "1", "1"]}}, "explicit_paddings": {"list": {}}, "T": {"type": "DT_FLOAT"}, "num_args": {"i": "1"}, "fused_ops": {"list": {"s": ["Qmlhc0FkZA==", "UmVsdQ=="]}}, "use_cudnn_on_gpu": {"b": true}}}, {"name": "model/layer_5_basic_0bottle_neck_bn_3/FusedBatchNormV3", "op": "_FusedConv2D", "input": ["model/layer_5_basic_0bottle_neck_activation_2/Relu", "model/layer_5_basic_0bottle_neck_conv1x1_2/Conv2D_weights", "model/layer_5_basic_0bottle_neck_conv1x1_2/Conv2D_bn_offset"], "device": "/device:CPU:0", "attr": {"strides": {"list": {"i": ["1", "1", "1", "1"]}}, "fused_ops": {"list": {"s": ["Qmlhc0FkZA=="]}}, "T": {"type": "DT_FLOAT"}, "num_args": {"i": "1"}, "explicit_paddings": {"list": {}}, "dilations": {"list": {"i": ["1", "1", "1", "1"]}}, "data_format": {"s": "TkhXQw=="}, "use_cudnn_on_gpu": {"b": true}, "padding": {"s": "VkFMSUQ="}, "epsilon": {"f": 0.0}}}, {"name": "model/add_1/ArithmeticOptimizer/AddOpsRewrite_add", "op": "AddN", "input": ["model/layer_4_d_basic_0bottle_neck_bn_3/FusedBatchNormV3", "model/layer_4_d_bn/FusedBatchNormV3", "model/tf.image.resize_5/resize/ResizeBilinear"], "attr": {"_grappler_ArithmeticOptimizer_AddOpsRewriteStage": {"b": true}, "N": {"i": "3"}, "T": {"type": "DT_FLOAT"}}}, {"name": "model/tf.image.resize_3/resize/ResizeBilinear", "op": "ResizeBilinear", "input": ["model/batch_normalization_7/FusedBatchNormV3", "model/tf.image.resize_3/resize/size"], "attr": {"half_pixel_centers": {"b": true}, "T": {"type": "DT_FLOAT"}, "align_corners": {"b": false}}}, {"name": "model/layer_4_0_basic_1_bn_2/FusedBatchNormV3", "op": "_FusedConv2D", "input": ["model/layer_4_0_basic_1_activation_1/Relu", "model/layer_4_0_basic_1_conv3x3_2/Conv2D_weights", "model/layer_4_0_basic_1_conv3x3_2/Conv2D_bn_offset"], "device": "/device:CPU:0", "attr": {"use_cudnn_on_gpu": {"b": true}, "epsilon": {"f": 0.0}, "padding": {"s": "U0FNRQ=="}, "T": {"type": "DT_FLOAT"}, "explicit_paddings": {"list": {}}, "strides": {"list": {"i": ["1", "1", "1", "1"]}}, "data_format": {"s": "TkhXQw=="}, "dilations": {"list": {"i": ["1", "1", "1", "1"]}}, "fused_ops": {"list": {"s": ["Qmlhc0FkZA=="]}}, "num_args": {"i": "1"}}}, {"name": "model/layer_5_basic_0bottle_neck_add_1/add", "op": "AddV2", "input": ["model/layer_5_basic_0bottle_neck_bn_3/FusedBatchNormV3", "model/layer_5_bn/FusedBatchNormV3"], "attr": {"T": {"type": "DT_FLOAT"}}}, {"name": "model/activation_12/Relu", "op": "Relu", "input": ["model/add_1/ArithmeticOptimizer/AddOpsRewrite_add"], "attr": {"T": {"type": "DT_FLOAT"}}}, {"name": "model/layer_4_0_basic_1_residual_add/add", "op": "AddV2", "input": ["model/layer_4_0_basic_1_bn_2/FusedBatchNormV3", "model/layer_4_0_basic_0_residual_activation/Relu"], "attr": {"T": {"type": "DT_FLOAT"}}}, {"name": "model/layer_5_basic_1bottle_neck_activation_1/Relu", "op": "_FusedConv2D", "input": ["model/layer_5_basic_0bottle_neck_add_1/add", "model/layer_5_basic_1bottle_neck_conv1x1_1/Conv2D_weights", "model/layer_5_basic_1bottle_neck_conv1x1_1/Conv2D_bn_offset"], "device": "/device:CPU:0", "attr": {"data_format": {"s": "TkhXQw=="}, "strides": {"list": {"i": ["1", "1", "1", "1"]}}, "num_args": {"i": "1"}, "T": {"type": "DT_FLOAT"}, "dilations": {"list": {"i": ["1", "1", "1", "1"]}}, "explicit_paddings": {"list": {}}, "fused_ops": {"list": {"s": ["Qmlhc0FkZA==", "UmVsdQ=="]}}, "epsilon": {"f": 0.0}, "padding": {"s": "VkFMSUQ="}, "use_cudnn_on_gpu": {"b": true}}}, {"name": "model/layer_5_d_basic_0bottle_neck_activation_1/Relu", "op": "_FusedConv2D", "input": ["model/activation_12/Relu", "model/layer_5_d_basic_0bottle_neck_conv1x1_1/Conv2D_weights", "model/layer_5_d_basic_0bottle_neck_conv1x1_1/Conv2D_bn_offset"], "device": "/device:CPU:0", "attr": {"num_args": {"i": "1"}, "fused_ops": {"list": {"s": ["Qmlhc0FkZA==", "UmVsdQ=="]}}, "padding": {"s": "VkFMSUQ="}, "strides": {"list": {"i": ["1", "1", "1", "1"]}}, "use_cudnn_on_gpu": {"b": true}, "data_format": {"s": "TkhXQw=="}, "T": {"type": "DT_FLOAT"}, "epsilon": {"f": 0.0}, "dilations": {"list": {"i": ["1", "1", "1", "1"]}}, "explicit_paddings": {"list": {}}}}, {"name": "model/layer_5_d_bn/FusedBatchNormV3", "op": "_FusedConv2D", "input": ["model/activation_12/Relu", "model/layer_5_d_conv2d/Conv2D_weights", "model/layer_5_d_conv2d/Conv2D_bn_offset"], "device": "/device:CPU:0", "attr": {"epsilon": {"f": 0.0}, "T": {"type": "DT_FLOAT"}, "dilations": {"list": {"i": ["1", "1", "1", "1"]}}, "data_format": {"s": "TkhXQw=="}, "strides": {"list": {"i": ["1", "1", "1", "1"]}}, "padding": {"s": "VkFMSUQ="}, "explicit_paddings": {"list": {}}, "fused_ops": {"list": {"s": ["Qmlhc0FkZA=="]}}, "num_args": {"i": "1"}, "use_cudnn_on_gpu": {"b": true}}}, {"name": "model/batch_normalization_8/FusedBatchNormV3", "op": "_FusedConv2D", "input": ["model/layer_4_0_basic_1_residual_add/add", "model/conv2d_8/Conv2D_weights", "model/conv2d_8/Conv2D_bn_offset"], "device": "/device:CPU:0", "attr": {"use_cudnn_on_gpu": {"b": true}, "fused_ops": {"list": {"s": ["Qmlhc0FkZA=="]}}, "explicit_paddings": {"list": {}}, "num_args": {"i": "1"}, "data_format": {"s": "TkhXQw=="}, "padding": {"s": "VkFMSUQ="}, "epsilon": {"f": 0.0}, "strides": {"list": {"i": ["1", "1", "1", "1"]}}, "T": {"type": "DT_FLOAT"}, "dilations": {"list": {"i": ["1", "1", "1", "1"]}}}}, {"name": "model/layer_5_basic_1bottle_neck_activation_2/Relu", "op": "_FusedConv2D", "input": ["model/layer_5_basic_1bottle_neck_activation_1/Relu", "model/layer_5_basic_1bottle_neck_conv3x3_1/Conv2D_weights", "model/layer_5_basic_1bottle_neck_conv3x3_1/Conv2D_bn_offset"], "device": "/device:CPU:0", "attr": {"dilations": {"list": {"i": ["1", "1", "1", "1"]}}, "strides": {"list": {"i": ["1", "1", "1", "1"]}}, "explicit_paddings": {"list": {}}, "num_args": {"i": "1"}, "padding": {"s": "U0FNRQ=="}, "epsilon": {"f": 0.0}, "T": {"type": "DT_FLOAT"}, "data_format": {"s": "TkhXQw=="}, "fused_ops": {"list": {"s": ["Qmlhc0FkZA==", "UmVsdQ=="]}}, "use_cudnn_on_gpu": {"b": true}}}, {"name": "model/layer_5_d_basic_0bottle_neck_activation_2/Relu", "op": "_FusedConv2D", "input": ["model/layer_5_d_basic_0bottle_neck_activation_1/Relu", "model/layer_5_d_basic_0bottle_neck_conv3x3_1/Conv2D_weights", "model/layer_5_d_basic_0bottle_neck_conv3x3_1/Conv2D_bn_offset"], "device": "/device:CPU:0", "attr": {"explicit_paddings": {"list": {}}, "fused_ops": {"list": {"s": ["Qmlhc0FkZA==", "UmVsdQ=="]}}, "padding": {"s": "U0FNRQ=="}, "epsilon": {"f": 0.0}, "strides": {"list": {"i": ["1", "1", "1", "1"]}}, "use_cudnn_on_gpu": {"b": true}, "T": {"type": "DT_FLOAT"}, "data_format": {"s": "TkhXQw=="}, "num_args": {"i": "1"}, "dilations": {"list": {"i": ["1", "1", "1", "1"]}}}}, {"name": "model/tf.math.multiply_3/Mul", "op": "Mul", "input": ["model/batch_normalization_8/FusedBatchNormV3", "model/tf.image.resize_3/resize/ResizeBilinear"], "attr": {"T": {"type": "DT_FLOAT"}}}, {"name": "model/layer_5_basic_1bottle_neck_bn_3/FusedBatchNormV3", "op": "_FusedConv2D", "input": ["model/layer_5_basic_1bottle_neck_activation_2/Relu", "model/layer_5_basic_1bottle_neck_conv1x1_2/Conv2D_weights", "model/layer_5_basic_1bottle_neck_conv1x1_2/Conv2D_bn_offset"], "device": "/device:CPU:0", "attr": {"data_format": {"s": "TkhXQw=="}, "epsilon": {"f": 0.0}, "use_cudnn_on_gpu": {"b": true}, "explicit_paddings": {"list": {}}, "T": {"type": "DT_FLOAT"}, "strides": {"list": {"i": ["1", "1", "1", "1"]}}, "padding": {"s": "VkFMSUQ="}, "dilations": {"list": {"i": ["1", "1", "1", "1"]}}, "fused_ops": {"list": {"s": ["Qmlhc0FkZA=="]}}, "num_args": {"i": "1"}}}, {"name": "model/layer_5_d_basic_0bottle_neck_bn_3/FusedBatchNormV3", "op": "_FusedConv2D", "input": ["model/layer_5_d_basic_0bottle_neck_activation_2/Relu", "model/layer_5_d_basic_0bottle_neck_conv1x1_2/Conv2D_weights", "model/layer_5_d_basic_0bottle_neck_conv1x1_2/Conv2D_bn_offset"], "device": "/device:CPU:0", "attr": {"num_args": {"i": "1"}, "fused_ops": {"list": {"s": ["Qmlhc0FkZA=="]}}, "padding": {"s": "VkFMSUQ="}, "use_cudnn_on_gpu": {"b": true}, "T": {"type": "DT_FLOAT"}, "data_format": {"s": "TkhXQw=="}, "epsilon": {"f": 0.0}, "dilations": {"list": {"i": ["1", "1", "1", "1"]}}, "strides": {"list": {"i": ["1", "1", "1", "1"]}}, "explicit_paddings": {"list": {}}}}, {"name": "model/tf.math.reduce_sum_1/Sum", "op": "Sum", "input": ["model/tf.math.multiply_3/Mul", "model/tf.math.reduce_sum_1/Sum/reduction_indices"], "attr": {"T": {"type": "DT_FLOAT"}, "Tidx": {"type": "DT_INT32"}, "keep_dims": {"b": true}}}, {"name": "model/layer_5_basic_1bottle_neck_add_1/add", "op": "AddV2", "input": ["model/layer_5_basic_1bottle_neck_bn_3/FusedBatchNormV3", "model/layer_5_basic_0bottle_neck_add_1/add"], "attr": {"T": {"type": "DT_FLOAT"}}}, {"name": "model/layer_5_d_basic_0bottle_neck_add_1/add", "op": "AddV2", "input": ["model/layer_5_d_basic_0bottle_neck_bn_3/FusedBatchNormV3", "model/layer_5_d_bn/FusedBatchNormV3"], "attr": {"T": {"type": "DT_FLOAT"}}}, {"name": "model/activation_10/Sigmoid", "op": "Sigmoid", "input": ["model/tf.math.reduce_sum_1/Sum"], "attr": {"T": {"type": "DT_FLOAT"}}}, {"name": "model/batch_normalization_20/FusedBatchNormV3/Mul", "op": "Mul", "input": ["model/layer_5_basic_1bottle_neck_add_1/add", "model/batch_normalization_20/FusedBatchNormV3/Scaled"], "attr": {"T": {"type": "DT_FLOAT"}}}, {"name": "model/batch_normalization_10/FusedBatchNormV3/Mul", "op": "Mul", "input": ["model/layer_5_basic_1bottle_neck_add_1/add", "model/batch_normalization_10/FusedBatchNormV3/Scaled"], "attr": {"T": {"type": "DT_FLOAT"}}}, {"name": "model/average_pooling2d/AvgPool", "op": "AvgPool", "input": ["model/layer_5_basic_1bottle_neck_add_1/add"], "attr": {"padding": {"s": "U0FNRQ=="}, "data_format": {"s": "TkhXQw=="}, "ksize": {"list": {"i": ["1", "5", "5", "1"]}}, "T": {"type": "DT_FLOAT"}, "strides": {"list": {"i": ["1", "2", "2", "1"]}}}}, {"name": "model/average_pooling2d_1/AvgPool", "op": "AvgPool", "input": ["model/layer_5_basic_1bottle_neck_add_1/add"], "attr": {"padding": {"s": "U0FNRQ=="}, "T": {"type": "DT_FLOAT"}, "strides": {"list": {"i": ["1", "4", "4", "1"]}}, "ksize": {"list": {"i": ["1", "9", "9", "1"]}}, "data_format": {"s": "TkhXQw=="}}}, {"name": "model/average_pooling2d_2/AvgPool", "op": "AvgPool", "input": ["model/layer_5_basic_1bottle_neck_add_1/add"], "attr": {"padding": {"s": "U0FNRQ=="}, "ksize": {"list": {"i": ["1", "17", "17", "1"]}}, "T": {"type": "DT_FLOAT"}, "strides": {"list": {"i": ["1", "8", "8", "1"]}}, "data_format": {"s": "TkhXQw=="}}}, {"name": "model/average_pooling2d_3/AvgPool", "op": "AvgPool", "input": ["model/layer_5_basic_1bottle_neck_add_1/add"], "attr": {"T": {"type": "DT_FLOAT"}, "ksize": {"list": {"i": ["1", "10", "6", "1"]}}, "padding": {"s": "U0FNRQ=="}, "strides": {"list": {"i": ["1", "10", "6", "1"]}}, "data_format": {"s": "TkhXQw=="}}}, {"name": "model/activation_24/Sigmoid", "op": "Sigmoid", "input": ["model/layer_5_d_basic_0bottle_neck_add_1/add"], "attr": {"T": {"type": "DT_FLOAT"}}}, {"name": "model/tf.math.subtract_1/Sub", "op": "Sub", "input": ["model/53391", "model/activation_10/Sigmoid"], "attr": {"T": {"type": "DT_FLOAT"}}}, {"name": "model/tf.math.multiply_5/Mul", "op": "Mul", "input": ["model/activation_10/Sigmoid", "model/tf.image.resize_4/resize/ResizeBilinear"], "attr": {"T": {"type": "DT_FLOAT"}}}, {"name": "model/batch_normalization_20/FusedBatchNormV3", "op": "Add", "input": ["model/batch_normalization_20/FusedBatchNormV3/Mul", "model/batch_normalization_20/FusedBatchNormV3/Offset"], "attr": {"T": {"type": "DT_FLOAT"}}}, {"name": "model/batch_normalization_10/FusedBatchNormV3", "op": "Add", "input": ["model/batch_normalization_10/FusedBatchNormV3/Mul", "model/batch_normalization_10/FusedBatchNormV3/Offset"], "attr": {"T": {"type": "DT_FLOAT"}}}, {"name": "model/batch_normalization_11/FusedBatchNormV3/Mul", "op": "Mul", "input": ["model/average_pooling2d/AvgPool", "model/batch_normalization_11/FusedBatchNormV3/Scaled"], "attr": {"T": {"type": "DT_FLOAT"}}}, {"name": "model/batch_normalization_13/FusedBatchNormV3/Mul", "op": "Mul", "input": ["model/average_pooling2d_1/AvgPool", "model/batch_normalization_13/FusedBatchNormV3/Scaled"], "attr": {"T": {"type": "DT_FLOAT"}}}, {"name": "model/batch_normalization_15/FusedBatchNormV3/Mul", "op": "Mul", "input": ["model/average_pooling2d_2/AvgPool", "model/batch_normalization_15/FusedBatchNormV3/Scaled"], "attr": {"T": {"type": "DT_FLOAT"}}}, {"name": "model/batch_normalization_17/FusedBatchNormV3/Mul", "op": "Mul", "input": ["model/average_pooling2d_3/AvgPool", "model/batch_normalization_17/FusedBatchNormV3/Scaled"], "attr": {"T": {"type": "DT_FLOAT"}}}, {"name": "model/tf.math.subtract_2/Sub", "op": "Sub", "input": ["model/53702", "model/activation_24/Sigmoid"], "attr": {"T": {"type": "DT_FLOAT"}}}, {"name": "model/tf.math.multiply_4/Mul", "op": "Mul", "input": ["model/tf.math.subtract_1/Sub", "model/layer_4_0_basic_1_residual_add/add"], "attr": {"T": {"type": "DT_FLOAT"}}}, {"name": "model/activation_23/Relu", "op": "Relu", "input": ["model/batch_normalization_20/FusedBatchNormV3"], "attr": {"T": {"type": "DT_FLOAT"}}}, {"name": "model/activation_13/Relu", "op": "Relu", "input": ["model/batch_normalization_10/FusedBatchNormV3"], "attr": {"T": {"type": "DT_FLOAT"}}}, {"name": "model/batch_normalization_11/FusedBatchNormV3", "op": "Add", "input": ["model/batch_normalization_11/FusedBatchNormV3/Mul", "model/batch_normalization_11/FusedBatchNormV3/Offset"], "attr": {"T": {"type": "DT_FLOAT"}}}, {"name": "model/batch_normalization_13/FusedBatchNormV3", "op": "Add", "input": ["model/batch_normalization_13/FusedBatchNormV3/Mul", "model/batch_normalization_13/FusedBatchNormV3/Offset"], "attr": {"T": {"type": "DT_FLOAT"}}}, {"name": "model/batch_normalization_15/FusedBatchNormV3", "op": "Add", "input": ["model/batch_normalization_15/FusedBatchNormV3/Mul", "model/batch_normalization_15/FusedBatchNormV3/Offset"], "attr": {"T": {"type": "DT_FLOAT"}}}, {"name": "model/batch_normalization_17/FusedBatchNormV3", "op": "Add", "input": ["model/batch_normalization_17/FusedBatchNormV3/Mul", "model/batch_normalization_17/FusedBatchNormV3/Offset"], "attr": {"T": {"type": "DT_FLOAT"}}}, {"name": "model/tf.__operators__.add_1/AddV2", "op": "AddV2", "input": ["model/tf.math.multiply_4/Mul", "model/tf.math.multiply_5/Mul"], "attr": {"T": {"type": "DT_FLOAT"}}}, {"name": "model/conv2d_20/Conv2D", "op": "Conv2D", "input": ["model/activation_23/Relu", "model/conv2d_20/Conv2D/ReadVariableOp"], "device": "/device:CPU:0", "attr": {"explicit_paddings": {"list": {}}, "padding": {"s": "VkFMSUQ="}, "data_format": {"s": "TkhXQw=="}, "T": {"type": "DT_FLOAT"}, "use_cudnn_on_gpu": {"b": true}, "dilations": {"list": {"i": ["1", "1", "1", "1"]}}, "strides": {"list": {"i": ["1", "1", "1", "1"]}}}}, {"name": "model/conv2d_10/Conv2D", "op": "Conv2D", "input": ["model/activation_13/Relu", "model/conv2d_10/Conv2D/ReadVariableOp"], "device": "/device:CPU:0", "attr": {"data_format": {"s": "TkhXQw=="}, "strides": {"list": {"i": ["1", "1", "1", "1"]}}, "use_cudnn_on_gpu": {"b": true}, "dilations": {"list": {"i": ["1", "1", "1", "1"]}}, "T": {"type": "DT_FLOAT"}, "explicit_paddings": {"list": {}}, "padding": {"s": "VkFMSUQ="}}}, {"name": "model/activation_14/Relu", "op": "Relu", "input": ["model/batch_normalization_11/FusedBatchNormV3"], "attr": {"T": {"type": "DT_FLOAT"}}}, {"name": "model/activation_16/Relu", "op": "Relu", "input": ["model/batch_normalization_13/FusedBatchNormV3"], "attr": {"T": {"type": "DT_FLOAT"}}}, {"name": "model/activation_18/Relu", "op": "Relu", "input": ["model/batch_normalization_15/FusedBatchNormV3"], "attr": {"T": {"type": "DT_FLOAT"}}}, {"name": "model/activation_20/Relu", "op": "Relu", "input": ["model/batch_normalization_17/FusedBatchNormV3"], "attr": {"T": {"type": "DT_FLOAT"}}}, {"name": "model/activation_11/Relu", "op": "Relu", "input": ["model/tf.__operators__.add_1/AddV2"], "attr": {"T": {"type": "DT_FLOAT"}}}, {"name": "model/conv2d_11/Conv2D", "op": "Conv2D", "input": ["model/activation_14/Relu", "model/conv2d_11/Conv2D/ReadVariableOp"], "device": "/device:CPU:0", "attr": {"use_cudnn_on_gpu": {"b": true}, "data_format": {"s": "TkhXQw=="}, "dilations": {"list": {"i": ["1", "1", "1", "1"]}}, "T": {"type": "DT_FLOAT"}, "strides": {"list": {"i": ["1", "1", "1", "1"]}}, "padding": {"s": "VkFMSUQ="}, "explicit_paddings": {"list": {}}}}, {"name": "model/conv2d_13/Conv2D", "op": "Conv2D", "input": ["model/activation_16/Relu", "model/conv2d_13/Conv2D/ReadVariableOp"], "device": "/device:CPU:0", "attr": {"dilations": {"list": {"i": ["1", "1", "1", "1"]}}, "explicit_paddings": {"list": {}}, "data_format": {"s": "TkhXQw=="}, "padding": {"s": "VkFMSUQ="}, "T": {"type": "DT_FLOAT"}, "strides": {"list": {"i": ["1", "1", "1", "1"]}}, "use_cudnn_on_gpu": {"b": true}}}, {"name": "model/conv2d_15/Conv2D", "op": "Conv2D", "input": ["model/activation_18/Relu", "model/conv2d_15/Conv2D/ReadVariableOp"], "device": "/device:CPU:0", "attr": {"data_format": {"s": "TkhXQw=="}, "use_cudnn_on_gpu": {"b": true}, "explicit_paddings": {"list": {}}, "T": {"type": "DT_FLOAT"}, "strides": {"list": {"i": ["1", "1", "1", "1"]}}, "dilations": {"list": {"i": ["1", "1", "1", "1"]}}, "padding": {"s": "VkFMSUQ="}}}, {"name": "model/conv2d_17/Conv2D", "op": "Conv2D", "input": ["model/activation_20/Relu", "model/conv2d_17/Conv2D/ReadVariableOp"], "device": "/device:CPU:0", "attr": {"dilations": {"list": {"i": ["1", "1", "1", "1"]}}, "padding": {"s": "VkFMSUQ="}, "data_format": {"s": "TkhXQw=="}, "explicit_paddings": {"list": {}}, "use_cudnn_on_gpu": {"b": true}, "T": {"type": "DT_FLOAT"}, "strides": {"list": {"i": ["1", "1", "1", "1"]}}}}, {"name": "model/layer_5_0_basic_0bottle_neck_activation_1/Relu", "op": "_FusedConv2D", "input": ["model/activation_11/Relu", "model/layer_5_0_basic_0bottle_neck_conv1x1_1/Conv2D_weights", "model/layer_5_0_basic_0bottle_neck_conv1x1_1/Conv2D_bn_offset"], "device": "/device:CPU:0", "attr": {"strides": {"list": {"i": ["1", "1", "1", "1"]}}, "use_cudnn_on_gpu": {"b": true}, "fused_ops": {"list": {"s": ["Qmlhc0FkZA==", "UmVsdQ=="]}}, "padding": {"s": "VkFMSUQ="}, "epsilon": {"f": 0.0}, "dilations": {"list": {"i": ["1", "1", "1", "1"]}}, "num_args": {"i": "1"}, "T": {"type": "DT_FLOAT"}, "explicit_paddings": {"list": {}}, "data_format": {"s": "TkhXQw=="}}}, {"name": "model/layer_5_0_bn/FusedBatchNormV3", "op": "_FusedConv2D", "input": ["model/activation_11/Relu", "model/layer_5_0_conv2d/Conv2D_weights", "model/layer_5_0_conv2d/Conv2D_bn_offset"], "device": "/device:CPU:0", "attr": {"dilations": {"list": {"i": ["1", "1", "1", "1"]}}, "T": {"type": "DT_FLOAT"}, "explicit_paddings": {"list": {}}, "data_format": {"s": "TkhXQw=="}, "epsilon": {"f": 0.0}, "num_args": {"i": "1"}, "use_cudnn_on_gpu": {"b": true}, "fused_ops": {"list": {"s": ["Qmlhc0FkZA=="]}}, "strides": {"list": {"i": ["1", "1", "1", "1"]}}, "padding": {"s": "VkFMSUQ="}}}, {"name": "model/tf.image.resize_6/resize/ResizeBilinear", "op": "ResizeBilinear", "input": ["model/conv2d_11/Conv2D", "model/tf.image.resize_6/resize/size"], "attr": {"align_corners": {"b": false}, "half_pixel_centers": {"b": true}, "T": {"type": "DT_FLOAT"}}}, {"name": "model/tf.image.resize_7/resize/ResizeBilinear", "op": "ResizeBilinear", "input": ["model/conv2d_13/Conv2D", "model/tf.image.resize_7/resize/size"], "attr": {"half_pixel_centers": {"b": true}, "T": {"type": "DT_FLOAT"}, "align_corners": {"b": false}}}, {"name": "model/tf.image.resize_8/resize/ResizeBilinear", "op": "ResizeBilinear", "input": ["model/conv2d_15/Conv2D", "model/tf.image.resize_8/resize/size"], "attr": {"align_corners": {"b": false}, "T": {"type": "DT_FLOAT"}, "half_pixel_centers": {"b": true}}}, {"name": "model/tf.image.resize_9/resize/ResizeBilinear", "op": "ResizeBilinear", "input": ["model/conv2d_17/Conv2D", "model/tf.image.resize_9/resize/size"], "attr": {"half_pixel_centers": {"b": true}, "T": {"type": "DT_FLOAT"}, "align_corners": {"b": false}}}, {"name": "model/layer_5_0_basic_0bottle_neck_activation_2/Relu", "op": "_FusedConv2D", "input": ["model/layer_5_0_basic_0bottle_neck_activation_1/Relu", "model/layer_5_0_basic_0bottle_neck_conv3x3_1/Conv2D_weights", "model/layer_5_0_basic_0bottle_neck_conv3x3_1/Conv2D_bn_offset"], "device": "/device:CPU:0", "attr": {"num_args": {"i": "1"}, "data_format": {"s": "TkhXQw=="}, "padding": {"s": "U0FNRQ=="}, "use_cudnn_on_gpu": {"b": true}, "fused_ops": {"list": {"s": ["Qmlhc0FkZA==", "UmVsdQ=="]}}, "dilations": {"list": {"i": ["1", "1", "1", "1"]}}, "explicit_paddings": {"list": {}}, "T": {"type": "DT_FLOAT"}, "epsilon": {"f": 0.0}, "strides": {"list": {"i": ["1", "1", "1", "1"]}}}}, {"name": "model/add_2/add", "op": "AddV2", "input": ["model/tf.image.resize_6/resize/ResizeBilinear", "model/conv2d_10/Conv2D"], "attr": {"T": {"type": "DT_FLOAT"}}}, {"name": "model/add_3/add", "op": "AddV2", "input": ["model/tf.image.resize_7/resize/ResizeBilinear", "model/conv2d_10/Conv2D"], "attr": {"T": {"type": "DT_FLOAT"}}}, {"name": "model/add_4/add", "op": "AddV2", "input": ["model/tf.image.resize_8/resize/ResizeBilinear", "model/conv2d_10/Conv2D"], "attr": {"T": {"type": "DT_FLOAT"}}}, {"name": "model/add_5/add", "op": "AddV2", "input": ["model/tf.image.resize_9/resize/ResizeBilinear", "model/conv2d_10/Conv2D"], "attr": {"T": {"type": "DT_FLOAT"}}}, {"name": "model/layer_5_0_basic_0bottle_neck_bn_3/FusedBatchNormV3", "op": "_FusedConv2D", "input": ["model/layer_5_0_basic_0bottle_neck_activation_2/Relu", "model/layer_5_0_basic_0bottle_neck_conv1x1_2/Conv2D_weights", "model/layer_5_0_basic_0bottle_neck_conv1x1_2/Conv2D_bn_offset"], "device": "/device:CPU:0", "attr": {"dilations": {"list": {"i": ["1", "1", "1", "1"]}}, "padding": {"s": "VkFMSUQ="}, "T": {"type": "DT_FLOAT"}, "use_cudnn_on_gpu": {"b": true}, "epsilon": {"f": 0.0}, "num_args": {"i": "1"}, "strides": {"list": {"i": ["1", "1", "1", "1"]}}, "fused_ops": {"list": {"s": ["Qmlhc0FkZA=="]}}, "explicit_paddings": {"list": {}}, "data_format": {"s": "TkhXQw=="}}}, {"name": "model/batch_normalization_12/FusedBatchNormV3/Mul", "op": "Mul", "input": ["model/add_2/add", "model/batch_normalization_12/FusedBatchNormV3/Scaled"], "attr": {"T": {"type": "DT_FLOAT"}}}, {"name": "model/batch_normalization_14/FusedBatchNormV3/Mul", "op": "Mul", "input": ["model/add_3/add", "model/batch_normalization_14/FusedBatchNormV3/Scaled"], "attr": {"T": {"type": "DT_FLOAT"}}}, {"name": "model/batch_normalization_16/FusedBatchNormV3/Mul", "op": "Mul", "input": ["model/add_4/add", "model/batch_normalization_16/FusedBatchNormV3/Scaled"], "attr": {"T": {"type": "DT_FLOAT"}}}, {"name": "model/batch_normalization_18/FusedBatchNormV3/Mul", "op": "Mul", "input": ["model/add_5/add", "model/batch_normalization_18/FusedBatchNormV3/Scaled"], "attr": {"T": {"type": "DT_FLOAT"}}}, {"name": "model/layer_5_0_basic_0bottle_neck_add_1/add", "op": "AddV2", "input": ["model/layer_5_0_basic_0bottle_neck_bn_3/FusedBatchNormV3", "model/layer_5_0_bn/FusedBatchNormV3"], "attr": {"T": {"type": "DT_FLOAT"}}}, {"name": "model/batch_normalization_12/FusedBatchNormV3", "op": "Add", "input": ["model/batch_normalization_12/FusedBatchNormV3/Mul", "model/batch_normalization_12/FusedBatchNormV3/Offset"], "attr": {"T": {"type": "DT_FLOAT"}}}, {"name": "model/batch_normalization_14/FusedBatchNormV3", "op": "Add", "input": ["model/batch_normalization_14/FusedBatchNormV3/Mul", "model/batch_normalization_14/FusedBatchNormV3/Offset"], "attr": {"T": {"type": "DT_FLOAT"}}}, {"name": "model/batch_normalization_16/FusedBatchNormV3", "op": "Add", "input": ["model/batch_normalization_16/FusedBatchNormV3/Mul", "model/batch_normalization_16/FusedBatchNormV3/Offset"], "attr": {"T": {"type": "DT_FLOAT"}}}, {"name": "model/batch_normalization_18/FusedBatchNormV3", "op": "Add", "input": ["model/batch_normalization_18/FusedBatchNormV3/Mul", "model/batch_normalization_18/FusedBatchNormV3/Offset"], "attr": {"T": {"type": "DT_FLOAT"}}}, {"name": "model/tf.math.multiply_7/Mul", "op": "Mul", "input": ["model/activation_24/Sigmoid", "model/layer_5_0_basic_0bottle_neck_add_1/add"], "attr": {"T": {"type": "DT_FLOAT"}}}, {"name": "model/activation_15/Relu", "op": "Relu", "input": ["model/batch_normalization_12/FusedBatchNormV3"], "attr": {"T": {"type": "DT_FLOAT"}}}, {"name": "model/activation_17/Relu", "op": "Relu", "input": ["model/batch_normalization_14/FusedBatchNormV3"], "attr": {"T": {"type": "DT_FLOAT"}}}, {"name": "model/activation_19/Relu", "op": "Relu", "input": ["model/batch_normalization_16/FusedBatchNormV3"], "attr": {"T": {"type": "DT_FLOAT"}}}, {"name": "model/activation_21/Relu", "op": "Relu", "input": ["model/batch_normalization_18/FusedBatchNormV3"], "attr": {"T": {"type": "DT_FLOAT"}}}, {"name": "model/conv2d_12/Conv2D", "op": "Conv2D", "input": ["model/activation_15/Relu", "model/conv2d_12/Conv2D/ReadVariableOp"], "device": "/device:CPU:0", "attr": {"explicit_paddings": {"list": {}}, "data_format": {"s": "TkhXQw=="}, "T": {"type": "DT_FLOAT"}, "strides": {"list": {"i": ["1", "1", "1", "1"]}}, "padding": {"s": "U0FNRQ=="}, "dilations": {"list": {"i": ["1", "1", "1", "1"]}}, "use_cudnn_on_gpu": {"b": true}}}, {"name": "model/conv2d_14/Conv2D", "op": "Conv2D", "input": ["model/activation_17/Relu", "model/conv2d_14/Conv2D/ReadVariableOp"], "device": "/device:CPU:0", "attr": {"strides": {"list": {"i": ["1", "1", "1", "1"]}}, "dilations": {"list": {"i": ["1", "1", "1", "1"]}}, "data_format": {"s": "TkhXQw=="}, "T": {"type": "DT_FLOAT"}, "padding": {"s": "U0FNRQ=="}, "use_cudnn_on_gpu": {"b": true}, "explicit_paddings": {"list": {}}}}, {"name": "model/conv2d_16/Conv2D", "op": "Conv2D", "input": ["model/activation_19/Relu", "model/conv2d_16/Conv2D/ReadVariableOp"], "device": "/device:CPU:0", "attr": {"data_format": {"s": "TkhXQw=="}, "explicit_paddings": {"list": {}}, "strides": {"list": {"i": ["1", "1", "1", "1"]}}, "T": {"type": "DT_FLOAT"}, "padding": {"s": "U0FNRQ=="}, "use_cudnn_on_gpu": {"b": true}, "dilations": {"list": {"i": ["1", "1", "1", "1"]}}}}, {"name": "model/conv2d_18/Conv2D", "op": "Conv2D", "input": ["model/activation_21/Relu", "model/conv2d_18/Conv2D/ReadVariableOp"], "device": "/device:CPU:0", "attr": {"dilations": {"list": {"i": ["1", "1", "1", "1"]}}, "data_format": {"s": "TkhXQw=="}, "explicit_paddings": {"list": {}}, "use_cudnn_on_gpu": {"b": true}, "padding": {"s": "U0FNRQ=="}, "T": {"type": "DT_FLOAT"}, "strides": {"list": {"i": ["1", "1", "1", "1"]}}}}, {"name": "model/pappm_concat/concat", "op": "ConcatV2", "input": ["model/conv2d_10/Conv2D", "model/conv2d_12/Conv2D", "model/conv2d_14/Conv2D", "model/conv2d_16/Conv2D", "model/conv2d_18/Conv2D", "model/pappm_concat/concat/axis"], "attr": {"Tidx": {"type": "DT_INT32"}, "N": {"i": "5"}, "T": {"type": "DT_FLOAT"}}}, {"name": "model/batch_normalization_19/FusedBatchNormV3/Mul", "op": "Mul", "input": ["model/pappm_concat/concat", "model/batch_normalization_19/FusedBatchNormV3/Scaled"], "attr": {"T": {"type": "DT_FLOAT"}}}, {"name": "model/batch_normalization_19/FusedBatchNormV3", "op": "Add", "input": ["model/batch_normalization_19/FusedBatchNormV3/Mul", "model/batch_normalization_19/FusedBatchNormV3/Offset"], "attr": {"T": {"type": "DT_FLOAT"}}}, {"name": "model/activation_22/Relu", "op": "Relu", "input": ["model/batch_normalization_19/FusedBatchNormV3"], "attr": {"T": {"type": "DT_FLOAT"}}}, {"name": "model/conv2d_19/Conv2D", "op": "Conv2D", "input": ["model/activation_22/Relu", "model/conv2d_19/Conv2D/ReadVariableOp"], "device": "/device:CPU:0", "attr": {"data_format": {"s": "TkhXQw=="}, "dilations": {"list": {"i": ["1", "1", "1", "1"]}}, "strides": {"list": {"i": ["1", "1", "1", "1"]}}, "explicit_paddings": {"list": {}}, "use_cudnn_on_gpu": {"b": true}, "padding": {"s": "VkFMSUQ="}, "T": {"type": "DT_FLOAT"}}}, {"name": "model/add_6/add", "op": "AddV2", "input": ["model/conv2d_19/Conv2D", "model/conv2d_20/Conv2D"], "attr": {"T": {"type": "DT_FLOAT"}}}, {"name": "model/tf.image.resize_10/resize/ResizeBilinear", "op": "ResizeBilinear", "input": ["model/add_6/add", "model/tf.image.resize_10/resize/size"], "attr": {"T": {"type": "DT_FLOAT"}, "align_corners": {"b": false}, "half_pixel_centers": {"b": true}}}, {"name": "model/tf.math.multiply_6/Mul", "op": "Mul", "input": ["model/tf.math.subtract_2/Sub", "model/tf.image.resize_10/resize/ResizeBilinear"], "attr": {"T": {"type": "DT_FLOAT"}}}, {"name": "model/tf.__operators__.add_3/AddV2", "op": "AddV2", "input": ["model/tf.image.resize_10/resize/ResizeBilinear", "model/tf.math.multiply_7/Mul"], "attr": {"T": {"type": "DT_FLOAT"}}}, {"name": "model/tf.__operators__.add_2/AddV2", "op": "AddV2", "input": ["model/tf.math.multiply_6/Mul", "model/layer_5_0_basic_0bottle_neck_add_1/add"], "attr": {"T": {"type": "DT_FLOAT"}}}, {"name": "model/batch_normalization_22/FusedBatchNormV3", "op": "_FusedConv2D", "input": ["model/tf.__operators__.add_3/AddV2", "model/conv2d_22/Conv2D_weights", "model/conv2d_22/Conv2D_bn_offset"], "device": "/device:CPU:0", "attr": {"padding": {"s": "VkFMSUQ="}, "data_format": {"s": "TkhXQw=="}, "epsilon": {"f": 0.0}, "explicit_paddings": {"list": {}}, "fused_ops": {"list": {"s": ["Qmlhc0FkZA=="]}}, "strides": {"list": {"i": ["1", "1", "1", "1"]}}, "num_args": {"i": "1"}, "use_cudnn_on_gpu": {"b": true}, "dilations": {"list": {"i": ["1", "1", "1", "1"]}}, "T": {"type": "DT_FLOAT"}}}, {"name": "model/batch_normalization_21/FusedBatchNormV3", "op": "_FusedConv2D", "input": ["model/tf.__operators__.add_2/AddV2", "model/conv2d_21/Conv2D_weights", "model/conv2d_21/Conv2D_bn_offset"], "device": "/device:CPU:0", "attr": {"data_format": {"s": "TkhXQw=="}, "strides": {"list": {"i": ["1", "1", "1", "1"]}}, "num_args": {"i": "1"}, "explicit_paddings": {"list": {}}, "epsilon": {"f": 0.0}, "T": {"type": "DT_FLOAT"}, "dilations": {"list": {"i": ["1", "1", "1", "1"]}}, "padding": {"s": "VkFMSUQ="}, "fused_ops": {"list": {"s": ["Qmlhc0FkZA=="]}}, "use_cudnn_on_gpu": {"b": true}}}, {"name": "model/add_7/add", "op": "AddV2", "input": ["model/batch_normalization_21/FusedBatchNormV3", "model/batch_normalization_22/FusedBatchNormV3"], "attr": {"T": {"type": "DT_FLOAT"}}}, {"name": "model/batch_normalization_23/FusedBatchNormV3/Mul", "op": "Mul", "input": ["model/add_7/add", "model/batch_normalization_23/FusedBatchNormV3/Scaled"], "attr": {"T": {"type": "DT_FLOAT"}}}, {"name": "model/batch_normalization_23/FusedBatchNormV3", "op": "Add", "input": ["model/batch_normalization_23/FusedBatchNormV3/Mul", "model/batch_normalization_23/FusedBatchNormV3/Offset"], "attr": {"T": {"type": "DT_FLOAT"}}}, {"name": "model/activation_25/Relu", "op": "Relu", "input": ["model/batch_normalization_23/FusedBatchNormV3"], "attr": {"T": {"type": "DT_FLOAT"}}}, {"name": "model/activation_26/Relu", "op": "_FusedConv2D", "input": ["model/activation_25/Relu", "model/conv2d_23/Conv2D_weights", "model/conv2d_23/Conv2D_bn_offset"], "device": "/device:CPU:0", "attr": {"use_cudnn_on_gpu": {"b": true}, "fused_ops": {"list": {"s": ["Qmlhc0FkZA==", "UmVsdQ=="]}}, "dilations": {"list": {"i": ["1", "1", "1", "1"]}}, "data_format": {"s": "TkhXQw=="}, "T": {"type": "DT_FLOAT"}, "epsilon": {"f": 0.0}, "explicit_paddings": {"list": {}}, "padding": {"s": "U0FNRQ=="}, "num_args": {"i": "1"}, "strides": {"list": {"i": ["1", "1", "1", "1"]}}}}, {"name": "model/conv2d_24/BiasAdd", "op": "_FusedConv2D", "input": ["model/activation_26/Relu", "model/conv2d_24/Conv2D/ReadVariableOp", "model/conv2d_24/BiasAdd/ReadVariableOp"], "device": "/device:CPU:0", "attr": {"padding": {"s": "VkFMSUQ="}, "T": {"type": "DT_FLOAT"}, "epsilon": {"f": 0.0}, "data_format": {"s": "TkhXQw=="}, "dilations": {"list": {"i": ["1", "1", "1", "1"]}}, "fused_ops": {"list": {"s": ["Qmlhc0FkZA=="]}}, "strides": {"list": {"i": ["1", "1", "1", "1"]}}, "explicit_paddings": {"list": {}}, "num_args": {"i": "1"}, "use_cudnn_on_gpu": {"b": true}}}, {"name": "model/main/resize/ResizeBilinear", "op": "ResizeBilinear", "input": ["model/conv2d_24/BiasAdd", "model/main/mul"], "attr": {"half_pixel_centers": {"b": true}, "T": {"type": "DT_FLOAT"}, "align_corners": {"b": false}}}, {"name": "model/tf.nn.softmax/Softmax", "op": "Softmax", "input": ["model/main/resize/ResizeBilinear"], "attr": {"T": {"type": "DT_FLOAT"}}}, {"name": "model/tf.math.argmax/ArgMax", "op": "ArgMax", "input": ["model/tf.nn.softmax/Softmax", "model/tf.math.argmax/ArgMax/dimension"], "attr": {"Tidx": {"type": "DT_INT32"}, "T": {"type": "DT_FLOAT"}, "output_type": {"type": "DT_INT64"}}}, {"name": "Identity", "op": "Identity", "input": ["model/tf.math.argmax/ArgMax"], "attr": {"T": {"type": "DT_INT64"}}}], "library": {}, "versions": {"producer": 808}}, "weightsManifest": [{"paths": ["group1-shard1of4.bin", "group1-shard2of4.bin", "group1-shard3of4.bin", "group1-shard4of4.bin"], "weights": [{"name": "model/53702", "shape": [], "dtype": "float32", "quantization": {"dtype": "float16", "original_dtype": "float32"}}, {"name": "model/conv2d_11/Conv2D/ReadVariableOp", "shape": [1, 1, 512, 96], "dtype": "float32", "quantization": {"dtype": "float16", "original_dtype": "float32"}}, {"name": "model/tf.image.resize_6/resize/size", "shape": [2], "dtype": "int32"}, {"name": "model/conv2d_12/Conv2D/ReadVariableOp", "shape": [3, 3, 96, 96], "dtype": "float32", "quantization": {"dtype": "float16", "original_dtype": "float32"}}, {"name": "model/conv2d_13/Conv2D/ReadVariableOp", "shape": [1, 1, 512, 96], "dtype": "float32", "quantization": {"dtype": "float16", "original_dtype": "float32"}}, {"name": "model/tf.image.resize_7/resize/size", "shape": [2], "dtype": "int32"}, {"name": "model/conv2d_14/Conv2D/ReadVariableOp", "shape": [3, 3, 96, 96], "dtype": "float32", "quantization": {"dtype": "float16", "original_dtype": "float32"}}, {"name": "model/conv2d_15/Conv2D/ReadVariableOp", "shape": [1, 1, 512, 96], "dtype": "float32", "quantization": {"dtype": "float16", "original_dtype": "float32"}}, {"name": "model/tf.image.resize_8/resize/size", "shape": [2], "dtype": "int32"}, {"name": "model/conv2d_16/Conv2D/ReadVariableOp", "shape": [3, 3, 96, 96], "dtype": "float32", "quantization": {"dtype": "float16", "original_dtype": "float32"}}, {"name": "model/conv2d_17/Conv2D/ReadVariableOp", "shape": [1, 1, 512, 96], "dtype": "float32", "quantization": {"dtype": "float16", "original_dtype": "float32"}}, {"name": "model/tf.image.resize_9/resize/size", "shape": [2], "dtype": "int32"}, {"name": "model/conv2d_10/Conv2D/ReadVariableOp", "shape": [1, 1, 512, 96], "dtype": "float32", "quantization": {"dtype": "float16", "original_dtype": "float32"}}, {"name": "model/conv2d_18/Conv2D/ReadVariableOp", "shape": [3, 3, 96, 96], "dtype": "float32", "quantization": {"dtype": "float16", "original_dtype": "float32"}}, {"name": "model/pappm_concat/concat/axis", "shape": [], "dtype": "int32"}, {"name": "model/conv2d_19/Conv2D/ReadVariableOp", "shape": [1, 1, 480, 128], "dtype": "float32", "quantization": {"dtype": "float16", "original_dtype": "float32"}}, {"name": "model/conv2d_20/Conv2D/ReadVariableOp", "shape": [1, 1, 512, 128], "dtype": "float32", "quantization": {"dtype": "float16", "original_dtype": "float32"}}, {"name": "model/tf.image.resize_10/resize/size", "shape": [2], "dtype": "int32"}, {"name": "model/tf.image.resize_2/resize/size", "shape": [2], "dtype": "int32"}, {"name": "model/tf.image.resize_5/resize/size", "shape": [2], "dtype": "int32"}, {"name": "model/53391", "shape": [], "dtype": "float32", "quantization": {"dtype": "float16", "original_dtype": "float32"}}, {"name": "model/52899", "shape": [], "dtype": "float32", "quantization": {"dtype": "float16", "original_dtype": "float32"}}, {"name": "model/tf.image.resize/resize/size", "shape": [2], "dtype": "int32"}, {"name": "model/tf.math.reduce_sum/Sum/reduction_indices", "shape": [], "dtype": "int32"}, {"name": "model/tf.image.resize_1/resize/size", "shape": [2], "dtype": "int32"}, {"name": "model/tf.image.resize_3/resize/size", "shape": [2], "dtype": "int32"}, {"name": "model/tf.math.reduce_sum_1/Sum/reduction_indices", "shape": [], "dtype": "int32"}, {"name": "model/tf.image.resize_4/resize/size", "shape": [2], "dtype": "int32"}, {"name": "model/conv2d_24/Conv2D/ReadVariableOp", "shape": [1, 1, 128, 2], "dtype": "float32", "quantization": {"dtype": "float16", "original_dtype": "float32"}}, {"name": "model/conv2d_24/BiasAdd/ReadVariableOp", "shape": [2], "dtype": "float32", "quantization": {"dtype": "float16", "original_dtype": "float32"}}, {"name": "model/main/mul", "shape": [2], "dtype": "int32"}, {"name": "model/tf.math.argmax/ArgMax/dimension", "shape": [], "dtype": "int32"}, {"name": "model/conv2d/Conv2D_weights", "shape": [3, 3, 3, 32], "dtype": "float32", "quantization": {"dtype": "float16", "original_dtype": "float32"}}, {"name": "model/conv2d_23/Conv2D_weights", "shape": [3, 3, 128, 128], "dtype": "float32", "quantization": {"dtype": "float16", "original_dtype": "float32"}}, {"name": "model/conv2d/Conv2D_bn_offset", "shape": [32], "dtype": "float32", "quantization": {"dtype": "float16", "original_dtype": "float32"}}, {"name": "model/conv2d_1/Conv2D_weights", "shape": [3, 3, 32, 32], "dtype": "float32", "quantization": {"dtype": "float16", "original_dtype": "float32"}}, {"name": "model/conv2d_23/Conv2D_bn_offset", "shape": [128], "dtype": "float32", "quantization": {"dtype": "float16", "original_dtype": "float32"}}, {"name": "model/conv2d_1/Conv2D_bn_offset", "shape": [32], "dtype": "float32", "quantization": {"dtype": "float16", "original_dtype": "float32"}}, {"name": "model/layer_1_basic_0_conv3x3_1/Conv2D_weights", "shape": [3, 3, 32, 32], "dtype": "float32", "quantization": {"dtype": "float16", "original_dtype": "float32"}}, {"name": "model/layer_1_basic_0_conv3x3_1/Conv2D_bn_offset", "shape": [32], "dtype": "float32", "quantization": {"dtype": "float16", "original_dtype": "float32"}}, {"name": "model/batch_normalization_11/FusedBatchNormV3/Offset", "shape": [512], "dtype": "float32", "quantization": {"dtype": "float16", "original_dtype": "float32"}}, {"name": "model/layer_1_basic_0_conv3x3_2/Conv2D_weights", "shape": [3, 3, 32, 32], "dtype": "float32", "quantization": {"dtype": "float16", "original_dtype": "float32"}}, {"name": "model/layer_1_basic_0_conv3x3_2/Conv2D_bn_offset", "shape": [32], "dtype": "float32", "quantization": {"dtype": "float16", "original_dtype": "float32"}}, {"name": "model/layer_1_basic_1_conv3x3_1/Conv2D_weights", "shape": [3, 3, 32, 32], "dtype": "float32", "quantization": {"dtype": "float16", "original_dtype": "float32"}}, {"name": "model/layer_1_basic_1_conv3x3_1/Conv2D_bn_offset", "shape": [32], "dtype": "float32", "quantization": {"dtype": "float16", "original_dtype": "float32"}}, {"name": "model/layer_1_basic_1_conv3x3_2/Conv2D_weights", "shape": [3, 3, 32, 32], "dtype": "float32", "quantization": {"dtype": "float16", "original_dtype": "float32"}}, {"name": "model/layer_1_basic_1_conv3x3_2/Conv2D_bn_offset", "shape": [32], "dtype": "float32", "quantization": {"dtype": "float16", "original_dtype": "float32"}}, {"name": "model/layer_2_basic_0_conv3x3_1/Conv2D_weights", "shape": [3, 3, 32, 64], "dtype": "float32", "quantization": {"dtype": "float16", "original_dtype": "float32"}}, {"name": "model/layer_2_basic_0_conv3x3_1/Conv2D_bn_offset", "shape": [64], "dtype": "float32", "quantization": {"dtype": "float16", "original_dtype": "float32"}}, {"name": "model/layer_2_conv2d/Conv2D_weights", "shape": [1, 1, 32, 64], "dtype": "float32", "quantization": {"dtype": "float16", "original_dtype": "float32"}}, {"name": "model/layer_2_conv2d/Conv2D_bn_offset", "shape": [64], "dtype": "float32", "quantization": {"dtype": "float16", "original_dtype": "float32"}}, {"name": "model/layer_2_basic_0_conv3x3_2/Conv2D_weights", "shape": [3, 3, 64, 64], "dtype": "float32", "quantization": {"dtype": "float16", "original_dtype": "float32"}}, {"name": "model/layer_2_basic_0_conv3x3_2/Conv2D_bn_offset", "shape": [64], "dtype": "float32", "quantization": {"dtype": "float16", "original_dtype": "float32"}}, {"name": "model/layer_2_basic_1_conv3x3_1/Conv2D_weights", "shape": [3, 3, 64, 64], "dtype": "float32", "quantization": {"dtype": "float16", "original_dtype": "float32"}}, {"name": "model/batch_normalization_23/FusedBatchNormV3/Scaled", "shape": [128], "dtype": "float32", "quantization": {"dtype": "float16", "original_dtype": "float32"}}, {"name": "model/layer_2_basic_1_conv3x3_1/Conv2D_bn_offset", "shape": [64], "dtype": "float32", "quantization": {"dtype": "float16", "original_dtype": "float32"}}, {"name": "model/layer_2_basic_1_conv3x3_2/Conv2D_weights", "shape": [3, 3, 64, 64], "dtype": "float32", "quantization": {"dtype": "float16", "original_dtype": "float32"}}, {"name": "model/layer_2_basic_1_conv3x3_2/Conv2D_bn_offset", "shape": [64], "dtype": "float32", "quantization": {"dtype": "float16", "original_dtype": "float32"}}, {"name": "model/layer_3_d_basic_0_conv3x3_1/Conv2D_weights", "shape": [3, 3, 64, 32], "dtype": "float32", "quantization": {"dtype": "float16", "original_dtype": "float32"}}, {"name": "model/batch_normalization_23/FusedBatchNormV3/Offset", "shape": [128], "dtype": "float32", "quantization": {"dtype": "float16", "original_dtype": "float32"}}, {"name": "model/layer_3_d_basic_0_conv3x3_1/Conv2D_bn_offset", "shape": [32], "dtype": "float32", "quantization": {"dtype": "float16", "original_dtype": "float32"}}, {"name": "model/layer_3_d_conv2d/Conv2D_weights", "shape": [1, 1, 64, 32], "dtype": "float32", "quantization": {"dtype": "float16", "original_dtype": "float32"}}, {"name": "model/layer_3_d_conv2d/Conv2D_bn_offset", "shape": [32], "dtype": "float32", "quantization": {"dtype": "float16", "original_dtype": "float32"}}, {"name": "model/layer_3_0_basic_0_conv3x3_1/Conv2D_weights", "shape": [3, 3, 64, 64], "dtype": "float32", "quantization": {"dtype": "float16", "original_dtype": "float32"}}, {"name": "model/layer_3_0_basic_0_conv3x3_1/Conv2D_bn_offset", "shape": [64], "dtype": "float32", "quantization": {"dtype": "float16", "original_dtype": "float32"}}, {"name": "model/batch_normalization_20/FusedBatchNormV3/Scaled", "shape": [512], "dtype": "float32", "quantization": {"dtype": "float16", "original_dtype": "float32"}}, {"name": "model/layer_3_basic_0_conv3x3_1/Conv2D_weights", "shape": [3, 3, 64, 128], "dtype": "float32", "quantization": {"dtype": "float16", "original_dtype": "float32"}}, {"name": "model/layer_3_basic_0_conv3x3_1/Conv2D_bn_offset", "shape": [128], "dtype": "float32", "quantization": {"dtype": "float16", "original_dtype": "float32"}}, {"name": "model/layer_3_conv2d/Conv2D_weights", "shape": [1, 1, 64, 128], "dtype": "float32", "quantization": {"dtype": "float16", "original_dtype": "float32"}}, {"name": "model/batch_normalization_20/FusedBatchNormV3/Offset", "shape": [512], "dtype": "float32", "quantization": {"dtype": "float16", "original_dtype": "float32"}}, {"name": "model/layer_3_conv2d/Conv2D_bn_offset", "shape": [128], "dtype": "float32", "quantization": {"dtype": "float16", "original_dtype": "float32"}}, {"name": "model/layer_3_d_basic_0_conv3x3_2/Conv2D_weights", "shape": [3, 3, 32, 32], "dtype": "float32", "quantization": {"dtype": "float16", "original_dtype": "float32"}}, {"name": "model/layer_3_d_basic_0_conv3x3_2/Conv2D_bn_offset", "shape": [32], "dtype": "float32", "quantization": {"dtype": "float16", "original_dtype": "float32"}}, {"name": "model/layer_3_0_basic_0_conv3x3_2/Conv2D_weights", "shape": [3, 3, 64, 64], "dtype": "float32", "quantization": {"dtype": "float16", "original_dtype": "float32"}}, {"name": "model/layer_3_0_basic_0_conv3x3_2/Conv2D_bn_offset", "shape": [64], "dtype": "float32", "quantization": {"dtype": "float16", "original_dtype": "float32"}}, {"name": "model/layer_3_basic_0_conv3x3_2/Conv2D_weights", "shape": [3, 3, 128, 128], "dtype": "float32", "quantization": {"dtype": "float16", "original_dtype": "float32"}}, {"name": "model/layer_3_basic_0_conv3x3_2/Conv2D_bn_offset", "shape": [128], "dtype": "float32", "quantization": {"dtype": "float16", "original_dtype": "float32"}}, {"name": "model/layer_3_0_basic_1_conv3x3_1/Conv2D_weights", "shape": [3, 3, 64, 64], "dtype": "float32", "quantization": {"dtype": "float16", "original_dtype": "float32"}}, {"name": "model/batch_normalization_19/FusedBatchNormV3/Scaled", "shape": [480], "dtype": "float32", "quantization": {"dtype": "float16", "original_dtype": "float32"}}, {"name": "model/layer_3_0_basic_1_conv3x3_1/Conv2D_bn_offset", "shape": [64], "dtype": "float32", "quantization": {"dtype": "float16", "original_dtype": "float32"}}, {"name": "model/layer_3_basic_1_conv3x3_1/Conv2D_weights", "shape": [3, 3, 128, 128], "dtype": "float32", "quantization": {"dtype": "float16", "original_dtype": "float32"}}, {"name": "model/layer_3_basic_1_conv3x3_1/Conv2D_bn_offset", "shape": [128], "dtype": "float32", "quantization": {"dtype": "float16", "original_dtype": "float32"}}, {"name": "model/batch_normalization_19/FusedBatchNormV3/Offset", "shape": [480], "dtype": "float32", "quantization": {"dtype": "float16", "original_dtype": "float32"}}, {"name": "model/layer_3_0_basic_1_conv3x3_2/Conv2D_weights", "shape": [3, 3, 64, 64], "dtype": "float32", "quantization": {"dtype": "float16", "original_dtype": "float32"}}, {"name": "model/layer_3_0_basic_1_conv3x3_2/Conv2D_bn_offset", "shape": [64], "dtype": "float32", "quantization": {"dtype": "float16", "original_dtype": "float32"}}, {"name": "model/layer_3_basic_1_conv3x3_2/Conv2D_weights", "shape": [3, 3, 128, 128], "dtype": "float32", "quantization": {"dtype": "float16", "original_dtype": "float32"}}, {"name": "model/layer_3_basic_1_conv3x3_2/Conv2D_bn_offset", "shape": [128], "dtype": "float32", "quantization": {"dtype": "float16", "original_dtype": "float32"}}, {"name": "model/conv2d_4/Conv2D_weights", "shape": [1, 1, 64, 32], "dtype": "float32", "quantization": {"dtype": "float16", "original_dtype": "float32"}}, {"name": "model/conv2d_4/Conv2D_bn_offset", "shape": [32], "dtype": "float32", "quantization": {"dtype": "float16", "original_dtype": "float32"}}, {"name": "model/layer_3_basic_2_conv3x3_1/Conv2D_weights", "shape": [3, 3, 128, 128], "dtype": "float32", "quantization": {"dtype": "float16", "original_dtype": "float32"}}, {"name": "model/batch_normalization_18/FusedBatchNormV3/Scaled", "shape": [96], "dtype": "float32", "quantization": {"dtype": "float16", "original_dtype": "float32"}}, {"name": "model/layer_3_basic_2_conv3x3_1/Conv2D_bn_offset", "shape": [128], "dtype": "float32", "quantization": {"dtype": "float16", "original_dtype": "float32"}}, {"name": "model/layer_3_basic_2_conv3x3_2/Conv2D_weights", "shape": [3, 3, 128, 128], "dtype": "float32", "quantization": {"dtype": "float16", "original_dtype": "float32"}}, {"name": "model/layer_3_basic_2_conv3x3_2/Conv2D_bn_offset", "shape": [128], "dtype": "float32", "quantization": {"dtype": "float16", "original_dtype": "float32"}}, {"name": "model/conv2d_5/Conv2D_weights", "shape": [3, 3, 128, 32], "dtype": "float32", "quantization": {"dtype": "float16", "original_dtype": "float32"}}, {"name": "model/batch_normalization_18/FusedBatchNormV3/Offset", "shape": [96], "dtype": "float32", "quantization": {"dtype": "float16", "original_dtype": "float32"}}, {"name": "model/conv2d_5/Conv2D_bn_offset", "shape": [32], "dtype": "float32", "quantization": {"dtype": "float16", "original_dtype": "float32"}}, {"name": "model/conv2d_2/Conv2D_weights", "shape": [1, 1, 128, 64], "dtype": "float32", "quantization": {"dtype": "float16", "original_dtype": "float32"}}, {"name": "model/conv2d_2/Conv2D_bn_offset", "shape": [64], "dtype": "float32", "quantization": {"dtype": "float16", "original_dtype": "float32"}}, {"name": "model/layer_4_basic_0_conv3x3_1/Conv2D_weights", "shape": [3, 3, 128, 256], "dtype": "float32", "quantization": {"dtype": "float16", "original_dtype": "float32"}}, {"name": "model/layer_4_basic_0_conv3x3_1/Conv2D_bn_offset", "shape": [256], "dtype": "float32", "quantization": {"dtype": "float16", "original_dtype": "float32"}}, {"name": "model/layer_4_conv2d/Conv2D_weights", "shape": [1, 1, 128, 256], "dtype": "float32", "quantization": {"dtype": "float16", "original_dtype": "float32"}}, {"name": "model/batch_normalization_16/FusedBatchNormV3/Scaled", "shape": [96], "dtype": "float32", "quantization": {"dtype": "float16", "original_dtype": "float32"}}, {"name": "model/layer_4_conv2d/Conv2D_bn_offset", "shape": [256], "dtype": "float32", "quantization": {"dtype": "float16", "original_dtype": "float32"}}, {"name": "model/conv2d_3/Conv2D_weights", "shape": [1, 1, 64, 32], "dtype": "float32", "quantization": {"dtype": "float16", "original_dtype": "float32"}}, {"name": "model/conv2d_3/Conv2D_bn_offset", "shape": [32], "dtype": "float32", "quantization": {"dtype": "float16", "original_dtype": "float32"}}, {"name": "model/layer_4_basic_0_conv3x3_2/Conv2D_weights", "shape": [3, 3, 256, 256], "dtype": "float32", "quantization": {"dtype": "float16", "original_dtype": "float32"}}, {"name": "model/layer_4_basic_0_conv3x3_2/Conv2D_bn_offset", "shape": [256], "dtype": "float32", "quantization": {"dtype": "float16", "original_dtype": "float32"}}, {"name": "model/layer_4_d_basic_0bottle_neck_conv1x1_1/Conv2D_weights", "shape": [1, 1, 32, 32], "dtype": "float32", "quantization": {"dtype": "float16", "original_dtype": "float32"}}, {"name": "model/batch_normalization_16/FusedBatchNormV3/Offset", "shape": [96], "dtype": "float32", "quantization": {"dtype": "float16", "original_dtype": "float32"}}, {"name": "model/layer_4_d_basic_0bottle_neck_conv1x1_1/Conv2D_bn_offset", "shape": [32], "dtype": "float32", "quantization": {"dtype": "float16", "original_dtype": "float32"}}, {"name": "model/layer_4_d_conv2d/Conv2D_weights", "shape": [1, 1, 32, 64], "dtype": "float32", "quantization": {"dtype": "float16", "original_dtype": "float32"}}, {"name": "model/layer_4_d_conv2d/Conv2D_bn_offset", "shape": [64], "dtype": "float32", "quantization": {"dtype": "float16", "original_dtype": "float32"}}, {"name": "model/layer_4_basic_1_conv3x3_1/Conv2D_weights", "shape": [3, 3, 256, 256], "dtype": "float32", "quantization": {"dtype": "float16", "original_dtype": "float32"}}, {"name": "model/layer_4_basic_1_conv3x3_1/Conv2D_bn_offset", "shape": [256], "dtype": "float32", "quantization": {"dtype": "float16", "original_dtype": "float32"}}, {"name": "model/batch_normalization_14/FusedBatchNormV3/Scaled", "shape": [96], "dtype": "float32", "quantization": {"dtype": "float16", "original_dtype": "float32"}}, {"name": "model/layer_4_d_basic_0bottle_neck_conv3x3_1/Conv2D_weights", "shape": [3, 3, 32, 32], "dtype": "float32", "quantization": {"dtype": "float16", "original_dtype": "float32"}}, {"name": "model/layer_4_d_basic_0bottle_neck_conv3x3_1/Conv2D_bn_offset", "shape": [32], "dtype": "float32", "quantization": {"dtype": "float16", "original_dtype": "float32"}}, {"name": "model/layer_4_basic_1_conv3x3_2/Conv2D_weights", "shape": [3, 3, 256, 256], "dtype": "float32", "quantization": {"dtype": "float16", "original_dtype": "float32"}}, {"name": "model/batch_normalization_14/FusedBatchNormV3/Offset", "shape": [96], "dtype": "float32", "quantization": {"dtype": "float16", "original_dtype": "float32"}}, {"name": "model/layer_4_basic_1_conv3x3_2/Conv2D_bn_offset", "shape": [256], "dtype": "float32", "quantization": {"dtype": "float16", "original_dtype": "float32"}}, {"name": "model/layer_4_d_basic_0bottle_neck_conv1x1_2/Conv2D_weights", "shape": [1, 1, 32, 64], "dtype": "float32", "quantization": {"dtype": "float16", "original_dtype": "float32"}}, {"name": "model/layer_4_d_basic_0bottle_neck_conv1x1_2/Conv2D_bn_offset", "shape": [64], "dtype": "float32", "quantization": {"dtype": "float16", "original_dtype": "float32"}}, {"name": "model/layer_4_0_basic_0_conv3x3_1/Conv2D_weights", "shape": [3, 3, 64, 64], "dtype": "float32", "quantization": {"dtype": "float16", "original_dtype": "float32"}}, {"name": "model/layer_4_0_basic_0_conv3x3_1/Conv2D_bn_offset", "shape": [64], "dtype": "float32", "quantization": {"dtype": "float16", "original_dtype": "float32"}}, {"name": "model/layer_4_basic_2_conv3x3_1/Conv2D_weights", "shape": [3, 3, 256, 256], "dtype": "float32", "quantization": {"dtype": "float16", "original_dtype": "float32"}}, {"name": "model/batch_normalization_12/FusedBatchNormV3/Scaled", "shape": [96], "dtype": "float32", "quantization": {"dtype": "float16", "original_dtype": "float32"}}, {"name": "model/layer_4_basic_2_conv3x3_1/Conv2D_bn_offset", "shape": [256], "dtype": "float32", "quantization": {"dtype": "float16", "original_dtype": "float32"}}, {"name": "model/layer_4_0_basic_0_conv3x3_2/Conv2D_weights", "shape": [3, 3, 64, 64], "dtype": "float32", "quantization": {"dtype": "float16", "original_dtype": "float32"}}, {"name": "model/layer_4_0_basic_0_conv3x3_2/Conv2D_bn_offset", "shape": [64], "dtype": "float32", "quantization": {"dtype": "float16", "original_dtype": "float32"}}, {"name": "model/layer_4_basic_2_conv3x3_2/Conv2D_weights", "shape": [3, 3, 256, 256], "dtype": "float32", "quantization": {"dtype": "float16", "original_dtype": "float32"}}, {"name": "model/batch_normalization_12/FusedBatchNormV3/Offset", "shape": [96], "dtype": "float32", "quantization": {"dtype": "float16", "original_dtype": "float32"}}, {"name": "model/layer_4_basic_2_conv3x3_2/Conv2D_bn_offset", "shape": [256], "dtype": "float32", "quantization": {"dtype": "float16", "original_dtype": "float32"}}, {"name": "model/layer_4_0_basic_1_conv3x3_1/Conv2D_weights", "shape": [3, 3, 64, 64], "dtype": "float32", "quantization": {"dtype": "float16", "original_dtype": "float32"}}, {"name": "model/layer_4_0_basic_1_conv3x3_1/Conv2D_bn_offset", "shape": [64], "dtype": "float32", "quantization": {"dtype": "float16", "original_dtype": "float32"}}, {"name": "model/layer_5_basic_0bottle_neck_conv1x1_1/Conv2D_weights", "shape": [1, 1, 256, 256], "dtype": "float32", "quantization": {"dtype": "float16", "original_dtype": "float32"}}, {"name": "model/layer_5_basic_0bottle_neck_conv1x1_1/Conv2D_bn_offset", "shape": [256], "dtype": "float32", "quantization": {"dtype": "float16", "original_dtype": "float32"}}, {"name": "model/batch_normalization_10/FusedBatchNormV3/Scaled", "shape": [512], "dtype": "float32", "quantization": {"dtype": "float16", "original_dtype": "float32"}}, {"name": "model/layer_5_conv2d/Conv2D_weights", "shape": [1, 1, 256, 512], "dtype": "float32", "quantization": {"dtype": "float16", "original_dtype": "float32"}}, {"name": "model/layer_5_conv2d/Conv2D_bn_offset", "shape": [512], "dtype": "float32", "quantization": {"dtype": "float16", "original_dtype": "float32"}}, {"name": "model/conv2d_9/Conv2D_weights", "shape": [3, 3, 256, 64], "dtype": "float32", "quantization": {"dtype": "float16", "original_dtype": "float32"}}, {"name": "model/conv2d_9/Conv2D_bn_offset", "shape": [64], "dtype": "float32", "quantization": {"dtype": "float16", "original_dtype": "float32"}}, {"name": "model/conv2d_6/Conv2D_weights", "shape": [1, 1, 256, 64], "dtype": "float32", "quantization": {"dtype": "float16", "original_dtype": "float32"}}, {"name": "model/batch_normalization_10/FusedBatchNormV3/Offset", "shape": [512], "dtype": "float32", "quantization": {"dtype": "float16", "original_dtype": "float32"}}, {"name": "model/conv2d_6/Conv2D_bn_offset", "shape": [64], "dtype": "float32", "quantization": {"dtype": "float16", "original_dtype": "float32"}}, {"name": "model/layer_4_0_basic_1_conv3x3_2/Conv2D_weights", "shape": [3, 3, 64, 64], "dtype": "float32", "quantization": {"dtype": "float16", "original_dtype": "float32"}}, {"name": "model/layer_4_0_basic_1_conv3x3_2/Conv2D_bn_offset", "shape": [64], "dtype": "float32", "quantization": {"dtype": "float16", "original_dtype": "float32"}}, {"name": "model/conv2d_7/Conv2D_weights", "shape": [1, 1, 64, 32], "dtype": "float32", "quantization": {"dtype": "float16", "original_dtype": "float32"}}, {"name": "model/conv2d_7/Conv2D_bn_offset", "shape": [32], "dtype": "float32", "quantization": {"dtype": "float16", "original_dtype": "float32"}}, {"name": "model/layer_5_basic_0bottle_neck_conv3x3_1/Conv2D_weights", "shape": [3, 3, 256, 256], "dtype": "float32", "quantization": {"dtype": "float16", "original_dtype": "float32"}}, {"name": "model/layer_5_basic_0bottle_neck_conv3x3_1/Conv2D_bn_offset", "shape": [256], "dtype": "float32", "quantization": {"dtype": "float16", "original_dtype": "float32"}}, {"name": "model/batch_normalization_17/FusedBatchNormV3/Scaled", "shape": [512], "dtype": "float32", "quantization": {"dtype": "float16", "original_dtype": "float32"}}, {"name": "model/conv2d_8/Conv2D_weights", "shape": [1, 1, 64, 32], "dtype": "float32", "quantization": {"dtype": "float16", "original_dtype": "float32"}}, {"name": "model/conv2d_8/Conv2D_bn_offset", "shape": [32], "dtype": "float32", "quantization": {"dtype": "float16", "original_dtype": "float32"}}, {"name": "model/layer_5_d_basic_0bottle_neck_conv1x1_1/Conv2D_weights", "shape": [1, 1, 64, 64], "dtype": "float32", "quantization": {"dtype": "float16", "original_dtype": "float32"}}, {"name": "model/layer_5_d_basic_0bottle_neck_conv1x1_1/Conv2D_bn_offset", "shape": [64], "dtype": "float32", "quantization": {"dtype": "float16", "original_dtype": "float32"}}, {"name": "model/batch_normalization_17/FusedBatchNormV3/Offset", "shape": [512], "dtype": "float32", "quantization": {"dtype": "float16", "original_dtype": "float32"}}, {"name": "model/layer_5_d_conv2d/Conv2D_weights", "shape": [1, 1, 64, 128], "dtype": "float32", "quantization": {"dtype": "float16", "original_dtype": "float32"}}, {"name": "model/layer_5_d_conv2d/Conv2D_bn_offset", "shape": [128], "dtype": "float32", "quantization": {"dtype": "float16", "original_dtype": "float32"}}, {"name": "model/layer_5_basic_0bottle_neck_conv1x1_2/Conv2D_weights", "shape": [1, 1, 256, 512], "dtype": "float32", "quantization": {"dtype": "float16", "original_dtype": "float32"}}, {"name": "model/layer_5_basic_0bottle_neck_conv1x1_2/Conv2D_bn_offset", "shape": [512], "dtype": "float32", "quantization": {"dtype": "float16", "original_dtype": "float32"}}, {"name": "model/layer_5_d_basic_0bottle_neck_conv3x3_1/Conv2D_weights", "shape": [3, 3, 64, 64], "dtype": "float32", "quantization": {"dtype": "float16", "original_dtype": "float32"}}, {"name": "model/layer_5_d_basic_0bottle_neck_conv3x3_1/Conv2D_bn_offset", "shape": [64], "dtype": "float32", "quantization": {"dtype": "float16", "original_dtype": "float32"}}, {"name": "model/batch_normalization_15/FusedBatchNormV3/Scaled", "shape": [512], "dtype": "float32", "quantization": {"dtype": "float16", "original_dtype": "float32"}}, {"name": "model/layer_5_basic_1bottle_neck_conv1x1_1/Conv2D_weights", "shape": [1, 1, 512, 256], "dtype": "float32", "quantization": {"dtype": "float16", "original_dtype": "float32"}}, {"name": "model/layer_5_basic_1bottle_neck_conv1x1_1/Conv2D_bn_offset", "shape": [256], "dtype": "float32", "quantization": {"dtype": "float16", "original_dtype": "float32"}}, {"name": "model/layer_5_d_basic_0bottle_neck_conv1x1_2/Conv2D_weights", "shape": [1, 1, 64, 128], "dtype": "float32", "quantization": {"dtype": "float16", "original_dtype": "float32"}}, {"name": "model/batch_normalization_15/FusedBatchNormV3/Offset", "shape": [512], "dtype": "float32", "quantization": {"dtype": "float16", "original_dtype": "float32"}}, {"name": "model/layer_5_d_basic_0bottle_neck_conv1x1_2/Conv2D_bn_offset", "shape": [128], "dtype": "float32", "quantization": {"dtype": "float16", "original_dtype": "float32"}}, {"name": "model/layer_5_basic_1bottle_neck_conv3x3_1/Conv2D_weights", "shape": [3, 3, 256, 256], "dtype": "float32", "quantization": {"dtype": "float16", "original_dtype": "float32"}}, {"name": "model/layer_5_basic_1bottle_neck_conv3x3_1/Conv2D_bn_offset", "shape": [256], "dtype": "float32", "quantization": {"dtype": "float16", "original_dtype": "float32"}}, {"name": "model/layer_5_0_basic_0bottle_neck_conv1x1_1/Conv2D_weights", "shape": [1, 1, 64, 64], "dtype": "float32", "quantization": {"dtype": "float16", "original_dtype": "float32"}}, {"name": "model/layer_5_0_basic_0bottle_neck_conv1x1_1/Conv2D_bn_offset", "shape": [64], "dtype": "float32", "quantization": {"dtype": "float16", "original_dtype": "float32"}}, {"name": "model/batch_normalization_13/FusedBatchNormV3/Scaled", "shape": [512], "dtype": "float32", "quantization": {"dtype": "float16", "original_dtype": "float32"}}, {"name": "model/layer_5_0_conv2d/Conv2D_weights", "shape": [1, 1, 64, 128], "dtype": "float32", "quantization": {"dtype": "float16", "original_dtype": "float32"}}, {"name": "model/layer_5_0_conv2d/Conv2D_bn_offset", "shape": [128], "dtype": "float32", "quantization": {"dtype": "float16", "original_dtype": "float32"}}, {"name": "model/layer_5_basic_1bottle_neck_conv1x1_2/Conv2D_weights", "shape": [1, 1, 256, 512], "dtype": "float32", "quantization": {"dtype": "float16", "original_dtype": "float32"}}, {"name": "model/layer_5_basic_1bottle_neck_conv1x1_2/Conv2D_bn_offset", "shape": [512], "dtype": "float32", "quantization": {"dtype": "float16", "original_dtype": "float32"}}, {"name": "model/layer_5_0_basic_0bottle_neck_conv3x3_1/Conv2D_weights", "shape": [3, 3, 64, 64], "dtype": "float32", "quantization": {"dtype": "float16", "original_dtype": "float32"}}, {"name": "model/batch_normalization_13/FusedBatchNormV3/Offset", "shape": [512], "dtype": "float32", "quantization": {"dtype": "float16", "original_dtype": "float32"}}, {"name": "model/layer_5_0_basic_0bottle_neck_conv3x3_1/Conv2D_bn_offset", "shape": [64], "dtype": "float32", "quantization": {"dtype": "float16", "original_dtype": "float32"}}, {"name": "model/layer_5_0_basic_0bottle_neck_conv1x1_2/Conv2D_weights", "shape": [1, 1, 64, 128], "dtype": "float32", "quantization": {"dtype": "float16", "original_dtype": "float32"}}, {"name": "model/layer_5_0_basic_0bottle_neck_conv1x1_2/Conv2D_bn_offset", "shape": [128], "dtype": "float32", "quantization": {"dtype": "float16", "original_dtype": "float32"}}, {"name": "model/conv2d_22/Conv2D_weights", "shape": [1, 1, 128, 128], "dtype": "float32", "quantization": {"dtype": "float16", "original_dtype": "float32"}}, {"name": "model/conv2d_22/Conv2D_bn_offset", "shape": [128], "dtype": "float32", "quantization": {"dtype": "float16", "original_dtype": "float32"}}, {"name": "model/conv2d_21/Conv2D_weights", "shape": [1, 1, 128, 128], "dtype": "float32", "quantization": {"dtype": "float16", "original_dtype": "float32"}}, {"name": "model/batch_normalization_11/FusedBatchNormV3/Scaled", "shape": [512], "dtype": "float32", "quantization": {"dtype": "float16", "original_dtype": "float32"}}, {"name": "model/conv2d_21/Conv2D_bn_offset", "shape": [128], "dtype": "float32", "quantization": {"dtype": "float16", "original_dtype": "float32"}}]}]}