{"format": "graph-model", "generatedBy": "2.6.2", "convertedBy": "TensorFlow.js Converter v3.19.0", "signature": {"outputs": {"Identity": {"name": "Identity"}}}, "modelTopology": {"node": [{"name": "model/global_average_pooling2d/Mean/reduction_indices", "op": "Const", "attr": {"dtype": {"type": "DT_INT32"}, "value": {"tensor": {"dtype": "DT_INT32", "tensorShape": {"dim": [{"size": "2"}]}}}}}, {"name": "model/reshape/strided_slice/stack", "op": "Const", "attr": {"value": {"tensor": {"dtype": "DT_INT32", "tensorShape": {"dim": [{"size": "1"}]}}}, "dtype": {"type": "DT_INT32"}}}, {"name": "model/reshape/strided_slice/stack_1", "op": "Const", "attr": {"dtype": {"type": "DT_INT32"}, "value": {"tensor": {"dtype": "DT_INT32", "tensorShape": {"dim": [{"size": "1"}]}}}}}, {"name": "model/reshape/strided_slice/stack_2", "op": "Const", "attr": {"dtype": {"type": "DT_INT32"}, "value": {"tensor": {"dtype": "DT_INT32", "tensorShape": {"dim": [{"size": "1"}]}}}}}, {"name": "model/reshape/Reshape/shape/1", "op": "Const", "attr": {"value": {"tensor": {"dtype": "DT_INT32", "tensorShape": {}}}, "dtype": {"type": "DT_INT32"}}}, {"name": "model/reshape/Reshape/shape/2", "op": "Const", "attr": {"dtype": {"type": "DT_INT32"}, "value": {"tensor": {"dtype": "DT_INT32", "tensorShape": {}}}}}, {"name": "model/reshape/Reshape/shape/3", "op": "Const", "attr": {"value": {"tensor": {"dtype": "DT_INT32", "tensorShape": {}}}, "dtype": {"type": "DT_INT32"}}}, {"name": "model/resizing/resize/size", "op": "Const", "attr": {"dtype": {"type": "DT_INT32"}, "value": {"tensor": {"dtype": "DT_INT32", "tensorShape": {"dim": [{"size": "2"}]}}}}}, {"name": "model/aspp1_depthwise/depthwise/SpaceToBatchND/block_shape", "op": "Const", "attr": {"value": {"tensor": {"dtype": "DT_INT32", "tensorShape": {"dim": [{"size": "2"}]}}}, "dtype": {"type": "DT_INT32"}}}, {"name": "model/aspp1_depthwise/depthwise/SpaceToBatchND/paddings", "op": "Const", "attr": {"value": {"tensor": {"dtype": "DT_INT32", "tensorShape": {"dim": [{"size": "2"}, {"size": "2"}]}}}, "dtype": {"type": "DT_INT32"}}}, {"name": "model/aspp1_depthwise/depthwise/ReadVariableOp", "op": "Const", "attr": {"dtype": {"type": "DT_FLOAT"}, "value": {"tensor": {"dtype": "DT_FLOAT", "tensorShape": {"dim": [{"size": "3"}, {"size": "3"}, {"size": "192"}, {"size": "1"}]}}}}}, {"name": "model/aspp1_depthwise/depthwise/BatchToSpaceND/block_shape", "op": "Const", "attr": {"value": {"tensor": {"dtype": "DT_INT32", "tensorShape": {"dim": [{"size": "2"}]}}}, "dtype": {"type": "DT_INT32"}}}, {"name": "model/aspp1_depthwise/depthwise/BatchToSpaceND/crops", "op": "Const", "attr": {"dtype": {"type": "DT_INT32"}, "value": {"tensor": {"dtype": "DT_INT32", "tensorShape": {"dim": [{"size": "2"}, {"size": "2"}]}}}}}, {"name": "model/aspp2_depthwise/depthwise/SpaceToBatchND/block_shape", "op": "Const", "attr": {"value": {"tensor": {"dtype": "DT_INT32", "tensorShape": {"dim": [{"size": "2"}]}}}, "dtype": {"type": "DT_INT32"}}}, {"name": "model/aspp2_depthwise/depthwise/SpaceToBatchND/paddings", "op": "Const", "attr": {"dtype": {"type": "DT_INT32"}, "value": {"tensor": {"dtype": "DT_INT32", "tensorShape": {"dim": [{"size": "2"}, {"size": "2"}]}}}}}, {"name": "model/aspp2_depthwise/depthwise/ReadVariableOp", "op": "Const", "attr": {"value": {"tensor": {"dtype": "DT_FLOAT", "tensorShape": {"dim": [{"size": "3"}, {"size": "3"}, {"size": "192"}, {"size": "1"}]}}}, "dtype": {"type": "DT_FLOAT"}}}, {"name": "model/aspp2_depthwise/depthwise/BatchToSpaceND/block_shape", "op": "Const", "attr": {"dtype": {"type": "DT_INT32"}, "value": {"tensor": {"dtype": "DT_INT32", "tensorShape": {"dim": [{"size": "2"}]}}}}}, {"name": "model/aspp2_depthwise/depthwise/BatchToSpaceND/crops", "op": "Const", "attr": {"value": {"tensor": {"dtype": "DT_INT32", "tensorShape": {"dim": [{"size": "2"}, {"size": "2"}]}}}, "dtype": {"type": "DT_INT32"}}}, {"name": "model/tf.math.reduce_mean/Mean/reduction_indices", "op": "Const", "attr": {"value": {"tensor": {"dtype": "DT_INT32", "tensorShape": {"dim": [{"size": "2"}]}}}, "dtype": {"type": "DT_INT32"}}}, {"name": "model/stack_3_block0_se_1_conv/Conv2D/ReadVariableOp", "op": "Const", "attr": {"value": {"tensor": {"dtype": "DT_FLOAT", "tensorShape": {"dim": [{"size": "1"}, {"size": "1"}, {"size": "192"}, {"size": "12"}]}}}, "dtype": {"type": "DT_FLOAT"}}}, {"name": "model/stack_3_block0_se_1_conv/BiasAdd/ReadVariableOp", "op": "Const", "attr": {"value": {"tensor": {"dtype": "DT_FLOAT", "tensorShape": {"dim": [{"size": "12"}]}}}, "dtype": {"type": "DT_FLOAT"}}}, {"name": "model/stack_3_block0_se_2_conv/Conv2D/ReadVariableOp", "op": "Const", "attr": {"dtype": {"type": "DT_FLOAT"}, "value": {"tensor": {"dtype": "DT_FLOAT", "tensorShape": {"dim": [{"size": "1"}, {"size": "1"}, {"size": "12"}, {"size": "192"}]}}}}}, {"name": "model/stack_3_block0_se_2_conv/BiasAdd/ReadVariableOp", "op": "Const", "attr": {"value": {"tensor": {"dtype": "DT_FLOAT", "tensorShape": {"dim": [{"size": "192"}]}}}, "dtype": {"type": "DT_FLOAT"}}}, {"name": "model/tf.math.reduce_mean_1/Mean/reduction_indices", "op": "Const", "attr": {"value": {"tensor": {"dtype": "DT_INT32", "tensorShape": {"dim": [{"size": "2"}]}}}, "dtype": {"type": "DT_INT32"}}}, {"name": "model/stack_3_block1_se_1_conv/Conv2D/ReadVariableOp", "op": "Const", "attr": {"dtype": {"type": "DT_FLOAT"}, "value": {"tensor": {"dtype": "DT_FLOAT", "tensorShape": {"dim": [{"size": "1"}, {"size": "1"}, {"size": "384"}, {"size": "24"}]}}}}}, {"name": "model/stack_3_block1_se_1_conv/BiasAdd/ReadVariableOp", "op": "Const", "attr": {"dtype": {"type": "DT_FLOAT"}, "value": {"tensor": {"dtype": "DT_FLOAT", "tensorShape": {"dim": [{"size": "24"}]}}}}}, {"name": "model/stack_3_block1_se_2_conv/Conv2D/ReadVariableOp", "op": "Const", "attr": {"value": {"tensor": {"dtype": "DT_FLOAT", "tensorShape": {"dim": [{"size": "1"}, {"size": "1"}, {"size": "24"}, {"size": "384"}]}}}, "dtype": {"type": "DT_FLOAT"}}}, {"name": "model/stack_3_block1_se_2_conv/BiasAdd/ReadVariableOp", "op": "Const", "attr": {"dtype": {"type": "DT_FLOAT"}, "value": {"tensor": {"dtype": "DT_FLOAT", "tensorShape": {"dim": [{"size": "384"}]}}}}}, {"name": "model/tf.math.reduce_mean_2/Mean/reduction_indices", "op": "Const", "attr": {"dtype": {"type": "DT_INT32"}, "value": {"tensor": {"dtype": "DT_INT32", "tensorShape": {"dim": [{"size": "2"}]}}}}}, {"name": "model/stack_3_block2_se_1_conv/Conv2D/ReadVariableOp", "op": "Const", "attr": {"value": {"tensor": {"dtype": "DT_FLOAT", "tensorShape": {"dim": [{"size": "1"}, {"size": "1"}, {"size": "384"}, {"size": "24"}]}}}, "dtype": {"type": "DT_FLOAT"}}}, {"name": "model/stack_3_block2_se_1_conv/BiasAdd/ReadVariableOp", "op": "Const", "attr": {"value": {"tensor": {"dtype": "DT_FLOAT", "tensorShape": {"dim": [{"size": "24"}]}}}, "dtype": {"type": "DT_FLOAT"}}}, {"name": "model/stack_3_block2_se_2_conv/Conv2D/ReadVariableOp", "op": "Const", "attr": {"dtype": {"type": "DT_FLOAT"}, "value": {"tensor": {"dtype": "DT_FLOAT", "tensorShape": {"dim": [{"size": "1"}, {"size": "1"}, {"size": "24"}, {"size": "384"}]}}}}}, {"name": "model/stack_3_block2_se_2_conv/BiasAdd/ReadVariableOp", "op": "Const", "attr": {"dtype": {"type": "DT_FLOAT"}, "value": {"tensor": {"dtype": "DT_FLOAT", "tensorShape": {"dim": [{"size": "384"}]}}}}}, {"name": "model/tf.math.reduce_mean_3/Mean/reduction_indices", "op": "Const", "attr": {"dtype": {"type": "DT_INT32"}, "value": {"tensor": {"dtype": "DT_INT32", "tensorShape": {"dim": [{"size": "2"}]}}}}}, {"name": "model/stack_4_block0_se_1_conv/Conv2D/ReadVariableOp", "op": "Const", "attr": {"dtype": {"type": "DT_FLOAT"}, "value": {"tensor": {"dtype": "DT_FLOAT", "tensorShape": {"dim": [{"size": "1"}, {"size": "1"}, {"size": "576"}, {"size": "24"}]}}}}}, {"name": "model/stack_4_block0_se_1_conv/BiasAdd/ReadVariableOp", "op": "Const", "attr": {"value": {"tensor": {"dtype": "DT_FLOAT", "tensorShape": {"dim": [{"size": "24"}]}}}, "dtype": {"type": "DT_FLOAT"}}}, {"name": "model/stack_4_block0_se_2_conv/Conv2D/ReadVariableOp", "op": "Const", "attr": {"value": {"tensor": {"dtype": "DT_FLOAT", "tensorShape": {"dim": [{"size": "1"}, {"size": "1"}, {"size": "24"}, {"size": "576"}]}}}, "dtype": {"type": "DT_FLOAT"}}}, {"name": "model/stack_4_block0_se_2_conv/BiasAdd/ReadVariableOp", "op": "Const", "attr": {"value": {"tensor": {"dtype": "DT_FLOAT", "tensorShape": {"dim": [{"size": "576"}]}}}, "dtype": {"type": "DT_FLOAT"}}}, {"name": "model/tf.math.reduce_mean_4/Mean/reduction_indices", "op": "Const", "attr": {"dtype": {"type": "DT_INT32"}, "value": {"tensor": {"dtype": "DT_INT32", "tensorShape": {"dim": [{"size": "2"}]}}}}}, {"name": "model/stack_4_block1_se_1_conv/Conv2D/ReadVariableOp", "op": "Const", "attr": {"value": {"tensor": {"dtype": "DT_FLOAT", "tensorShape": {"dim": [{"size": "1"}, {"size": "1"}, {"size": "672"}, {"size": "28"}]}}}, "dtype": {"type": "DT_FLOAT"}}}, {"name": "model/stack_4_block1_se_1_conv/BiasAdd/ReadVariableOp", "op": "Const", "attr": {"value": {"tensor": {"dtype": "DT_FLOAT", "tensorShape": {"dim": [{"size": "28"}]}}}, "dtype": {"type": "DT_FLOAT"}}}, {"name": "model/stack_4_block1_se_2_conv/Conv2D/ReadVariableOp", "op": "Const", "attr": {"dtype": {"type": "DT_FLOAT"}, "value": {"tensor": {"dtype": "DT_FLOAT", "tensorShape": {"dim": [{"size": "1"}, {"size": "1"}, {"size": "28"}, {"size": "672"}]}}}}}, {"name": "model/stack_4_block1_se_2_conv/BiasAdd/ReadVariableOp", "op": "Const", "attr": {"value": {"tensor": {"dtype": "DT_FLOAT", "tensorShape": {"dim": [{"size": "672"}]}}}, "dtype": {"type": "DT_FLOAT"}}}, {"name": "model/tf.math.reduce_mean_5/Mean/reduction_indices", "op": "Const", "attr": {"dtype": {"type": "DT_INT32"}, "value": {"tensor": {"dtype": "DT_INT32", "tensorShape": {"dim": [{"size": "2"}]}}}}}, {"name": "model/stack_4_block2_se_1_conv/Conv2D/ReadVariableOp", "op": "Const", "attr": {"dtype": {"type": "DT_FLOAT"}, "value": {"tensor": {"dtype": "DT_FLOAT", "tensorShape": {"dim": [{"size": "1"}, {"size": "1"}, {"size": "672"}, {"size": "28"}]}}}}}, {"name": "model/stack_4_block2_se_1_conv/BiasAdd/ReadVariableOp", "op": "Const", "attr": {"value": {"tensor": {"dtype": "DT_FLOAT", "tensorShape": {"dim": [{"size": "28"}]}}}, "dtype": {"type": "DT_FLOAT"}}}, {"name": "model/stack_4_block2_se_2_conv/Conv2D/ReadVariableOp", "op": "Const", "attr": {"dtype": {"type": "DT_FLOAT"}, "value": {"tensor": {"dtype": "DT_FLOAT", "tensorShape": {"dim": [{"size": "1"}, {"size": "1"}, {"size": "28"}, {"size": "672"}]}}}}}, {"name": "model/stack_4_block2_se_2_conv/BiasAdd/ReadVariableOp", "op": "Const", "attr": {"dtype": {"type": "DT_FLOAT"}, "value": {"tensor": {"dtype": "DT_FLOAT", "tensorShape": {"dim": [{"size": "672"}]}}}}}, {"name": "model/tf.math.reduce_mean_6/Mean/reduction_indices", "op": "Const", "attr": {"dtype": {"type": "DT_INT32"}, "value": {"tensor": {"dtype": "DT_INT32", "tensorShape": {"dim": [{"size": "2"}]}}}}}, {"name": "model/stack_4_block3_se_1_conv/Conv2D/ReadVariableOp", "op": "Const", "attr": {"value": {"tensor": {"dtype": "DT_FLOAT", "tensorShape": {"dim": [{"size": "1"}, {"size": "1"}, {"size": "672"}, {"size": "28"}]}}}, "dtype": {"type": "DT_FLOAT"}}}, {"name": "model/stack_4_block3_se_1_conv/BiasAdd/ReadVariableOp", "op": "Const", "attr": {"dtype": {"type": "DT_FLOAT"}, "value": {"tensor": {"dtype": "DT_FLOAT", "tensorShape": {"dim": [{"size": "28"}]}}}}}, {"name": "model/stack_4_block3_se_2_conv/Conv2D/ReadVariableOp", "op": "Const", "attr": {"value": {"tensor": {"dtype": "DT_FLOAT", "tensorShape": {"dim": [{"size": "1"}, {"size": "1"}, {"size": "28"}, {"size": "672"}]}}}, "dtype": {"type": "DT_FLOAT"}}}, {"name": "model/stack_4_block3_se_2_conv/BiasAdd/ReadVariableOp", "op": "Const", "attr": {"value": {"tensor": {"dtype": "DT_FLOAT", "tensorShape": {"dim": [{"size": "672"}]}}}, "dtype": {"type": "DT_FLOAT"}}}, {"name": "model/tf.math.reduce_mean_7/Mean/reduction_indices", "op": "Const", "attr": {"value": {"tensor": {"dtype": "DT_INT32", "tensorShape": {"dim": [{"size": "2"}]}}}, "dtype": {"type": "DT_INT32"}}}, {"name": "model/stack_4_block4_se_1_conv/Conv2D/ReadVariableOp", "op": "Const", "attr": {"value": {"tensor": {"dtype": "DT_FLOAT", "tensorShape": {"dim": [{"size": "1"}, {"size": "1"}, {"size": "672"}, {"size": "28"}]}}}, "dtype": {"type": "DT_FLOAT"}}}, {"name": "model/stack_4_block4_se_1_conv/BiasAdd/ReadVariableOp", "op": "Const", "attr": {"value": {"tensor": {"dtype": "DT_FLOAT", "tensorShape": {"dim": [{"size": "28"}]}}}, "dtype": {"type": "DT_FLOAT"}}}, {"name": "model/stack_4_block4_se_2_conv/Conv2D/ReadVariableOp", "op": "Const", "attr": {"value": {"tensor": {"dtype": "DT_FLOAT", "tensorShape": {"dim": [{"size": "1"}, {"size": "1"}, {"size": "28"}, {"size": "672"}]}}}, "dtype": {"type": "DT_FLOAT"}}}, {"name": "model/stack_4_block4_se_2_conv/BiasAdd/ReadVariableOp", "op": "Const", "attr": {"dtype": {"type": "DT_FLOAT"}, "value": {"tensor": {"dtype": "DT_FLOAT", "tensorShape": {"dim": [{"size": "672"}]}}}}}, {"name": "model/tf.math.reduce_mean_8/Mean/reduction_indices", "op": "Const", "attr": {"dtype": {"type": "DT_INT32"}, "value": {"tensor": {"dtype": "DT_INT32", "tensorShape": {"dim": [{"size": "2"}]}}}}}, {"name": "model/stack_5_block0_se_1_conv/Conv2D/ReadVariableOp", "op": "Const", "attr": {"value": {"tensor": {"dtype": "DT_FLOAT", "tensorShape": {"dim": [{"size": "1"}, {"size": "1"}, {"size": "672"}, {"size": "28"}]}}}, "dtype": {"type": "DT_FLOAT"}}}, {"name": "model/stack_5_block0_se_1_conv/BiasAdd/ReadVariableOp", "op": "Const", "attr": {"dtype": {"type": "DT_FLOAT"}, "value": {"tensor": {"dtype": "DT_FLOAT", "tensorShape": {"dim": [{"size": "28"}]}}}}}, {"name": "model/stack_5_block0_se_2_conv/Conv2D/ReadVariableOp", "op": "Const", "attr": {"dtype": {"type": "DT_FLOAT"}, "value": {"tensor": {"dtype": "DT_FLOAT", "tensorShape": {"dim": [{"size": "1"}, {"size": "1"}, {"size": "28"}, {"size": "672"}]}}}}}, {"name": "model/stack_5_block0_se_2_conv/BiasAdd/ReadVariableOp", "op": "Const", "attr": {"value": {"tensor": {"dtype": "DT_FLOAT", "tensorShape": {"dim": [{"size": "672"}]}}}, "dtype": {"type": "DT_FLOAT"}}}, {"name": "model/tf.math.reduce_mean_9/Mean/reduction_indices", "op": "Const", "attr": {"value": {"tensor": {"dtype": "DT_INT32", "tensorShape": {"dim": [{"size": "2"}]}}}, "dtype": {"type": "DT_INT32"}}}, {"name": "model/stack_5_block1_se_1_conv/Conv2D/ReadVariableOp", "op": "Const", "attr": {"value": {"tensor": {"dtype": "DT_FLOAT", "tensorShape": {"dim": [{"size": "1"}, {"size": "1"}, {"size": "1152"}, {"size": "48"}]}}}, "dtype": {"type": "DT_FLOAT"}}}, {"name": "model/stack_5_block1_se_1_conv/BiasAdd/ReadVariableOp", "op": "Const", "attr": {"dtype": {"type": "DT_FLOAT"}, "value": {"tensor": {"dtype": "DT_FLOAT", "tensorShape": {"dim": [{"size": "48"}]}}}}}, {"name": "model/stack_5_block1_se_2_conv/Conv2D/ReadVariableOp", "op": "Const", "attr": {"value": {"tensor": {"dtype": "DT_FLOAT", "tensorShape": {"dim": [{"size": "1"}, {"size": "1"}, {"size": "48"}, {"size": "1152"}]}}}, "dtype": {"type": "DT_FLOAT"}}}, {"name": "model/stack_5_block1_se_2_conv/BiasAdd/ReadVariableOp", "op": "Const", "attr": {"dtype": {"type": "DT_FLOAT"}, "value": {"tensor": {"dtype": "DT_FLOAT", "tensorShape": {"dim": [{"size": "1152"}]}}}}}, {"name": "model/tf.math.reduce_mean_10/Mean/reduction_indices", "op": "Const", "attr": {"dtype": {"type": "DT_INT32"}, "value": {"tensor": {"dtype": "DT_INT32", "tensorShape": {"dim": [{"size": "2"}]}}}}}, {"name": "model/stack_5_block2_se_1_conv/Conv2D/ReadVariableOp", "op": "Const", "attr": {"value": {"tensor": {"dtype": "DT_FLOAT", "tensorShape": {"dim": [{"size": "1"}, {"size": "1"}, {"size": "1152"}, {"size": "48"}]}}}, "dtype": {"type": "DT_FLOAT"}}}, {"name": "model/stack_5_block2_se_1_conv/BiasAdd/ReadVariableOp", "op": "Const", "attr": {"dtype": {"type": "DT_FLOAT"}, "value": {"tensor": {"dtype": "DT_FLOAT", "tensorShape": {"dim": [{"size": "48"}]}}}}}, {"name": "model/stack_5_block2_se_2_conv/Conv2D/ReadVariableOp", "op": "Const", "attr": {"value": {"tensor": {"dtype": "DT_FLOAT", "tensorShape": {"dim": [{"size": "1"}, {"size": "1"}, {"size": "48"}, {"size": "1152"}]}}}, "dtype": {"type": "DT_FLOAT"}}}, {"name": "model/stack_5_block2_se_2_conv/BiasAdd/ReadVariableOp", "op": "Const", "attr": {"value": {"tensor": {"dtype": "DT_FLOAT", "tensorShape": {"dim": [{"size": "1152"}]}}}, "dtype": {"type": "DT_FLOAT"}}}, {"name": "model/tf.math.reduce_mean_11/Mean/reduction_indices", "op": "Const", "attr": {"value": {"tensor": {"dtype": "DT_INT32", "tensorShape": {"dim": [{"size": "2"}]}}}, "dtype": {"type": "DT_INT32"}}}, {"name": "model/stack_5_block3_se_1_conv/Conv2D/ReadVariableOp", "op": "Const", "attr": {"value": {"tensor": {"dtype": "DT_FLOAT", "tensorShape": {"dim": [{"size": "1"}, {"size": "1"}, {"size": "1152"}, {"size": "48"}]}}}, "dtype": {"type": "DT_FLOAT"}}}, {"name": "model/stack_5_block3_se_1_conv/BiasAdd/ReadVariableOp", "op": "Const", "attr": {"value": {"tensor": {"dtype": "DT_FLOAT", "tensorShape": {"dim": [{"size": "48"}]}}}, "dtype": {"type": "DT_FLOAT"}}}, {"name": "model/stack_5_block3_se_2_conv/Conv2D/ReadVariableOp", "op": "Const", "attr": {"value": {"tensor": {"dtype": "DT_FLOAT", "tensorShape": {"dim": [{"size": "1"}, {"size": "1"}, {"size": "48"}, {"size": "1152"}]}}}, "dtype": {"type": "DT_FLOAT"}}}, {"name": "model/stack_5_block3_se_2_conv/BiasAdd/ReadVariableOp", "op": "Const", "attr": {"dtype": {"type": "DT_FLOAT"}, "value": {"tensor": {"dtype": "DT_FLOAT", "tensorShape": {"dim": [{"size": "1152"}]}}}}}, {"name": "model/tf.math.reduce_mean_12/Mean/reduction_indices", "op": "Const", "attr": {"value": {"tensor": {"dtype": "DT_INT32", "tensorShape": {"dim": [{"size": "2"}]}}}, "dtype": {"type": "DT_INT32"}}}, {"name": "model/stack_5_block4_se_1_conv/Conv2D/ReadVariableOp", "op": "Const", "attr": {"dtype": {"type": "DT_FLOAT"}, "value": {"tensor": {"dtype": "DT_FLOAT", "tensorShape": {"dim": [{"size": "1"}, {"size": "1"}, {"size": "1152"}, {"size": "48"}]}}}}}, {"name": "model/stack_5_block4_se_1_conv/BiasAdd/ReadVariableOp", "op": "Const", "attr": {"value": {"tensor": {"dtype": "DT_FLOAT", "tensorShape": {"dim": [{"size": "48"}]}}}, "dtype": {"type": "DT_FLOAT"}}}, {"name": "model/stack_5_block4_se_2_conv/Conv2D/ReadVariableOp", "op": "Const", "attr": {"dtype": {"type": "DT_FLOAT"}, "value": {"tensor": {"dtype": "DT_FLOAT", "tensorShape": {"dim": [{"size": "1"}, {"size": "1"}, {"size": "48"}, {"size": "1152"}]}}}}}, {"name": "model/stack_5_block4_se_2_conv/BiasAdd/ReadVariableOp", "op": "Const", "attr": {"dtype": {"type": "DT_FLOAT"}, "value": {"tensor": {"dtype": "DT_FLOAT", "tensorShape": {"dim": [{"size": "1152"}]}}}}}, {"name": "model/tf.math.reduce_mean_13/Mean/reduction_indices", "op": "Const", "attr": {"dtype": {"type": "DT_INT32"}, "value": {"tensor": {"dtype": "DT_INT32", "tensorShape": {"dim": [{"size": "2"}]}}}}}, {"name": "model/stack_5_block5_se_1_conv/Conv2D/ReadVariableOp", "op": "Const", "attr": {"value": {"tensor": {"dtype": "DT_FLOAT", "tensorShape": {"dim": [{"size": "1"}, {"size": "1"}, {"size": "1152"}, {"size": "48"}]}}}, "dtype": {"type": "DT_FLOAT"}}}, {"name": "model/stack_5_block5_se_1_conv/BiasAdd/ReadVariableOp", "op": "Const", "attr": {"value": {"tensor": {"dtype": "DT_FLOAT", "tensorShape": {"dim": [{"size": "48"}]}}}, "dtype": {"type": "DT_FLOAT"}}}, {"name": "model/stack_5_block5_se_2_conv/Conv2D/ReadVariableOp", "op": "Const", "attr": {"value": {"tensor": {"dtype": "DT_FLOAT", "tensorShape": {"dim": [{"size": "1"}, {"size": "1"}, {"size": "48"}, {"size": "1152"}]}}}, "dtype": {"type": "DT_FLOAT"}}}, {"name": "model/stack_5_block5_se_2_conv/BiasAdd/ReadVariableOp", "op": "Const", "attr": {"value": {"tensor": {"dtype": "DT_FLOAT", "tensorShape": {"dim": [{"size": "1152"}]}}}, "dtype": {"type": "DT_FLOAT"}}}, {"name": "model/tf.math.reduce_mean_14/Mean/reduction_indices", "op": "Const", "attr": {"dtype": {"type": "DT_INT32"}, "value": {"tensor": {"dtype": "DT_INT32", "tensorShape": {"dim": [{"size": "2"}]}}}}}, {"name": "model/stack_5_block6_se_1_conv/Conv2D/ReadVariableOp", "op": "Const", "attr": {"value": {"tensor": {"dtype": "DT_FLOAT", "tensorShape": {"dim": [{"size": "1"}, {"size": "1"}, {"size": "1152"}, {"size": "48"}]}}}, "dtype": {"type": "DT_FLOAT"}}}, {"name": "model/stack_5_block6_se_1_conv/BiasAdd/ReadVariableOp", "op": "Const", "attr": {"value": {"tensor": {"dtype": "DT_FLOAT", "tensorShape": {"dim": [{"size": "48"}]}}}, "dtype": {"type": "DT_FLOAT"}}}, {"name": "model/stack_5_block6_se_2_conv/Conv2D/ReadVariableOp", "op": "Const", "attr": {"value": {"tensor": {"dtype": "DT_FLOAT", "tensorShape": {"dim": [{"size": "1"}, {"size": "1"}, {"size": "48"}, {"size": "1152"}]}}}, "dtype": {"type": "DT_FLOAT"}}}, {"name": "model/stack_5_block6_se_2_conv/BiasAdd/ReadVariableOp", "op": "Const", "attr": {"value": {"tensor": {"dtype": "DT_FLOAT", "tensorShape": {"dim": [{"size": "1152"}]}}}, "dtype": {"type": "DT_FLOAT"}}}, {"name": "model/tf.math.reduce_mean_15/Mean/reduction_indices", "op": "Const", "attr": {"value": {"tensor": {"dtype": "DT_INT32", "tensorShape": {"dim": [{"size": "2"}]}}}, "dtype": {"type": "DT_INT32"}}}, {"name": "model/stack_5_block7_se_1_conv/Conv2D/ReadVariableOp", "op": "Const", "attr": {"dtype": {"type": "DT_FLOAT"}, "value": {"tensor": {"dtype": "DT_FLOAT", "tensorShape": {"dim": [{"size": "1"}, {"size": "1"}, {"size": "1152"}, {"size": "48"}]}}}}}, {"name": "model/stack_5_block7_se_1_conv/BiasAdd/ReadVariableOp", "op": "Const", "attr": {"value": {"tensor": {"dtype": "DT_FLOAT", "tensorShape": {"dim": [{"size": "48"}]}}}, "dtype": {"type": "DT_FLOAT"}}}, {"name": "model/stack_5_block7_se_2_conv/Conv2D/ReadVariableOp", "op": "Const", "attr": {"dtype": {"type": "DT_FLOAT"}, "value": {"tensor": {"dtype": "DT_FLOAT", "tensorShape": {"dim": [{"size": "1"}, {"size": "1"}, {"size": "48"}, {"size": "1152"}]}}}}}, {"name": "model/stack_5_block7_se_2_conv/BiasAdd/ReadVariableOp", "op": "Const", "attr": {"dtype": {"type": "DT_FLOAT"}, "value": {"tensor": {"dtype": "DT_FLOAT", "tensorShape": {"dim": [{"size": "1152"}]}}}}}, {"name": "model/aspp3_depthwise/depthwise/SpaceToBatchND/block_shape", "op": "Const", "attr": {"dtype": {"type": "DT_INT32"}, "value": {"tensor": {"dtype": "DT_INT32", "tensorShape": {"dim": [{"size": "2"}]}}}}}, {"name": "model/aspp3_depthwise/depthwise/SpaceToBatchND/paddings", "op": "Const", "attr": {"dtype": {"type": "DT_INT32"}, "value": {"tensor": {"dtype": "DT_INT32", "tensorShape": {"dim": [{"size": "2"}, {"size": "2"}]}}}}}, {"name": "model/aspp3_depthwise/depthwise/ReadVariableOp", "op": "Const", "attr": {"dtype": {"type": "DT_FLOAT"}, "value": {"tensor": {"dtype": "DT_FLOAT", "tensorShape": {"dim": [{"size": "3"}, {"size": "3"}, {"size": "192"}, {"size": "1"}]}}}}}, {"name": "model/aspp3_depthwise/depthwise/BatchToSpaceND/block_shape", "op": "Const", "attr": {"dtype": {"type": "DT_INT32"}, "value": {"tensor": {"dtype": "DT_INT32", "tensorShape": {"dim": [{"size": "2"}]}}}}}, {"name": "model/aspp3_depthwise/depthwise/BatchToSpaceND/crops", "op": "Const", "attr": {"value": {"tensor": {"dtype": "DT_INT32", "tensorShape": {"dim": [{"size": "2"}, {"size": "2"}]}}}, "dtype": {"type": "DT_INT32"}}}, {"name": "model/concatenate/concat/axis", "op": "Const", "attr": {"value": {"tensor": {"dtype": "DT_INT32", "tensorShape": {}}}, "dtype": {"type": "DT_INT32"}}}, {"name": "model/resizing_1/resize/size", "op": "Const", "attr": {"dtype": {"type": "DT_INT32"}, "value": {"tensor": {"dtype": "DT_INT32", "tensorShape": {"dim": [{"size": "2"}]}}}}}, {"name": "model/concatenate_1/concat/axis", "op": "Const", "attr": {"value": {"tensor": {"dtype": "DT_INT32", "tensorShape": {}}}, "dtype": {"type": "DT_INT32"}}}, {"name": "model/conv2d/Conv2D/ReadVariableOp", "op": "Const", "attr": {"value": {"tensor": {"dtype": "DT_FLOAT", "tensorShape": {"dim": [{"size": "1"}, {"size": "1"}, {"size": "128"}, {"size": "2"}]}}}, "dtype": {"type": "DT_FLOAT"}}}, {"name": "model/conv2d/BiasAdd/ReadVariableOp", "op": "Const", "attr": {"dtype": {"type": "DT_FLOAT"}, "value": {"tensor": {"dtype": "DT_FLOAT", "tensorShape": {"dim": [{"size": "2"}]}}}}}, {"name": "model/output/mul", "op": "Const", "attr": {"value": {"tensor": {"dtype": "DT_INT32", "tensorShape": {"dim": [{"size": "2"}]}}}, "dtype": {"type": "DT_INT32"}}}, {"name": "model/tf.math.argmax/ArgMax/dimension", "op": "Const", "attr": {"value": {"tensor": {"dtype": "DT_INT32", "tensorShape": {}}}, "dtype": {"type": "DT_INT32"}}}, {"name": "x", "op": "Placeholder", "attr": {"dtype": {"type": "DT_FLOAT"}, "shape": {"shape": {"dim": [{"size": "-1"}, {"size": "640"}, {"size": "360"}, {"size": "3"}]}}}}, {"name": "model/stem_conv/Conv2D_weights", "op": "Const", "attr": {"dtype": {"type": "DT_FLOAT"}, "value": {"tensor": {"dtype": "DT_FLOAT", "tensorShape": {"dim": [{"size": "3"}, {"size": "3"}, {"size": "3"}, {"size": "32"}]}}}}}, {"name": "model/image_pooling/Conv2D_weights", "op": "Const", "attr": {"dtype": {"type": "DT_FLOAT"}, "value": {"tensor": {"dtype": "DT_FLOAT", "tensorShape": {"dim": [{"size": "1"}, {"size": "1"}, {"size": "192"}, {"size": "128"}]}}}}}, {"name": "model/stem_conv/Conv2D_bn_offset", "op": "Const", "attr": {"dtype": {"type": "DT_FLOAT"}, "value": {"tensor": {"dtype": "DT_FLOAT", "tensorShape": {"dim": [{"size": "32"}]}}}}}, {"name": "model/stack_0_block0_fu_conv/Conv2D_weights", "op": "Const", "attr": {"dtype": {"type": "DT_FLOAT"}, "value": {"tensor": {"dtype": "DT_FLOAT", "tensorShape": {"dim": [{"size": "3"}, {"size": "3"}, {"size": "32"}, {"size": "16"}]}}}}}, {"name": "model/aspp2_depthwise_BN/FusedBatchNormV3/Offset", "op": "Const", "attr": {"value": {"tensor": {"dtype": "DT_FLOAT", "tensorShape": {"dim": [{"size": "192"}]}}}, "dtype": {"type": "DT_FLOAT"}}}, {"name": "model/stack_0_block0_fu_conv/Conv2D_bn_offset", "op": "Const", "attr": {"dtype": {"type": "DT_FLOAT"}, "value": {"tensor": {"dtype": "DT_FLOAT", "tensorShape": {"dim": [{"size": "16"}]}}}}}, {"name": "model/stack_1_block0_sortcut_conv/Conv2D_weights", "op": "Const", "attr": {"dtype": {"type": "DT_FLOAT"}, "value": {"tensor": {"dtype": "DT_FLOAT", "tensorShape": {"dim": [{"size": "3"}, {"size": "3"}, {"size": "16"}, {"size": "64"}]}}}}}, {"name": "model/image_pooling/Conv2D_bn_offset", "op": "Const", "attr": {"dtype": {"type": "DT_FLOAT"}, "value": {"tensor": {"dtype": "DT_FLOAT", "tensorShape": {"dim": [{"size": "128"}]}}}}}, {"name": "model/stack_1_block0_sortcut_conv/Conv2D_bn_offset", "op": "Const", "attr": {"value": {"tensor": {"dtype": "DT_FLOAT", "tensorShape": {"dim": [{"size": "64"}]}}}, "dtype": {"type": "DT_FLOAT"}}}, {"name": "model/stack_1_block0_MB_pw_conv/Conv2D_weights", "op": "Const", "attr": {"dtype": {"type": "DT_FLOAT"}, "value": {"tensor": {"dtype": "DT_FLOAT", "tensorShape": {"dim": [{"size": "1"}, {"size": "1"}, {"size": "64"}, {"size": "32"}]}}}}}, {"name": "model/stack_1_block0_MB_pw_conv/Conv2D_bn_offset", "op": "Const", "attr": {"dtype": {"type": "DT_FLOAT"}, "value": {"tensor": {"dtype": "DT_FLOAT", "tensorShape": {"dim": [{"size": "32"}]}}}}}, {"name": "model/stack_1_block1_sortcut_conv/Conv2D_weights", "op": "Const", "attr": {"dtype": {"type": "DT_FLOAT"}, "value": {"tensor": {"dtype": "DT_FLOAT", "tensorShape": {"dim": [{"size": "3"}, {"size": "3"}, {"size": "32"}, {"size": "128"}]}}}}}, {"name": "model/stack_1_block1_sortcut_conv/Conv2D_bn_offset", "op": "Const", "attr": {"value": {"tensor": {"dtype": "DT_FLOAT", "tensorShape": {"dim": [{"size": "128"}]}}}, "dtype": {"type": "DT_FLOAT"}}}, {"name": "model/stack_1_block1_MB_pw_conv/Conv2D_weights", "op": "Const", "attr": {"dtype": {"type": "DT_FLOAT"}, "value": {"tensor": {"dtype": "DT_FLOAT", "tensorShape": {"dim": [{"size": "1"}, {"size": "1"}, {"size": "128"}, {"size": "32"}]}}}}}, {"name": "model/stack_1_block1_MB_pw_conv/Conv2D_bn_offset", "op": "Const", "attr": {"dtype": {"type": "DT_FLOAT"}, "value": {"tensor": {"dtype": "DT_FLOAT", "tensorShape": {"dim": [{"size": "32"}]}}}}}, {"name": "model/stack_2_block0_sortcut_conv/Conv2D_weights", "op": "Const", "attr": {"value": {"tensor": {"dtype": "DT_FLOAT", "tensorShape": {"dim": [{"size": "3"}, {"size": "3"}, {"size": "32"}, {"size": "128"}]}}}, "dtype": {"type": "DT_FLOAT"}}}, {"name": "model/stack_2_block0_sortcut_conv/Conv2D_bn_offset", "op": "Const", "attr": {"dtype": {"type": "DT_FLOAT"}, "value": {"tensor": {"dtype": "DT_FLOAT", "tensorShape": {"dim": [{"size": "128"}]}}}}}, {"name": "model/stack_2_block0_MB_pw_conv/Conv2D_weights", "op": "Const", "attr": {"value": {"tensor": {"dtype": "DT_FLOAT", "tensorShape": {"dim": [{"size": "1"}, {"size": "1"}, {"size": "128"}, {"size": "48"}]}}}, "dtype": {"type": "DT_FLOAT"}}}, {"name": "model/aspp1_pointwise/Conv2D_weights", "op": "Const", "attr": {"dtype": {"type": "DT_FLOAT"}, "value": {"tensor": {"dtype": "DT_FLOAT", "tensorShape": {"dim": [{"size": "1"}, {"size": "1"}, {"size": "192"}, {"size": "128"}]}}}}}, {"name": "model/stack_2_block0_MB_pw_conv/Conv2D_bn_offset", "op": "Const", "attr": {"dtype": {"type": "DT_FLOAT"}, "value": {"tensor": {"dtype": "DT_FLOAT", "tensorShape": {"dim": [{"size": "48"}]}}}}}, {"name": "model/stack_2_block1_sortcut_conv/Conv2D_weights", "op": "Const", "attr": {"value": {"tensor": {"dtype": "DT_FLOAT", "tensorShape": {"dim": [{"size": "3"}, {"size": "3"}, {"size": "48"}, {"size": "192"}]}}}, "dtype": {"type": "DT_FLOAT"}}}, {"name": "model/stack_2_block1_sortcut_conv/Conv2D_bn_offset", "op": "Const", "attr": {"value": {"tensor": {"dtype": "DT_FLOAT", "tensorShape": {"dim": [{"size": "192"}]}}}, "dtype": {"type": "DT_FLOAT"}}}, {"name": "model/stack_2_block1_MB_pw_conv/Conv2D_weights", "op": "Const", "attr": {"dtype": {"type": "DT_FLOAT"}, "value": {"tensor": {"dtype": "DT_FLOAT", "tensorShape": {"dim": [{"size": "1"}, {"size": "1"}, {"size": "192"}, {"size": "48"}]}}}}}, {"name": "model/aspp1_pointwise/Conv2D_bn_offset", "op": "Const", "attr": {"dtype": {"type": "DT_FLOAT"}, "value": {"tensor": {"dtype": "DT_FLOAT", "tensorShape": {"dim": [{"size": "128"}]}}}}}, {"name": "model/stack_2_block1_MB_pw_conv/Conv2D_bn_offset", "op": "Const", "attr": {"value": {"tensor": {"dtype": "DT_FLOAT", "tensorShape": {"dim": [{"size": "48"}]}}}, "dtype": {"type": "DT_FLOAT"}}}, {"name": "model/stack_3_block0_sortcut_conv/Conv2D_weights", "op": "Const", "attr": {"value": {"tensor": {"dtype": "DT_FLOAT", "tensorShape": {"dim": [{"size": "1"}, {"size": "1"}, {"size": "48"}, {"size": "192"}]}}}, "dtype": {"type": "DT_FLOAT"}}}, {"name": "model/stack_3_block0_sortcut_conv/Conv2D_bn_offset", "op": "Const", "attr": {"value": {"tensor": {"dtype": "DT_FLOAT", "tensorShape": {"dim": [{"size": "192"}]}}}, "dtype": {"type": "DT_FLOAT"}}}, {"name": "model/feature_projection0/Conv2D_weights", "op": "Const", "attr": {"dtype": {"type": "DT_FLOAT"}, "value": {"tensor": {"dtype": "DT_FLOAT", "tensorShape": {"dim": [{"size": "1"}, {"size": "1"}, {"size": "48"}, {"size": "48"}]}}}}}, {"name": "model/feature_projection0/Conv2D_bn_offset", "op": "Const", "attr": {"dtype": {"type": "DT_FLOAT"}, "value": {"tensor": {"dtype": "DT_FLOAT", "tensorShape": {"dim": [{"size": "48"}]}}}}}, {"name": "model/stack_3_block0_MB_dw_/depthwise_weights", "op": "Const", "attr": {"dtype": {"type": "DT_FLOAT"}, "value": {"tensor": {"dtype": "DT_FLOAT", "tensorShape": {"dim": [{"size": "3"}, {"size": "3"}, {"size": "192"}, {"size": "1"}]}}}}}, {"name": "model/stack_3_block0_MB_dw_/depthwise_bn_offset", "op": "Const", "attr": {"dtype": {"type": "DT_FLOAT"}, "value": {"tensor": {"dtype": "DT_FLOAT", "tensorShape": {"dim": [{"size": "192"}]}}}}}, {"name": "model/aspp2_pointwise/Conv2D_weights", "op": "Const", "attr": {"dtype": {"type": "DT_FLOAT"}, "value": {"tensor": {"dtype": "DT_FLOAT", "tensorShape": {"dim": [{"size": "1"}, {"size": "1"}, {"size": "192"}, {"size": "128"}]}}}}}, {"name": "model/stack_3_block0_MB_pw_conv/Conv2D_weights", "op": "Const", "attr": {"value": {"tensor": {"dtype": "DT_FLOAT", "tensorShape": {"dim": [{"size": "1"}, {"size": "1"}, {"size": "192"}, {"size": "96"}]}}}, "dtype": {"type": "DT_FLOAT"}}}, {"name": "model/stack_3_block0_MB_pw_conv/Conv2D_bn_offset", "op": "Const", "attr": {"value": {"tensor": {"dtype": "DT_FLOAT", "tensorShape": {"dim": [{"size": "96"}]}}}, "dtype": {"type": "DT_FLOAT"}}}, {"name": "model/stack_3_block1_sortcut_conv/Conv2D_weights", "op": "Const", "attr": {"value": {"tensor": {"dtype": "DT_FLOAT", "tensorShape": {"dim": [{"size": "1"}, {"size": "1"}, {"size": "96"}, {"size": "384"}]}}}, "dtype": {"type": "DT_FLOAT"}}}, {"name": "model/aspp2_pointwise/Conv2D_bn_offset", "op": "Const", "attr": {"value": {"tensor": {"dtype": "DT_FLOAT", "tensorShape": {"dim": [{"size": "128"}]}}}, "dtype": {"type": "DT_FLOAT"}}}, {"name": "model/stack_3_block1_sortcut_conv/Conv2D_bn_offset", "op": "Const", "attr": {"value": {"tensor": {"dtype": "DT_FLOAT", "tensorShape": {"dim": [{"size": "384"}]}}}, "dtype": {"type": "DT_FLOAT"}}}, {"name": "model/stack_3_block1_MB_dw_/depthwise_weights", "op": "Const", "attr": {"dtype": {"type": "DT_FLOAT"}, "value": {"tensor": {"dtype": "DT_FLOAT", "tensorShape": {"dim": [{"size": "3"}, {"size": "3"}, {"size": "384"}, {"size": "1"}]}}}}}, {"name": "model/stack_3_block1_MB_dw_/depthwise_bn_offset", "op": "Const", "attr": {"dtype": {"type": "DT_FLOAT"}, "value": {"tensor": {"dtype": "DT_FLOAT", "tensorShape": {"dim": [{"size": "384"}]}}}}}, {"name": "model/stack_3_block1_MB_pw_conv/Conv2D_weights", "op": "Const", "attr": {"value": {"tensor": {"dtype": "DT_FLOAT", "tensorShape": {"dim": [{"size": "1"}, {"size": "1"}, {"size": "384"}, {"size": "96"}]}}}, "dtype": {"type": "DT_FLOAT"}}}, {"name": "model/stack_3_block1_MB_pw_conv/Conv2D_bn_offset", "op": "Const", "attr": {"value": {"tensor": {"dtype": "DT_FLOAT", "tensorShape": {"dim": [{"size": "96"}]}}}, "dtype": {"type": "DT_FLOAT"}}}, {"name": "model/stack_3_block2_sortcut_conv/Conv2D_weights", "op": "Const", "attr": {"dtype": {"type": "DT_FLOAT"}, "value": {"tensor": {"dtype": "DT_FLOAT", "tensorShape": {"dim": [{"size": "1"}, {"size": "1"}, {"size": "96"}, {"size": "384"}]}}}}}, {"name": "model/aspp3_pointwise/Conv2D_weights", "op": "Const", "attr": {"value": {"tensor": {"dtype": "DT_FLOAT", "tensorShape": {"dim": [{"size": "1"}, {"size": "1"}, {"size": "192"}, {"size": "128"}]}}}, "dtype": {"type": "DT_FLOAT"}}}, {"name": "model/stack_3_block2_sortcut_conv/Conv2D_bn_offset", "op": "Const", "attr": {"value": {"tensor": {"dtype": "DT_FLOAT", "tensorShape": {"dim": [{"size": "384"}]}}}, "dtype": {"type": "DT_FLOAT"}}}, {"name": "model/stack_3_block2_MB_dw_/depthwise_weights", "op": "Const", "attr": {"value": {"tensor": {"dtype": "DT_FLOAT", "tensorShape": {"dim": [{"size": "3"}, {"size": "3"}, {"size": "384"}, {"size": "1"}]}}}, "dtype": {"type": "DT_FLOAT"}}}, {"name": "model/stack_3_block2_MB_dw_/depthwise_bn_offset", "op": "Const", "attr": {"dtype": {"type": "DT_FLOAT"}, "value": {"tensor": {"dtype": "DT_FLOAT", "tensorShape": {"dim": [{"size": "384"}]}}}}}, {"name": "model/aspp3_pointwise/Conv2D_bn_offset", "op": "Const", "attr": {"dtype": {"type": "DT_FLOAT"}, "value": {"tensor": {"dtype": "DT_FLOAT", "tensorShape": {"dim": [{"size": "128"}]}}}}}, {"name": "model/stack_3_block2_MB_pw_conv/Conv2D_weights", "op": "Const", "attr": {"dtype": {"type": "DT_FLOAT"}, "value": {"tensor": {"dtype": "DT_FLOAT", "tensorShape": {"dim": [{"size": "1"}, {"size": "1"}, {"size": "384"}, {"size": "96"}]}}}}}, {"name": "model/stack_3_block2_MB_pw_conv/Conv2D_bn_offset", "op": "Const", "attr": {"dtype": {"type": "DT_FLOAT"}, "value": {"tensor": {"dtype": "DT_FLOAT", "tensorShape": {"dim": [{"size": "96"}]}}}}}, {"name": "model/stack_4_block0_sortcut_conv/Conv2D_weights", "op": "Const", "attr": {"value": {"tensor": {"dtype": "DT_FLOAT", "tensorShape": {"dim": [{"size": "1"}, {"size": "1"}, {"size": "96"}, {"size": "576"}]}}}, "dtype": {"type": "DT_FLOAT"}}}, {"name": "model/stack_4_block0_sortcut_conv/Conv2D_bn_offset", "op": "Const", "attr": {"dtype": {"type": "DT_FLOAT"}, "value": {"tensor": {"dtype": "DT_FLOAT", "tensorShape": {"dim": [{"size": "576"}]}}}}}, {"name": "model/stack_4_block0_MB_dw_/depthwise_weights", "op": "Const", "attr": {"dtype": {"type": "DT_FLOAT"}, "value": {"tensor": {"dtype": "DT_FLOAT", "tensorShape": {"dim": [{"size": "3"}, {"size": "3"}, {"size": "576"}, {"size": "1"}]}}}}}, {"name": "model/stack_4_block0_MB_dw_/depthwise_bn_offset", "op": "Const", "attr": {"dtype": {"type": "DT_FLOAT"}, "value": {"tensor": {"dtype": "DT_FLOAT", "tensorShape": {"dim": [{"size": "576"}]}}}}}, {"name": "model/stack_4_block0_MB_pw_conv/Conv2D_weights", "op": "Const", "attr": {"dtype": {"type": "DT_FLOAT"}, "value": {"tensor": {"dtype": "DT_FLOAT", "tensorShape": {"dim": [{"size": "1"}, {"size": "1"}, {"size": "576"}, {"size": "112"}]}}}}}, {"name": "model/concat_projection/Conv2D_weights", "op": "Const", "attr": {"value": {"tensor": {"dtype": "DT_FLOAT", "tensorShape": {"dim": [{"size": "1"}, {"size": "1"}, {"size": "640"}, {"size": "128"}]}}}, "dtype": {"type": "DT_FLOAT"}}}, {"name": "model/stack_4_block0_MB_pw_conv/Conv2D_bn_offset", "op": "Const", "attr": {"dtype": {"type": "DT_FLOAT"}, "value": {"tensor": {"dtype": "DT_FLOAT", "tensorShape": {"dim": [{"size": "112"}]}}}}}, {"name": "model/stack_4_block1_sortcut_conv/Conv2D_weights", "op": "Const", "attr": {"value": {"tensor": {"dtype": "DT_FLOAT", "tensorShape": {"dim": [{"size": "1"}, {"size": "1"}, {"size": "112"}, {"size": "672"}]}}}, "dtype": {"type": "DT_FLOAT"}}}, {"name": "model/aspp1_depthwise_BN/FusedBatchNormV3/Scaled", "op": "Const", "attr": {"value": {"tensor": {"dtype": "DT_FLOAT", "tensorShape": {"dim": [{"size": "192"}]}}}, "dtype": {"type": "DT_FLOAT"}}}, {"name": "model/stack_4_block1_sortcut_conv/Conv2D_bn_offset", "op": "Const", "attr": {"dtype": {"type": "DT_FLOAT"}, "value": {"tensor": {"dtype": "DT_FLOAT", "tensorShape": {"dim": [{"size": "672"}]}}}}}, {"name": "model/stack_4_block1_MB_dw_/depthwise_weights", "op": "Const", "attr": {"value": {"tensor": {"dtype": "DT_FLOAT", "tensorShape": {"dim": [{"size": "3"}, {"size": "3"}, {"size": "672"}, {"size": "1"}]}}}, "dtype": {"type": "DT_FLOAT"}}}, {"name": "model/stack_4_block1_MB_dw_/depthwise_bn_offset", "op": "Const", "attr": {"dtype": {"type": "DT_FLOAT"}, "value": {"tensor": {"dtype": "DT_FLOAT", "tensorShape": {"dim": [{"size": "672"}]}}}}}, {"name": "model/concat_projection/Conv2D_bn_offset", "op": "Const", "attr": {"dtype": {"type": "DT_FLOAT"}, "value": {"tensor": {"dtype": "DT_FLOAT", "tensorShape": {"dim": [{"size": "128"}]}}}}}, {"name": "model/stack_4_block1_MB_pw_conv/Conv2D_weights", "op": "Const", "attr": {"value": {"tensor": {"dtype": "DT_FLOAT", "tensorShape": {"dim": [{"size": "1"}, {"size": "1"}, {"size": "672"}, {"size": "112"}]}}}, "dtype": {"type": "DT_FLOAT"}}}, {"name": "model/stack_4_block1_MB_pw_conv/Conv2D_bn_offset", "op": "Const", "attr": {"value": {"tensor": {"dtype": "DT_FLOAT", "tensorShape": {"dim": [{"size": "112"}]}}}, "dtype": {"type": "DT_FLOAT"}}}, {"name": "model/stack_4_block2_sortcut_conv/Conv2D_weights", "op": "Const", "attr": {"dtype": {"type": "DT_FLOAT"}, "value": {"tensor": {"dtype": "DT_FLOAT", "tensorShape": {"dim": [{"size": "1"}, {"size": "1"}, {"size": "112"}, {"size": "672"}]}}}}}, {"name": "model/stack_4_block2_sortcut_conv/Conv2D_bn_offset", "op": "Const", "attr": {"dtype": {"type": "DT_FLOAT"}, "value": {"tensor": {"dtype": "DT_FLOAT", "tensorShape": {"dim": [{"size": "672"}]}}}}}, {"name": "model/stack_4_block2_MB_dw_/depthwise_weights", "op": "Const", "attr": {"value": {"tensor": {"dtype": "DT_FLOAT", "tensorShape": {"dim": [{"size": "3"}, {"size": "3"}, {"size": "672"}, {"size": "1"}]}}}, "dtype": {"type": "DT_FLOAT"}}}, {"name": "model/stack_4_block2_MB_dw_/depthwise_bn_offset", "op": "Const", "attr": {"value": {"tensor": {"dtype": "DT_FLOAT", "tensorShape": {"dim": [{"size": "672"}]}}}, "dtype": {"type": "DT_FLOAT"}}}, {"name": "model/stack_4_block2_MB_pw_conv/Conv2D_weights", "op": "Const", "attr": {"value": {"tensor": {"dtype": "DT_FLOAT", "tensorShape": {"dim": [{"size": "1"}, {"size": "1"}, {"size": "672"}, {"size": "112"}]}}}, "dtype": {"type": "DT_FLOAT"}}}, {"name": "model/decoder_conv0_depthwise/depthwise_weights", "op": "Const", "attr": {"dtype": {"type": "DT_FLOAT"}, "value": {"tensor": {"dtype": "DT_FLOAT", "tensorShape": {"dim": [{"size": "3"}, {"size": "3"}, {"size": "176"}, {"size": "1"}]}}}}}, {"name": "model/stack_4_block2_MB_pw_conv/Conv2D_bn_offset", "op": "Const", "attr": {"value": {"tensor": {"dtype": "DT_FLOAT", "tensorShape": {"dim": [{"size": "112"}]}}}, "dtype": {"type": "DT_FLOAT"}}}, {"name": "model/stack_4_block3_sortcut_conv/Conv2D_weights", "op": "Const", "attr": {"dtype": {"type": "DT_FLOAT"}, "value": {"tensor": {"dtype": "DT_FLOAT", "tensorShape": {"dim": [{"size": "1"}, {"size": "1"}, {"size": "112"}, {"size": "672"}]}}}}}, {"name": "model/stack_4_block3_sortcut_conv/Conv2D_bn_offset", "op": "Const", "attr": {"value": {"tensor": {"dtype": "DT_FLOAT", "tensorShape": {"dim": [{"size": "672"}]}}}, "dtype": {"type": "DT_FLOAT"}}}, {"name": "model/stack_4_block3_MB_dw_/depthwise_weights", "op": "Const", "attr": {"dtype": {"type": "DT_FLOAT"}, "value": {"tensor": {"dtype": "DT_FLOAT", "tensorShape": {"dim": [{"size": "3"}, {"size": "3"}, {"size": "672"}, {"size": "1"}]}}}}}, {"name": "model/stack_4_block3_MB_dw_/depthwise_bn_offset", "op": "Const", "attr": {"dtype": {"type": "DT_FLOAT"}, "value": {"tensor": {"dtype": "DT_FLOAT", "tensorShape": {"dim": [{"size": "672"}]}}}}}, {"name": "model/decoder_conv0_depthwise/depthwise_bn_offset", "op": "Const", "attr": {"value": {"tensor": {"dtype": "DT_FLOAT", "tensorShape": {"dim": [{"size": "176"}]}}}, "dtype": {"type": "DT_FLOAT"}}}, {"name": "model/stack_4_block3_MB_pw_conv/Conv2D_weights", "op": "Const", "attr": {"dtype": {"type": "DT_FLOAT"}, "value": {"tensor": {"dtype": "DT_FLOAT", "tensorShape": {"dim": [{"size": "1"}, {"size": "1"}, {"size": "672"}, {"size": "112"}]}}}}}, {"name": "model/stack_4_block3_MB_pw_conv/Conv2D_bn_offset", "op": "Const", "attr": {"dtype": {"type": "DT_FLOAT"}, "value": {"tensor": {"dtype": "DT_FLOAT", "tensorShape": {"dim": [{"size": "112"}]}}}}}, {"name": "model/stack_4_block4_sortcut_conv/Conv2D_weights", "op": "Const", "attr": {"value": {"tensor": {"dtype": "DT_FLOAT", "tensorShape": {"dim": [{"size": "1"}, {"size": "1"}, {"size": "112"}, {"size": "672"}]}}}, "dtype": {"type": "DT_FLOAT"}}}, {"name": "model/stack_4_block4_sortcut_conv/Conv2D_bn_offset", "op": "Const", "attr": {"dtype": {"type": "DT_FLOAT"}, "value": {"tensor": {"dtype": "DT_FLOAT", "tensorShape": {"dim": [{"size": "672"}]}}}}}, {"name": "model/stack_4_block4_MB_dw_/depthwise_weights", "op": "Const", "attr": {"dtype": {"type": "DT_FLOAT"}, "value": {"tensor": {"dtype": "DT_FLOAT", "tensorShape": {"dim": [{"size": "3"}, {"size": "3"}, {"size": "672"}, {"size": "1"}]}}}}}, {"name": "model/stack_4_block4_MB_dw_/depthwise_bn_offset", "op": "Const", "attr": {"value": {"tensor": {"dtype": "DT_FLOAT", "tensorShape": {"dim": [{"size": "672"}]}}}, "dtype": {"type": "DT_FLOAT"}}}, {"name": "model/decoder_conv0_pointwise/Conv2D_weights", "op": "Const", "attr": {"dtype": {"type": "DT_FLOAT"}, "value": {"tensor": {"dtype": "DT_FLOAT", "tensorShape": {"dim": [{"size": "1"}, {"size": "1"}, {"size": "176"}, {"size": "128"}]}}}}}, {"name": "model/stack_4_block4_MB_pw_conv/Conv2D_weights", "op": "Const", "attr": {"value": {"tensor": {"dtype": "DT_FLOAT", "tensorShape": {"dim": [{"size": "1"}, {"size": "1"}, {"size": "672"}, {"size": "112"}]}}}, "dtype": {"type": "DT_FLOAT"}}}, {"name": "model/decoder_conv0_pointwise/Conv2D_bn_offset", "op": "Const", "attr": {"dtype": {"type": "DT_FLOAT"}, "value": {"tensor": {"dtype": "DT_FLOAT", "tensorShape": {"dim": [{"size": "128"}]}}}}}, {"name": "model/stack_4_block4_MB_pw_conv/Conv2D_bn_offset", "op": "Const", "attr": {"dtype": {"type": "DT_FLOAT"}, "value": {"tensor": {"dtype": "DT_FLOAT", "tensorShape": {"dim": [{"size": "112"}]}}}}}, {"name": "model/stack_5_block0_sortcut_conv/Conv2D_weights", "op": "Const", "attr": {"value": {"tensor": {"dtype": "DT_FLOAT", "tensorShape": {"dim": [{"size": "1"}, {"size": "1"}, {"size": "112"}, {"size": "672"}]}}}, "dtype": {"type": "DT_FLOAT"}}}, {"name": "model/stack_5_block0_sortcut_conv/Conv2D_bn_offset", "op": "Const", "attr": {"dtype": {"type": "DT_FLOAT"}, "value": {"tensor": {"dtype": "DT_FLOAT", "tensorShape": {"dim": [{"size": "672"}]}}}}}, {"name": "model/stack_5_block0_MB_dw_/depthwise_weights", "op": "Const", "attr": {"dtype": {"type": "DT_FLOAT"}, "value": {"tensor": {"dtype": "DT_FLOAT", "tensorShape": {"dim": [{"size": "3"}, {"size": "3"}, {"size": "672"}, {"size": "1"}]}}}}}, {"name": "model/stack_5_block0_MB_dw_/depthwise_bn_offset", "op": "Const", "attr": {"dtype": {"type": "DT_FLOAT"}, "value": {"tensor": {"dtype": "DT_FLOAT", "tensorShape": {"dim": [{"size": "672"}]}}}}}, {"name": "model/stack_5_block0_MB_pw_conv/Conv2D_weights", "op": "Const", "attr": {"dtype": {"type": "DT_FLOAT"}, "value": {"tensor": {"dtype": "DT_FLOAT", "tensorShape": {"dim": [{"size": "1"}, {"size": "1"}, {"size": "672"}, {"size": "192"}]}}}}}, {"name": "model/decoder_conv1_depthwise/depthwise_weights", "op": "Const", "attr": {"value": {"tensor": {"dtype": "DT_FLOAT", "tensorShape": {"dim": [{"size": "3"}, {"size": "3"}, {"size": "128"}, {"size": "1"}]}}}, "dtype": {"type": "DT_FLOAT"}}}, {"name": "model/stack_5_block0_MB_pw_conv/Conv2D_bn_offset", "op": "Const", "attr": {"dtype": {"type": "DT_FLOAT"}, "value": {"tensor": {"dtype": "DT_FLOAT", "tensorShape": {"dim": [{"size": "192"}]}}}}}, {"name": "model/stack_5_block1_sortcut_conv/Conv2D_weights", "op": "Const", "attr": {"value": {"tensor": {"dtype": "DT_FLOAT", "tensorShape": {"dim": [{"size": "1"}, {"size": "1"}, {"size": "192"}, {"size": "1152"}]}}}, "dtype": {"type": "DT_FLOAT"}}}, {"name": "model/stack_5_block1_sortcut_conv/Conv2D_bn_offset", "op": "Const", "attr": {"value": {"tensor": {"dtype": "DT_FLOAT", "tensorShape": {"dim": [{"size": "1152"}]}}}, "dtype": {"type": "DT_FLOAT"}}}, {"name": "model/stack_5_block1_MB_dw_/depthwise_weights", "op": "Const", "attr": {"value": {"tensor": {"dtype": "DT_FLOAT", "tensorShape": {"dim": [{"size": "3"}, {"size": "3"}, {"size": "1152"}, {"size": "1"}]}}}, "dtype": {"type": "DT_FLOAT"}}}, {"name": "model/stack_5_block1_MB_dw_/depthwise_bn_offset", "op": "Const", "attr": {"dtype": {"type": "DT_FLOAT"}, "value": {"tensor": {"dtype": "DT_FLOAT", "tensorShape": {"dim": [{"size": "1152"}]}}}}}, {"name": "model/decoder_conv1_depthwise/depthwise_bn_offset", "op": "Const", "attr": {"dtype": {"type": "DT_FLOAT"}, "value": {"tensor": {"dtype": "DT_FLOAT", "tensorShape": {"dim": [{"size": "128"}]}}}}}, {"name": "model/stack_5_block1_MB_pw_conv/Conv2D_weights", "op": "Const", "attr": {"dtype": {"type": "DT_FLOAT"}, "value": {"tensor": {"dtype": "DT_FLOAT", "tensorShape": {"dim": [{"size": "1"}, {"size": "1"}, {"size": "1152"}, {"size": "192"}]}}}}}, {"name": "model/stack_5_block1_MB_pw_conv/Conv2D_bn_offset", "op": "Const", "attr": {"dtype": {"type": "DT_FLOAT"}, "value": {"tensor": {"dtype": "DT_FLOAT", "tensorShape": {"dim": [{"size": "192"}]}}}}}, {"name": "model/stack_5_block2_sortcut_conv/Conv2D_weights", "op": "Const", "attr": {"value": {"tensor": {"dtype": "DT_FLOAT", "tensorShape": {"dim": [{"size": "1"}, {"size": "1"}, {"size": "192"}, {"size": "1152"}]}}}, "dtype": {"type": "DT_FLOAT"}}}, {"name": "model/stack_5_block2_sortcut_conv/Conv2D_bn_offset", "op": "Const", "attr": {"dtype": {"type": "DT_FLOAT"}, "value": {"tensor": {"dtype": "DT_FLOAT", "tensorShape": {"dim": [{"size": "1152"}]}}}}}, {"name": "model/stack_5_block2_MB_dw_/depthwise_weights", "op": "Const", "attr": {"value": {"tensor": {"dtype": "DT_FLOAT", "tensorShape": {"dim": [{"size": "3"}, {"size": "3"}, {"size": "1152"}, {"size": "1"}]}}}, "dtype": {"type": "DT_FLOAT"}}}, {"name": "model/stack_5_block2_MB_dw_/depthwise_bn_offset", "op": "Const", "attr": {"value": {"tensor": {"dtype": "DT_FLOAT", "tensorShape": {"dim": [{"size": "1152"}]}}}, "dtype": {"type": "DT_FLOAT"}}}, {"name": "model/decoder_conv1_pointwise/Conv2D_weights", "op": "Const", "attr": {"dtype": {"type": "DT_FLOAT"}, "value": {"tensor": {"dtype": "DT_FLOAT", "tensorShape": {"dim": [{"size": "1"}, {"size": "1"}, {"size": "128"}, {"size": "128"}]}}}}}, {"name": "model/stack_5_block2_MB_pw_conv/Conv2D_weights", "op": "Const", "attr": {"value": {"tensor": {"dtype": "DT_FLOAT", "tensorShape": {"dim": [{"size": "1"}, {"size": "1"}, {"size": "1152"}, {"size": "192"}]}}}, "dtype": {"type": "DT_FLOAT"}}}, {"name": "model/decoder_conv1_pointwise/Conv2D_bn_offset", "op": "Const", "attr": {"value": {"tensor": {"dtype": "DT_FLOAT", "tensorShape": {"dim": [{"size": "128"}]}}}, "dtype": {"type": "DT_FLOAT"}}}, {"name": "model/stack_5_block2_MB_pw_conv/Conv2D_bn_offset", "op": "Const", "attr": {"dtype": {"type": "DT_FLOAT"}, "value": {"tensor": {"dtype": "DT_FLOAT", "tensorShape": {"dim": [{"size": "192"}]}}}}}, {"name": "model/stack_5_block3_sortcut_conv/Conv2D_weights", "op": "Const", "attr": {"value": {"tensor": {"dtype": "DT_FLOAT", "tensorShape": {"dim": [{"size": "1"}, {"size": "1"}, {"size": "192"}, {"size": "1152"}]}}}, "dtype": {"type": "DT_FLOAT"}}}, {"name": "model/stack_5_block3_sortcut_conv/Conv2D_bn_offset", "op": "Const", "attr": {"dtype": {"type": "DT_FLOAT"}, "value": {"tensor": {"dtype": "DT_FLOAT", "tensorShape": {"dim": [{"size": "1152"}]}}}}}, {"name": "model/stack_5_block3_MB_dw_/depthwise_weights", "op": "Const", "attr": {"dtype": {"type": "DT_FLOAT"}, "value": {"tensor": {"dtype": "DT_FLOAT", "tensorShape": {"dim": [{"size": "3"}, {"size": "3"}, {"size": "1152"}, {"size": "1"}]}}}}}, {"name": "model/stack_5_block3_MB_dw_/depthwise_bn_offset", "op": "Const", "attr": {"value": {"tensor": {"dtype": "DT_FLOAT", "tensorShape": {"dim": [{"size": "1152"}]}}}, "dtype": {"type": "DT_FLOAT"}}}, {"name": "model/stack_5_block3_MB_pw_conv/Conv2D_weights", "op": "Const", "attr": {"dtype": {"type": "DT_FLOAT"}, "value": {"tensor": {"dtype": "DT_FLOAT", "tensorShape": {"dim": [{"size": "1"}, {"size": "1"}, {"size": "1152"}, {"size": "192"}]}}}}}, {"name": "model/aspp1_depthwise_BN/FusedBatchNormV3/Offset", "op": "Const", "attr": {"value": {"tensor": {"dtype": "DT_FLOAT", "tensorShape": {"dim": [{"size": "192"}]}}}, "dtype": {"type": "DT_FLOAT"}}}, {"name": "model/stack_5_block3_MB_pw_conv/Conv2D_bn_offset", "op": "Const", "attr": {"value": {"tensor": {"dtype": "DT_FLOAT", "tensorShape": {"dim": [{"size": "192"}]}}}, "dtype": {"type": "DT_FLOAT"}}}, {"name": "model/stack_5_block4_sortcut_conv/Conv2D_weights", "op": "Const", "attr": {"value": {"tensor": {"dtype": "DT_FLOAT", "tensorShape": {"dim": [{"size": "1"}, {"size": "1"}, {"size": "192"}, {"size": "1152"}]}}}, "dtype": {"type": "DT_FLOAT"}}}, {"name": "model/stack_5_block4_sortcut_conv/Conv2D_bn_offset", "op": "Const", "attr": {"dtype": {"type": "DT_FLOAT"}, "value": {"tensor": {"dtype": "DT_FLOAT", "tensorShape": {"dim": [{"size": "1152"}]}}}}}, {"name": "model/stack_5_block4_MB_dw_/depthwise_weights", "op": "Const", "attr": {"value": {"tensor": {"dtype": "DT_FLOAT", "tensorShape": {"dim": [{"size": "3"}, {"size": "3"}, {"size": "1152"}, {"size": "1"}]}}}, "dtype": {"type": "DT_FLOAT"}}}, {"name": "model/stack_5_block4_MB_dw_/depthwise_bn_offset", "op": "Const", "attr": {"value": {"tensor": {"dtype": "DT_FLOAT", "tensorShape": {"dim": [{"size": "1152"}]}}}, "dtype": {"type": "DT_FLOAT"}}}, {"name": "model/stack_5_block4_MB_pw_conv/Conv2D_weights", "op": "Const", "attr": {"value": {"tensor": {"dtype": "DT_FLOAT", "tensorShape": {"dim": [{"size": "1"}, {"size": "1"}, {"size": "1152"}, {"size": "192"}]}}}, "dtype": {"type": "DT_FLOAT"}}}, {"name": "model/stack_5_block4_MB_pw_conv/Conv2D_bn_offset", "op": "Const", "attr": {"value": {"tensor": {"dtype": "DT_FLOAT", "tensorShape": {"dim": [{"size": "192"}]}}}, "dtype": {"type": "DT_FLOAT"}}}, {"name": "model/stack_5_block5_sortcut_conv/Conv2D_weights", "op": "Const", "attr": {"dtype": {"type": "DT_FLOAT"}, "value": {"tensor": {"dtype": "DT_FLOAT", "tensorShape": {"dim": [{"size": "1"}, {"size": "1"}, {"size": "192"}, {"size": "1152"}]}}}}}, {"name": "model/stack_5_block5_sortcut_conv/Conv2D_bn_offset", "op": "Const", "attr": {"value": {"tensor": {"dtype": "DT_FLOAT", "tensorShape": {"dim": [{"size": "1152"}]}}}, "dtype": {"type": "DT_FLOAT"}}}, {"name": "model/stack_5_block5_MB_dw_/depthwise_weights", "op": "Const", "attr": {"dtype": {"type": "DT_FLOAT"}, "value": {"tensor": {"dtype": "DT_FLOAT", "tensorShape": {"dim": [{"size": "3"}, {"size": "3"}, {"size": "1152"}, {"size": "1"}]}}}}}, {"name": "model/stack_5_block5_MB_dw_/depthwise_bn_offset", "op": "Const", "attr": {"value": {"tensor": {"dtype": "DT_FLOAT", "tensorShape": {"dim": [{"size": "1152"}]}}}, "dtype": {"type": "DT_FLOAT"}}}, {"name": "model/stack_5_block5_MB_pw_conv/Conv2D_weights", "op": "Const", "attr": {"value": {"tensor": {"dtype": "DT_FLOAT", "tensorShape": {"dim": [{"size": "1"}, {"size": "1"}, {"size": "1152"}, {"size": "192"}]}}}, "dtype": {"type": "DT_FLOAT"}}}, {"name": "model/aspp3_depthwise_BN/FusedBatchNormV3/Scaled", "op": "Const", "attr": {"value": {"tensor": {"dtype": "DT_FLOAT", "tensorShape": {"dim": [{"size": "192"}]}}}, "dtype": {"type": "DT_FLOAT"}}}, {"name": "model/stack_5_block5_MB_pw_conv/Conv2D_bn_offset", "op": "Const", "attr": {"value": {"tensor": {"dtype": "DT_FLOAT", "tensorShape": {"dim": [{"size": "192"}]}}}, "dtype": {"type": "DT_FLOAT"}}}, {"name": "model/stack_5_block6_sortcut_conv/Conv2D_weights", "op": "Const", "attr": {"value": {"tensor": {"dtype": "DT_FLOAT", "tensorShape": {"dim": [{"size": "1"}, {"size": "1"}, {"size": "192"}, {"size": "1152"}]}}}, "dtype": {"type": "DT_FLOAT"}}}, {"name": "model/stack_5_block6_sortcut_conv/Conv2D_bn_offset", "op": "Const", "attr": {"value": {"tensor": {"dtype": "DT_FLOAT", "tensorShape": {"dim": [{"size": "1152"}]}}}, "dtype": {"type": "DT_FLOAT"}}}, {"name": "model/stack_5_block6_MB_dw_/depthwise_weights", "op": "Const", "attr": {"value": {"tensor": {"dtype": "DT_FLOAT", "tensorShape": {"dim": [{"size": "3"}, {"size": "3"}, {"size": "1152"}, {"size": "1"}]}}}, "dtype": {"type": "DT_FLOAT"}}}, {"name": "model/stack_5_block6_MB_dw_/depthwise_bn_offset", "op": "Const", "attr": {"dtype": {"type": "DT_FLOAT"}, "value": {"tensor": {"dtype": "DT_FLOAT", "tensorShape": {"dim": [{"size": "1152"}]}}}}}, {"name": "model/aspp3_depthwise_BN/FusedBatchNormV3/Offset", "op": "Const", "attr": {"value": {"tensor": {"dtype": "DT_FLOAT", "tensorShape": {"dim": [{"size": "192"}]}}}, "dtype": {"type": "DT_FLOAT"}}}, {"name": "model/stack_5_block6_MB_pw_conv/Conv2D_weights", "op": "Const", "attr": {"value": {"tensor": {"dtype": "DT_FLOAT", "tensorShape": {"dim": [{"size": "1"}, {"size": "1"}, {"size": "1152"}, {"size": "192"}]}}}, "dtype": {"type": "DT_FLOAT"}}}, {"name": "model/stack_5_block6_MB_pw_conv/Conv2D_bn_offset", "op": "Const", "attr": {"dtype": {"type": "DT_FLOAT"}, "value": {"tensor": {"dtype": "DT_FLOAT", "tensorShape": {"dim": [{"size": "192"}]}}}}}, {"name": "model/stack_5_block7_sortcut_conv/Conv2D_weights", "op": "Const", "attr": {"dtype": {"type": "DT_FLOAT"}, "value": {"tensor": {"dtype": "DT_FLOAT", "tensorShape": {"dim": [{"size": "1"}, {"size": "1"}, {"size": "192"}, {"size": "1152"}]}}}}}, {"name": "model/stack_5_block7_sortcut_conv/Conv2D_bn_offset", "op": "Const", "attr": {"dtype": {"type": "DT_FLOAT"}, "value": {"tensor": {"dtype": "DT_FLOAT", "tensorShape": {"dim": [{"size": "1152"}]}}}}}, {"name": "model/stack_5_block7_MB_dw_/depthwise_weights", "op": "Const", "attr": {"value": {"tensor": {"dtype": "DT_FLOAT", "tensorShape": {"dim": [{"size": "3"}, {"size": "3"}, {"size": "1152"}, {"size": "1"}]}}}, "dtype": {"type": "DT_FLOAT"}}}, {"name": "model/stack_5_block7_MB_dw_/depthwise_bn_offset", "op": "Const", "attr": {"value": {"tensor": {"dtype": "DT_FLOAT", "tensorShape": {"dim": [{"size": "1152"}]}}}, "dtype": {"type": "DT_FLOAT"}}}, {"name": "model/aspp2_depthwise_BN/FusedBatchNormV3/Scaled", "op": "Const", "attr": {"dtype": {"type": "DT_FLOAT"}, "value": {"tensor": {"dtype": "DT_FLOAT", "tensorShape": {"dim": [{"size": "192"}]}}}}}, {"name": "model/stack_5_block7_MB_pw_conv/Conv2D_weights", "op": "Const", "attr": {"dtype": {"type": "DT_FLOAT"}, "value": {"tensor": {"dtype": "DT_FLOAT", "tensorShape": {"dim": [{"size": "1"}, {"size": "1"}, {"size": "1152"}, {"size": "192"}]}}}}}, {"name": "model/stack_5_block7_MB_pw_conv/Conv2D_bn_offset", "op": "Const", "attr": {"value": {"tensor": {"dtype": "DT_FLOAT", "tensorShape": {"dim": [{"size": "192"}]}}}, "dtype": {"type": "DT_FLOAT"}}}, {"name": "model/aspp0/Conv2D_weights", "op": "Const", "attr": {"value": {"tensor": {"dtype": "DT_FLOAT", "tensorShape": {"dim": [{"size": "1"}, {"size": "1"}, {"size": "192"}, {"size": "128"}]}}}, "dtype": {"type": "DT_FLOAT"}}}, {"name": "model/aspp0/Conv2D_bn_offset", "op": "Const", "attr": {"value": {"tensor": {"dtype": "DT_FLOAT", "tensorShape": {"dim": [{"size": "128"}]}}}, "dtype": {"type": "DT_FLOAT"}}}, {"name": "model/stem_bn/FusedBatchNormV3", "op": "_FusedConv2D", "input": ["x", "model/stem_conv/Conv2D_weights", "model/stem_conv/Conv2D_bn_offset"], "device": "/device:CPU:0", "attr": {"epsilon": {"f": 0.0}, "dilations": {"list": {"i": ["1", "1", "1", "1"]}}, "T": {"type": "DT_FLOAT"}, "fused_ops": {"list": {"s": ["Qmlhc0FkZA=="]}}, "strides": {"list": {"i": ["1", "2", "2", "1"]}}, "use_cudnn_on_gpu": {"b": true}, "explicit_paddings": {"list": {}}, "data_format": {"s": "TkhXQw=="}, "num_args": {"i": "1"}, "padding": {"s": "U0FNRQ=="}}}, {"name": "model/stem_swish/Sigmoid", "op": "Sigmoid", "input": ["model/stem_bn/FusedBatchNormV3"], "attr": {"T": {"type": "DT_FLOAT"}}}, {"name": "model/stem_swish/mul_1", "op": "Mul", "input": ["model/stem_bn/FusedBatchNormV3", "model/stem_swish/Sigmoid"], "attr": {"T": {"type": "DT_FLOAT"}}}, {"name": "model/stack_0_block0_fu_bn/FusedBatchNormV3", "op": "_FusedConv2D", "input": ["model/stem_swish/mul_1", "model/stack_0_block0_fu_conv/Conv2D_weights", "model/stack_0_block0_fu_conv/Conv2D_bn_offset"], "device": "/device:CPU:0", "attr": {"fused_ops": {"list": {"s": ["Qmlhc0FkZA=="]}}, "strides": {"list": {"i": ["1", "1", "1", "1"]}}, "use_cudnn_on_gpu": {"b": true}, "dilations": {"list": {"i": ["1", "1", "1", "1"]}}, "T": {"type": "DT_FLOAT"}, "padding": {"s": "U0FNRQ=="}, "epsilon": {"f": 0.0}, "explicit_paddings": {"list": {}}, "num_args": {"i": "1"}, "data_format": {"s": "TkhXQw=="}}}, {"name": "model/stack_0_block0_fu_swish/Sigmoid", "op": "Sigmoid", "input": ["model/stack_0_block0_fu_bn/FusedBatchNormV3"], "attr": {"T": {"type": "DT_FLOAT"}}}, {"name": "model/stack_0_block0_fu_swish/mul_1", "op": "Mul", "input": ["model/stack_0_block0_fu_bn/FusedBatchNormV3", "model/stack_0_block0_fu_swish/Sigmoid"], "attr": {"T": {"type": "DT_FLOAT"}}}, {"name": "model/stack_1_block0_sortcut_bn/FusedBatchNormV3", "op": "_FusedConv2D", "input": ["model/stack_0_block0_fu_swish/mul_1", "model/stack_1_block0_sortcut_conv/Conv2D_weights", "model/stack_1_block0_sortcut_conv/Conv2D_bn_offset"], "device": "/device:CPU:0", "attr": {"explicit_paddings": {"list": {}}, "T": {"type": "DT_FLOAT"}, "fused_ops": {"list": {"s": ["Qmlhc0FkZA=="]}}, "num_args": {"i": "1"}, "epsilon": {"f": 0.0}, "padding": {"s": "U0FNRQ=="}, "data_format": {"s": "TkhXQw=="}, "use_cudnn_on_gpu": {"b": true}, "dilations": {"list": {"i": ["1", "1", "1", "1"]}}, "strides": {"list": {"i": ["1", "2", "2", "1"]}}}}, {"name": "model/stack_1_block0_sortcut_swish/Sigmoid", "op": "Sigmoid", "input": ["model/stack_1_block0_sortcut_bn/FusedBatchNormV3"], "attr": {"T": {"type": "DT_FLOAT"}}}, {"name": "model/stack_1_block0_sortcut_swish/mul_1", "op": "Mul", "input": ["model/stack_1_block0_sortcut_bn/FusedBatchNormV3", "model/stack_1_block0_sortcut_swish/Sigmoid"], "attr": {"T": {"type": "DT_FLOAT"}}}, {"name": "model/stack_1_block0_MB_pw_bn/FusedBatchNormV3", "op": "_FusedConv2D", "input": ["model/stack_1_block0_sortcut_swish/mul_1", "model/stack_1_block0_MB_pw_conv/Conv2D_weights", "model/stack_1_block0_MB_pw_conv/Conv2D_bn_offset"], "device": "/device:CPU:0", "attr": {"T": {"type": "DT_FLOAT"}, "padding": {"s": "VkFMSUQ="}, "explicit_paddings": {"list": {}}, "fused_ops": {"list": {"s": ["Qmlhc0FkZA=="]}}, "num_args": {"i": "1"}, "use_cudnn_on_gpu": {"b": true}, "epsilon": {"f": 0.0}, "strides": {"list": {"i": ["1", "1", "1", "1"]}}, "dilations": {"list": {"i": ["1", "1", "1", "1"]}}, "data_format": {"s": "TkhXQw=="}}}, {"name": "model/stack_1_block1_sortcut_bn/FusedBatchNormV3", "op": "_FusedConv2D", "input": ["model/stack_1_block0_MB_pw_bn/FusedBatchNormV3", "model/stack_1_block1_sortcut_conv/Conv2D_weights", "model/stack_1_block1_sortcut_conv/Conv2D_bn_offset"], "device": "/device:CPU:0", "attr": {"epsilon": {"f": 0.0}, "explicit_paddings": {"list": {}}, "T": {"type": "DT_FLOAT"}, "fused_ops": {"list": {"s": ["Qmlhc0FkZA=="]}}, "num_args": {"i": "1"}, "padding": {"s": "U0FNRQ=="}, "use_cudnn_on_gpu": {"b": true}, "data_format": {"s": "TkhXQw=="}, "dilations": {"list": {"i": ["1", "1", "1", "1"]}}, "strides": {"list": {"i": ["1", "1", "1", "1"]}}}}, {"name": "model/stack_1_block1_sortcut_swish/Sigmoid", "op": "Sigmoid", "input": ["model/stack_1_block1_sortcut_bn/FusedBatchNormV3"], "attr": {"T": {"type": "DT_FLOAT"}}}, {"name": "model/stack_1_block1_sortcut_swish/mul_1", "op": "Mul", "input": ["model/stack_1_block1_sortcut_bn/FusedBatchNormV3", "model/stack_1_block1_sortcut_swish/Sigmoid"], "attr": {"T": {"type": "DT_FLOAT"}}}, {"name": "model/stack_1_block1_MB_pw_bn/FusedBatchNormV3", "op": "_FusedConv2D", "input": ["model/stack_1_block1_sortcut_swish/mul_1", "model/stack_1_block1_MB_pw_conv/Conv2D_weights", "model/stack_1_block1_MB_pw_conv/Conv2D_bn_offset"], "device": "/device:CPU:0", "attr": {"T": {"type": "DT_FLOAT"}, "strides": {"list": {"i": ["1", "1", "1", "1"]}}, "explicit_paddings": {"list": {}}, "padding": {"s": "VkFMSUQ="}, "use_cudnn_on_gpu": {"b": true}, "num_args": {"i": "1"}, "dilations": {"list": {"i": ["1", "1", "1", "1"]}}, "data_format": {"s": "TkhXQw=="}, "epsilon": {"f": 0.0}, "fused_ops": {"list": {"s": ["Qmlhc0FkZA=="]}}}}, {"name": "model/add/add", "op": "AddV2", "input": ["model/stack_1_block0_MB_pw_bn/FusedBatchNormV3", "model/stack_1_block1_MB_pw_bn/FusedBatchNormV3"], "attr": {"T": {"type": "DT_FLOAT"}}}, {"name": "model/stack_2_block0_sortcut_bn/FusedBatchNormV3", "op": "_FusedConv2D", "input": ["model/add/add", "model/stack_2_block0_sortcut_conv/Conv2D_weights", "model/stack_2_block0_sortcut_conv/Conv2D_bn_offset"], "device": "/device:CPU:0", "attr": {"dilations": {"list": {"i": ["1", "1", "1", "1"]}}, "fused_ops": {"list": {"s": ["Qmlhc0FkZA=="]}}, "use_cudnn_on_gpu": {"b": true}, "T": {"type": "DT_FLOAT"}, "num_args": {"i": "1"}, "data_format": {"s": "TkhXQw=="}, "epsilon": {"f": 0.0}, "explicit_paddings": {"list": {}}, "padding": {"s": "U0FNRQ=="}, "strides": {"list": {"i": ["1", "2", "2", "1"]}}}}, {"name": "model/stack_2_block0_sortcut_swish/Sigmoid", "op": "Sigmoid", "input": ["model/stack_2_block0_sortcut_bn/FusedBatchNormV3"], "attr": {"T": {"type": "DT_FLOAT"}}}, {"name": "model/stack_2_block0_sortcut_swish/mul_1", "op": "Mul", "input": ["model/stack_2_block0_sortcut_bn/FusedBatchNormV3", "model/stack_2_block0_sortcut_swish/Sigmoid"], "attr": {"T": {"type": "DT_FLOAT"}}}, {"name": "model/stack_2_block0_MB_pw_bn/FusedBatchNormV3", "op": "_FusedConv2D", "input": ["model/stack_2_block0_sortcut_swish/mul_1", "model/stack_2_block0_MB_pw_conv/Conv2D_weights", "model/stack_2_block0_MB_pw_conv/Conv2D_bn_offset"], "device": "/device:CPU:0", "attr": {"T": {"type": "DT_FLOAT"}, "data_format": {"s": "TkhXQw=="}, "epsilon": {"f": 0.0}, "explicit_paddings": {"list": {}}, "strides": {"list": {"i": ["1", "1", "1", "1"]}}, "dilations": {"list": {"i": ["1", "1", "1", "1"]}}, "padding": {"s": "VkFMSUQ="}, "num_args": {"i": "1"}, "fused_ops": {"list": {"s": ["Qmlhc0FkZA=="]}}, "use_cudnn_on_gpu": {"b": true}}}, {"name": "model/stack_2_block1_sortcut_bn/FusedBatchNormV3", "op": "_FusedConv2D", "input": ["model/stack_2_block0_MB_pw_bn/FusedBatchNormV3", "model/stack_2_block1_sortcut_conv/Conv2D_weights", "model/stack_2_block1_sortcut_conv/Conv2D_bn_offset"], "device": "/device:CPU:0", "attr": {"num_args": {"i": "1"}, "data_format": {"s": "TkhXQw=="}, "dilations": {"list": {"i": ["1", "1", "1", "1"]}}, "fused_ops": {"list": {"s": ["Qmlhc0FkZA=="]}}, "padding": {"s": "U0FNRQ=="}, "epsilon": {"f": 0.0}, "explicit_paddings": {"list": {}}, "T": {"type": "DT_FLOAT"}, "use_cudnn_on_gpu": {"b": true}, "strides": {"list": {"i": ["1", "1", "1", "1"]}}}}, {"name": "model/stack_2_block1_sortcut_swish/Sigmoid", "op": "Sigmoid", "input": ["model/stack_2_block1_sortcut_bn/FusedBatchNormV3"], "attr": {"T": {"type": "DT_FLOAT"}}}, {"name": "model/stack_2_block1_sortcut_swish/mul_1", "op": "Mul", "input": ["model/stack_2_block1_sortcut_bn/FusedBatchNormV3", "model/stack_2_block1_sortcut_swish/Sigmoid"], "attr": {"T": {"type": "DT_FLOAT"}}}, {"name": "model/stack_2_block1_MB_pw_bn/FusedBatchNormV3", "op": "_FusedConv2D", "input": ["model/stack_2_block1_sortcut_swish/mul_1", "model/stack_2_block1_MB_pw_conv/Conv2D_weights", "model/stack_2_block1_MB_pw_conv/Conv2D_bn_offset"], "device": "/device:CPU:0", "attr": {"explicit_paddings": {"list": {}}, "num_args": {"i": "1"}, "fused_ops": {"list": {"s": ["Qmlhc0FkZA=="]}}, "use_cudnn_on_gpu": {"b": true}, "dilations": {"list": {"i": ["1", "1", "1", "1"]}}, "T": {"type": "DT_FLOAT"}, "data_format": {"s": "TkhXQw=="}, "strides": {"list": {"i": ["1", "1", "1", "1"]}}, "epsilon": {"f": 0.0}, "padding": {"s": "VkFMSUQ="}}}, {"name": "model/add_1/add", "op": "AddV2", "input": ["model/stack_2_block0_MB_pw_bn/FusedBatchNormV3", "model/stack_2_block1_MB_pw_bn/FusedBatchNormV3"], "attr": {"T": {"type": "DT_FLOAT"}}}, {"name": "model/stack_3_block0_sortcut_bn/FusedBatchNormV3", "op": "_FusedConv2D", "input": ["model/add_1/add", "model/stack_3_block0_sortcut_conv/Conv2D_weights", "model/stack_3_block0_sortcut_conv/Conv2D_bn_offset"], "device": "/device:CPU:0", "attr": {"num_args": {"i": "1"}, "strides": {"list": {"i": ["1", "1", "1", "1"]}}, "padding": {"s": "VkFMSUQ="}, "dilations": {"list": {"i": ["1", "1", "1", "1"]}}, "data_format": {"s": "TkhXQw=="}, "explicit_paddings": {"list": {}}, "use_cudnn_on_gpu": {"b": true}, "T": {"type": "DT_FLOAT"}, "fused_ops": {"list": {"s": ["Qmlhc0FkZA=="]}}, "epsilon": {"f": 0.0}}}, {"name": "model/feature_projection0_BN/FusedBatchNormV3", "op": "_FusedConv2D", "input": ["model/add_1/add", "model/feature_projection0/Conv2D_weights", "model/feature_projection0/Conv2D_bn_offset"], "device": "/device:CPU:0", "attr": {"use_cudnn_on_gpu": {"b": true}, "T": {"type": "DT_FLOAT"}, "num_args": {"i": "1"}, "explicit_paddings": {"list": {}}, "data_format": {"s": "TkhXQw=="}, "dilations": {"list": {"i": ["1", "1", "1", "1"]}}, "padding": {"s": "U0FNRQ=="}, "fused_ops": {"list": {"s": ["Qmlhc0FkZA=="]}}, "epsilon": {"f": 0.0}, "strides": {"list": {"i": ["1", "1", "1", "1"]}}}}, {"name": "model/stack_3_block0_sortcut_swish/Sigmoid", "op": "Sigmoid", "input": ["model/stack_3_block0_sortcut_bn/FusedBatchNormV3"], "attr": {"T": {"type": "DT_FLOAT"}}}, {"name": "model/activation_40/Sigmoid", "op": "Sigmoid", "input": ["model/feature_projection0_BN/FusedBatchNormV3"], "attr": {"T": {"type": "DT_FLOAT"}}}, {"name": "model/stack_3_block0_sortcut_swish/mul_1", "op": "Mul", "input": ["model/stack_3_block0_sortcut_bn/FusedBatchNormV3", "model/stack_3_block0_sortcut_swish/Sigmoid"], "attr": {"T": {"type": "DT_FLOAT"}}}, {"name": "model/activation_40/mul_1", "op": "Mul", "input": ["model/feature_projection0_BN/FusedBatchNormV3", "model/activation_40/Sigmoid"], "attr": {"T": {"type": "DT_FLOAT"}}}, {"name": "model/stack_3_block0_MB_dw_/depthwise", "op": "FusedDepthwiseConv2dNative", "input": ["model/stack_3_block0_sortcut_swish/mul_1", "model/stack_3_block0_MB_dw_/depthwise_weights", "model/stack_3_block0_MB_dw_/depthwise_bn_offset"], "attr": {"T": {"type": "DT_FLOAT"}, "num_args": {"i": "1"}, "explicit_paddings": {"list": {}}, "data_format": {"s": "TkhXQw=="}, "strides": {"list": {"i": ["1", "2", "2", "1"]}}, "dilations": {"list": {"i": ["1", "1", "1", "1"]}}, "fused_ops": {"list": {"s": ["Qmlhc0FkZA=="]}}, "padding": {"s": "U0FNRQ=="}}}, {"name": "model/stack_3_block0_MB_dw_swish/Sigmoid", "op": "Sigmoid", "input": ["model/stack_3_block0_MB_dw_/depthwise"], "attr": {"T": {"type": "DT_FLOAT"}}}, {"name": "model/stack_3_block0_MB_dw_swish/mul_1", "op": "Mul", "input": ["model/stack_3_block0_MB_dw_/depthwise", "model/stack_3_block0_MB_dw_swish/Sigmoid"], "attr": {"T": {"type": "DT_FLOAT"}}}, {"name": "model/tf.math.reduce_mean/Mean", "op": "Mean", "input": ["model/stack_3_block0_MB_dw_swish/mul_1", "model/tf.math.reduce_mean/Mean/reduction_indices"], "attr": {"Tidx": {"type": "DT_INT32"}, "T": {"type": "DT_FLOAT"}, "keep_dims": {"b": true}}}, {"name": "model/stack_3_block0_se_1_conv/BiasAdd", "op": "_FusedConv2D", "input": ["model/tf.math.reduce_mean/Mean", "model/stack_3_block0_se_1_conv/Conv2D/ReadVariableOp", "model/stack_3_block0_se_1_conv/BiasAdd/ReadVariableOp"], "device": "/device:CPU:0", "attr": {"num_args": {"i": "1"}, "epsilon": {"f": 0.0}, "use_cudnn_on_gpu": {"b": true}, "dilations": {"list": {"i": ["1", "1", "1", "1"]}}, "padding": {"s": "VkFMSUQ="}, "data_format": {"s": "TkhXQw=="}, "fused_ops": {"list": {"s": ["Qmlhc0FkZA=="]}}, "T": {"type": "DT_FLOAT"}, "strides": {"list": {"i": ["1", "1", "1", "1"]}}, "explicit_paddings": {"list": {}}}}, {"name": "model/activation/Sigmoid", "op": "Sigmoid", "input": ["model/stack_3_block0_se_1_conv/BiasAdd"], "attr": {"T": {"type": "DT_FLOAT"}}}, {"name": "model/activation/mul_1", "op": "Mul", "input": ["model/stack_3_block0_se_1_conv/BiasAdd", "model/activation/Sigmoid"], "attr": {"T": {"type": "DT_FLOAT"}}}, {"name": "model/stack_3_block0_se_2_conv/BiasAdd", "op": "_FusedConv2D", "input": ["model/activation/mul_1", "model/stack_3_block0_se_2_conv/Conv2D/ReadVariableOp", "model/stack_3_block0_se_2_conv/BiasAdd/ReadVariableOp"], "device": "/device:CPU:0", "attr": {"strides": {"list": {"i": ["1", "1", "1", "1"]}}, "epsilon": {"f": 0.0}, "data_format": {"s": "TkhXQw=="}, "T": {"type": "DT_FLOAT"}, "dilations": {"list": {"i": ["1", "1", "1", "1"]}}, "padding": {"s": "VkFMSUQ="}, "num_args": {"i": "1"}, "fused_ops": {"list": {"s": ["Qmlhc0FkZA=="]}}, "explicit_paddings": {"list": {}}, "use_cudnn_on_gpu": {"b": true}}}, {"name": "model/activation_1/Sigmoid", "op": "Sigmoid", "input": ["model/stack_3_block0_se_2_conv/BiasAdd"], "attr": {"T": {"type": "DT_FLOAT"}}}, {"name": "model/multiply/mul", "op": "Mul", "input": ["model/stack_3_block0_MB_dw_swish/mul_1", "model/activation_1/Sigmoid"], "attr": {"T": {"type": "DT_FLOAT"}}}, {"name": "model/stack_3_block0_MB_pw_bn/FusedBatchNormV3", "op": "_FusedConv2D", "input": ["model/multiply/mul", "model/stack_3_block0_MB_pw_conv/Conv2D_weights", "model/stack_3_block0_MB_pw_conv/Conv2D_bn_offset"], "device": "/device:CPU:0", "attr": {"strides": {"list": {"i": ["1", "1", "1", "1"]}}, "use_cudnn_on_gpu": {"b": true}, "data_format": {"s": "TkhXQw=="}, "explicit_paddings": {"list": {}}, "padding": {"s": "VkFMSUQ="}, "num_args": {"i": "1"}, "fused_ops": {"list": {"s": ["Qmlhc0FkZA=="]}}, "T": {"type": "DT_FLOAT"}, "dilations": {"list": {"i": ["1", "1", "1", "1"]}}, "epsilon": {"f": 0.0}}}, {"name": "model/stack_3_block1_sortcut_bn/FusedBatchNormV3", "op": "_FusedConv2D", "input": ["model/stack_3_block0_MB_pw_bn/FusedBatchNormV3", "model/stack_3_block1_sortcut_conv/Conv2D_weights", "model/stack_3_block1_sortcut_conv/Conv2D_bn_offset"], "device": "/device:CPU:0", "attr": {"num_args": {"i": "1"}, "dilations": {"list": {"i": ["1", "1", "1", "1"]}}, "T": {"type": "DT_FLOAT"}, "padding": {"s": "VkFMSUQ="}, "use_cudnn_on_gpu": {"b": true}, "data_format": {"s": "TkhXQw=="}, "explicit_paddings": {"list": {}}, "epsilon": {"f": 0.0}, "strides": {"list": {"i": ["1", "1", "1", "1"]}}, "fused_ops": {"list": {"s": ["Qmlhc0FkZA=="]}}}}, {"name": "model/stack_3_block1_sortcut_swish/Sigmoid", "op": "Sigmoid", "input": ["model/stack_3_block1_sortcut_bn/FusedBatchNormV3"], "attr": {"T": {"type": "DT_FLOAT"}}}, {"name": "model/stack_3_block1_sortcut_swish/mul_1", "op": "Mul", "input": ["model/stack_3_block1_sortcut_bn/FusedBatchNormV3", "model/stack_3_block1_sortcut_swish/Sigmoid"], "attr": {"T": {"type": "DT_FLOAT"}}}, {"name": "model/stack_3_block1_MB_dw_/depthwise", "op": "FusedDepthwiseConv2dNative", "input": ["model/stack_3_block1_sortcut_swish/mul_1", "model/stack_3_block1_MB_dw_/depthwise_weights", "model/stack_3_block1_MB_dw_/depthwise_bn_offset"], "attr": {"data_format": {"s": "TkhXQw=="}, "dilations": {"list": {"i": ["1", "1", "1", "1"]}}, "explicit_paddings": {"list": {}}, "strides": {"list": {"i": ["1", "1", "1", "1"]}}, "T": {"type": "DT_FLOAT"}, "num_args": {"i": "1"}, "padding": {"s": "U0FNRQ=="}, "fused_ops": {"list": {"s": ["Qmlhc0FkZA=="]}}}}, {"name": "model/stack_3_block1_MB_dw_swish/Sigmoid", "op": "Sigmoid", "input": ["model/stack_3_block1_MB_dw_/depthwise"], "attr": {"T": {"type": "DT_FLOAT"}}}, {"name": "model/stack_3_block1_MB_dw_swish/mul_1", "op": "Mul", "input": ["model/stack_3_block1_MB_dw_/depthwise", "model/stack_3_block1_MB_dw_swish/Sigmoid"], "attr": {"T": {"type": "DT_FLOAT"}}}, {"name": "model/tf.math.reduce_mean_1/Mean", "op": "Mean", "input": ["model/stack_3_block1_MB_dw_swish/mul_1", "model/tf.math.reduce_mean_1/Mean/reduction_indices"], "attr": {"Tidx": {"type": "DT_INT32"}, "keep_dims": {"b": true}, "T": {"type": "DT_FLOAT"}}}, {"name": "model/stack_3_block1_se_1_conv/BiasAdd", "op": "_FusedConv2D", "input": ["model/tf.math.reduce_mean_1/Mean", "model/stack_3_block1_se_1_conv/Conv2D/ReadVariableOp", "model/stack_3_block1_se_1_conv/BiasAdd/ReadVariableOp"], "device": "/device:CPU:0", "attr": {"padding": {"s": "VkFMSUQ="}, "fused_ops": {"list": {"s": ["Qmlhc0FkZA=="]}}, "strides": {"list": {"i": ["1", "1", "1", "1"]}}, "epsilon": {"f": 0.0}, "dilations": {"list": {"i": ["1", "1", "1", "1"]}}, "explicit_paddings": {"list": {}}, "T": {"type": "DT_FLOAT"}, "num_args": {"i": "1"}, "use_cudnn_on_gpu": {"b": true}, "data_format": {"s": "TkhXQw=="}}}, {"name": "model/activation_2/Sigmoid", "op": "Sigmoid", "input": ["model/stack_3_block1_se_1_conv/BiasAdd"], "attr": {"T": {"type": "DT_FLOAT"}}}, {"name": "model/activation_2/mul_1", "op": "Mul", "input": ["model/stack_3_block1_se_1_conv/BiasAdd", "model/activation_2/Sigmoid"], "attr": {"T": {"type": "DT_FLOAT"}}}, {"name": "model/stack_3_block1_se_2_conv/BiasAdd", "op": "_FusedConv2D", "input": ["model/activation_2/mul_1", "model/stack_3_block1_se_2_conv/Conv2D/ReadVariableOp", "model/stack_3_block1_se_2_conv/BiasAdd/ReadVariableOp"], "device": "/device:CPU:0", "attr": {"strides": {"list": {"i": ["1", "1", "1", "1"]}}, "num_args": {"i": "1"}, "epsilon": {"f": 0.0}, "fused_ops": {"list": {"s": ["Qmlhc0FkZA=="]}}, "explicit_paddings": {"list": {}}, "data_format": {"s": "TkhXQw=="}, "use_cudnn_on_gpu": {"b": true}, "dilations": {"list": {"i": ["1", "1", "1", "1"]}}, "T": {"type": "DT_FLOAT"}, "padding": {"s": "VkFMSUQ="}}}, {"name": "model/activation_3/Sigmoid", "op": "Sigmoid", "input": ["model/stack_3_block1_se_2_conv/BiasAdd"], "attr": {"T": {"type": "DT_FLOAT"}}}, {"name": "model/multiply_1/mul", "op": "Mul", "input": ["model/stack_3_block1_MB_dw_swish/mul_1", "model/activation_3/Sigmoid"], "attr": {"T": {"type": "DT_FLOAT"}}}, {"name": "model/stack_3_block1_MB_pw_bn/FusedBatchNormV3", "op": "_FusedConv2D", "input": ["model/multiply_1/mul", "model/stack_3_block1_MB_pw_conv/Conv2D_weights", "model/stack_3_block1_MB_pw_conv/Conv2D_bn_offset"], "device": "/device:CPU:0", "attr": {"num_args": {"i": "1"}, "strides": {"list": {"i": ["1", "1", "1", "1"]}}, "epsilon": {"f": 0.0}, "padding": {"s": "VkFMSUQ="}, "dilations": {"list": {"i": ["1", "1", "1", "1"]}}, "fused_ops": {"list": {"s": ["Qmlhc0FkZA=="]}}, "T": {"type": "DT_FLOAT"}, "explicit_paddings": {"list": {}}, "use_cudnn_on_gpu": {"b": true}, "data_format": {"s": "TkhXQw=="}}}, {"name": "model/add_2/add", "op": "AddV2", "input": ["model/stack_3_block0_MB_pw_bn/FusedBatchNormV3", "model/stack_3_block1_MB_pw_bn/FusedBatchNormV3"], "attr": {"T": {"type": "DT_FLOAT"}}}, {"name": "model/stack_3_block2_sortcut_bn/FusedBatchNormV3", "op": "_FusedConv2D", "input": ["model/add_2/add", "model/stack_3_block2_sortcut_conv/Conv2D_weights", "model/stack_3_block2_sortcut_conv/Conv2D_bn_offset"], "device": "/device:CPU:0", "attr": {"num_args": {"i": "1"}, "T": {"type": "DT_FLOAT"}, "epsilon": {"f": 0.0}, "strides": {"list": {"i": ["1", "1", "1", "1"]}}, "explicit_paddings": {"list": {}}, "dilations": {"list": {"i": ["1", "1", "1", "1"]}}, "padding": {"s": "VkFMSUQ="}, "fused_ops": {"list": {"s": ["Qmlhc0FkZA=="]}}, "data_format": {"s": "TkhXQw=="}, "use_cudnn_on_gpu": {"b": true}}}, {"name": "model/stack_3_block2_sortcut_swish/Sigmoid", "op": "Sigmoid", "input": ["model/stack_3_block2_sortcut_bn/FusedBatchNormV3"], "attr": {"T": {"type": "DT_FLOAT"}}}, {"name": "model/stack_3_block2_sortcut_swish/mul_1", "op": "Mul", "input": ["model/stack_3_block2_sortcut_bn/FusedBatchNormV3", "model/stack_3_block2_sortcut_swish/Sigmoid"], "attr": {"T": {"type": "DT_FLOAT"}}}, {"name": "model/stack_3_block2_MB_dw_/depthwise", "op": "FusedDepthwiseConv2dNative", "input": ["model/stack_3_block2_sortcut_swish/mul_1", "model/stack_3_block2_MB_dw_/depthwise_weights", "model/stack_3_block2_MB_dw_/depthwise_bn_offset"], "attr": {"fused_ops": {"list": {"s": ["Qmlhc0FkZA=="]}}, "num_args": {"i": "1"}, "T": {"type": "DT_FLOAT"}, "dilations": {"list": {"i": ["1", "1", "1", "1"]}}, "explicit_paddings": {"list": {}}, "strides": {"list": {"i": ["1", "1", "1", "1"]}}, "padding": {"s": "U0FNRQ=="}, "data_format": {"s": "TkhXQw=="}}}, {"name": "model/stack_3_block2_MB_dw_swish/Sigmoid", "op": "Sigmoid", "input": ["model/stack_3_block2_MB_dw_/depthwise"], "attr": {"T": {"type": "DT_FLOAT"}}}, {"name": "model/stack_3_block2_MB_dw_swish/mul_1", "op": "Mul", "input": ["model/stack_3_block2_MB_dw_/depthwise", "model/stack_3_block2_MB_dw_swish/Sigmoid"], "attr": {"T": {"type": "DT_FLOAT"}}}, {"name": "model/tf.math.reduce_mean_2/Mean", "op": "Mean", "input": ["model/stack_3_block2_MB_dw_swish/mul_1", "model/tf.math.reduce_mean_2/Mean/reduction_indices"], "attr": {"T": {"type": "DT_FLOAT"}, "keep_dims": {"b": true}, "Tidx": {"type": "DT_INT32"}}}, {"name": "model/stack_3_block2_se_1_conv/BiasAdd", "op": "_FusedConv2D", "input": ["model/tf.math.reduce_mean_2/Mean", "model/stack_3_block2_se_1_conv/Conv2D/ReadVariableOp", "model/stack_3_block2_se_1_conv/BiasAdd/ReadVariableOp"], "device": "/device:CPU:0", "attr": {"T": {"type": "DT_FLOAT"}, "epsilon": {"f": 0.0}, "use_cudnn_on_gpu": {"b": true}, "explicit_paddings": {"list": {}}, "padding": {"s": "VkFMSUQ="}, "num_args": {"i": "1"}, "dilations": {"list": {"i": ["1", "1", "1", "1"]}}, "strides": {"list": {"i": ["1", "1", "1", "1"]}}, "fused_ops": {"list": {"s": ["Qmlhc0FkZA=="]}}, "data_format": {"s": "TkhXQw=="}}}, {"name": "model/activation_4/Sigmoid", "op": "Sigmoid", "input": ["model/stack_3_block2_se_1_conv/BiasAdd"], "attr": {"T": {"type": "DT_FLOAT"}}}, {"name": "model/activation_4/mul_1", "op": "Mul", "input": ["model/stack_3_block2_se_1_conv/BiasAdd", "model/activation_4/Sigmoid"], "attr": {"T": {"type": "DT_FLOAT"}}}, {"name": "model/stack_3_block2_se_2_conv/BiasAdd", "op": "_FusedConv2D", "input": ["model/activation_4/mul_1", "model/stack_3_block2_se_2_conv/Conv2D/ReadVariableOp", "model/stack_3_block2_se_2_conv/BiasAdd/ReadVariableOp"], "device": "/device:CPU:0", "attr": {"dilations": {"list": {"i": ["1", "1", "1", "1"]}}, "num_args": {"i": "1"}, "epsilon": {"f": 0.0}, "T": {"type": "DT_FLOAT"}, "fused_ops": {"list": {"s": ["Qmlhc0FkZA=="]}}, "strides": {"list": {"i": ["1", "1", "1", "1"]}}, "use_cudnn_on_gpu": {"b": true}, "data_format": {"s": "TkhXQw=="}, "padding": {"s": "VkFMSUQ="}, "explicit_paddings": {"list": {}}}}, {"name": "model/activation_5/Sigmoid", "op": "Sigmoid", "input": ["model/stack_3_block2_se_2_conv/BiasAdd"], "attr": {"T": {"type": "DT_FLOAT"}}}, {"name": "model/multiply_2/mul", "op": "Mul", "input": ["model/stack_3_block2_MB_dw_swish/mul_1", "model/activation_5/Sigmoid"], "attr": {"T": {"type": "DT_FLOAT"}}}, {"name": "model/stack_3_block2_MB_pw_bn/FusedBatchNormV3", "op": "_FusedConv2D", "input": ["model/multiply_2/mul", "model/stack_3_block2_MB_pw_conv/Conv2D_weights", "model/stack_3_block2_MB_pw_conv/Conv2D_bn_offset"], "device": "/device:CPU:0", "attr": {"num_args": {"i": "1"}, "strides": {"list": {"i": ["1", "1", "1", "1"]}}, "explicit_paddings": {"list": {}}, "fused_ops": {"list": {"s": ["Qmlhc0FkZA=="]}}, "padding": {"s": "VkFMSUQ="}, "use_cudnn_on_gpu": {"b": true}, "T": {"type": "DT_FLOAT"}, "data_format": {"s": "TkhXQw=="}, "epsilon": {"f": 0.0}, "dilations": {"list": {"i": ["1", "1", "1", "1"]}}}}, {"name": "model/add_3/add", "op": "AddV2", "input": ["model/add_2/add", "model/stack_3_block2_MB_pw_bn/FusedBatchNormV3"], "attr": {"T": {"type": "DT_FLOAT"}}}, {"name": "model/stack_4_block0_sortcut_bn/FusedBatchNormV3", "op": "_FusedConv2D", "input": ["model/add_3/add", "model/stack_4_block0_sortcut_conv/Conv2D_weights", "model/stack_4_block0_sortcut_conv/Conv2D_bn_offset"], "device": "/device:CPU:0", "attr": {"padding": {"s": "VkFMSUQ="}, "use_cudnn_on_gpu": {"b": true}, "fused_ops": {"list": {"s": ["Qmlhc0FkZA=="]}}, "data_format": {"s": "TkhXQw=="}, "dilations": {"list": {"i": ["1", "1", "1", "1"]}}, "epsilon": {"f": 0.0}, "num_args": {"i": "1"}, "explicit_paddings": {"list": {}}, "strides": {"list": {"i": ["1", "1", "1", "1"]}}, "T": {"type": "DT_FLOAT"}}}, {"name": "model/stack_4_block0_sortcut_swish/Sigmoid", "op": "Sigmoid", "input": ["model/stack_4_block0_sortcut_bn/FusedBatchNormV3"], "attr": {"T": {"type": "DT_FLOAT"}}}, {"name": "model/stack_4_block0_sortcut_swish/mul_1", "op": "Mul", "input": ["model/stack_4_block0_sortcut_bn/FusedBatchNormV3", "model/stack_4_block0_sortcut_swish/Sigmoid"], "attr": {"T": {"type": "DT_FLOAT"}}}, {"name": "model/stack_4_block0_MB_dw_/depthwise", "op": "FusedDepthwiseConv2dNative", "input": ["model/stack_4_block0_sortcut_swish/mul_1", "model/stack_4_block0_MB_dw_/depthwise_weights", "model/stack_4_block0_MB_dw_/depthwise_bn_offset"], "attr": {"padding": {"s": "U0FNRQ=="}, "data_format": {"s": "TkhXQw=="}, "explicit_paddings": {"list": {}}, "strides": {"list": {"i": ["1", "1", "1", "1"]}}, "fused_ops": {"list": {"s": ["Qmlhc0FkZA=="]}}, "num_args": {"i": "1"}, "T": {"type": "DT_FLOAT"}, "dilations": {"list": {"i": ["1", "1", "1", "1"]}}}}, {"name": "model/stack_4_block0_MB_dw_swish/Sigmoid", "op": "Sigmoid", "input": ["model/stack_4_block0_MB_dw_/depthwise"], "attr": {"T": {"type": "DT_FLOAT"}}}, {"name": "model/stack_4_block0_MB_dw_swish/mul_1", "op": "Mul", "input": ["model/stack_4_block0_MB_dw_/depthwise", "model/stack_4_block0_MB_dw_swish/Sigmoid"], "attr": {"T": {"type": "DT_FLOAT"}}}, {"name": "model/tf.math.reduce_mean_3/Mean", "op": "Mean", "input": ["model/stack_4_block0_MB_dw_swish/mul_1", "model/tf.math.reduce_mean_3/Mean/reduction_indices"], "attr": {"keep_dims": {"b": true}, "T": {"type": "DT_FLOAT"}, "Tidx": {"type": "DT_INT32"}}}, {"name": "model/stack_4_block0_se_1_conv/BiasAdd", "op": "_FusedConv2D", "input": ["model/tf.math.reduce_mean_3/Mean", "model/stack_4_block0_se_1_conv/Conv2D/ReadVariableOp", "model/stack_4_block0_se_1_conv/BiasAdd/ReadVariableOp"], "device": "/device:CPU:0", "attr": {"epsilon": {"f": 0.0}, "fused_ops": {"list": {"s": ["Qmlhc0FkZA=="]}}, "use_cudnn_on_gpu": {"b": true}, "dilations": {"list": {"i": ["1", "1", "1", "1"]}}, "T": {"type": "DT_FLOAT"}, "padding": {"s": "VkFMSUQ="}, "num_args": {"i": "1"}, "data_format": {"s": "TkhXQw=="}, "strides": {"list": {"i": ["1", "1", "1", "1"]}}, "explicit_paddings": {"list": {}}}}, {"name": "model/activation_6/Sigmoid", "op": "Sigmoid", "input": ["model/stack_4_block0_se_1_conv/BiasAdd"], "attr": {"T": {"type": "DT_FLOAT"}}}, {"name": "model/activation_6/mul_1", "op": "Mul", "input": ["model/stack_4_block0_se_1_conv/BiasAdd", "model/activation_6/Sigmoid"], "attr": {"T": {"type": "DT_FLOAT"}}}, {"name": "model/stack_4_block0_se_2_conv/BiasAdd", "op": "_FusedConv2D", "input": ["model/activation_6/mul_1", "model/stack_4_block0_se_2_conv/Conv2D/ReadVariableOp", "model/stack_4_block0_se_2_conv/BiasAdd/ReadVariableOp"], "device": "/device:CPU:0", "attr": {"epsilon": {"f": 0.0}, "strides": {"list": {"i": ["1", "1", "1", "1"]}}, "data_format": {"s": "TkhXQw=="}, "num_args": {"i": "1"}, "padding": {"s": "VkFMSUQ="}, "explicit_paddings": {"list": {}}, "use_cudnn_on_gpu": {"b": true}, "dilations": {"list": {"i": ["1", "1", "1", "1"]}}, "T": {"type": "DT_FLOAT"}, "fused_ops": {"list": {"s": ["Qmlhc0FkZA=="]}}}}, {"name": "model/activation_7/Sigmoid", "op": "Sigmoid", "input": ["model/stack_4_block0_se_2_conv/BiasAdd"], "attr": {"T": {"type": "DT_FLOAT"}}}, {"name": "model/multiply_3/mul", "op": "Mul", "input": ["model/stack_4_block0_MB_dw_swish/mul_1", "model/activation_7/Sigmoid"], "attr": {"T": {"type": "DT_FLOAT"}}}, {"name": "model/stack_4_block0_MB_pw_bn/FusedBatchNormV3", "op": "_FusedConv2D", "input": ["model/multiply_3/mul", "model/stack_4_block0_MB_pw_conv/Conv2D_weights", "model/stack_4_block0_MB_pw_conv/Conv2D_bn_offset"], "device": "/device:CPU:0", "attr": {"use_cudnn_on_gpu": {"b": true}, "num_args": {"i": "1"}, "padding": {"s": "VkFMSUQ="}, "dilations": {"list": {"i": ["1", "1", "1", "1"]}}, "explicit_paddings": {"list": {}}, "epsilon": {"f": 0.0}, "data_format": {"s": "TkhXQw=="}, "T": {"type": "DT_FLOAT"}, "strides": {"list": {"i": ["1", "1", "1", "1"]}}, "fused_ops": {"list": {"s": ["Qmlhc0FkZA=="]}}}}, {"name": "model/stack_4_block1_sortcut_bn/FusedBatchNormV3", "op": "_FusedConv2D", "input": ["model/stack_4_block0_MB_pw_bn/FusedBatchNormV3", "model/stack_4_block1_sortcut_conv/Conv2D_weights", "model/stack_4_block1_sortcut_conv/Conv2D_bn_offset"], "device": "/device:CPU:0", "attr": {"use_cudnn_on_gpu": {"b": true}, "explicit_paddings": {"list": {}}, "dilations": {"list": {"i": ["1", "1", "1", "1"]}}, "padding": {"s": "VkFMSUQ="}, "T": {"type": "DT_FLOAT"}, "strides": {"list": {"i": ["1", "1", "1", "1"]}}, "num_args": {"i": "1"}, "epsilon": {"f": 0.0}, "fused_ops": {"list": {"s": ["Qmlhc0FkZA=="]}}, "data_format": {"s": "TkhXQw=="}}}, {"name": "model/stack_4_block1_sortcut_swish/Sigmoid", "op": "Sigmoid", "input": ["model/stack_4_block1_sortcut_bn/FusedBatchNormV3"], "attr": {"T": {"type": "DT_FLOAT"}}}, {"name": "model/stack_4_block1_sortcut_swish/mul_1", "op": "Mul", "input": ["model/stack_4_block1_sortcut_bn/FusedBatchNormV3", "model/stack_4_block1_sortcut_swish/Sigmoid"], "attr": {"T": {"type": "DT_FLOAT"}}}, {"name": "model/stack_4_block1_MB_dw_/depthwise", "op": "FusedDepthwiseConv2dNative", "input": ["model/stack_4_block1_sortcut_swish/mul_1", "model/stack_4_block1_MB_dw_/depthwise_weights", "model/stack_4_block1_MB_dw_/depthwise_bn_offset"], "attr": {"data_format": {"s": "TkhXQw=="}, "explicit_paddings": {"list": {}}, "dilations": {"list": {"i": ["1", "1", "1", "1"]}}, "padding": {"s": "U0FNRQ=="}, "fused_ops": {"list": {"s": ["Qmlhc0FkZA=="]}}, "T": {"type": "DT_FLOAT"}, "strides": {"list": {"i": ["1", "1", "1", "1"]}}, "num_args": {"i": "1"}}}, {"name": "model/stack_4_block1_MB_dw_swish/Sigmoid", "op": "Sigmoid", "input": ["model/stack_4_block1_MB_dw_/depthwise"], "attr": {"T": {"type": "DT_FLOAT"}}}, {"name": "model/stack_4_block1_MB_dw_swish/mul_1", "op": "Mul", "input": ["model/stack_4_block1_MB_dw_/depthwise", "model/stack_4_block1_MB_dw_swish/Sigmoid"], "attr": {"T": {"type": "DT_FLOAT"}}}, {"name": "model/tf.math.reduce_mean_4/Mean", "op": "Mean", "input": ["model/stack_4_block1_MB_dw_swish/mul_1", "model/tf.math.reduce_mean_4/Mean/reduction_indices"], "attr": {"Tidx": {"type": "DT_INT32"}, "T": {"type": "DT_FLOAT"}, "keep_dims": {"b": true}}}, {"name": "model/stack_4_block1_se_1_conv/BiasAdd", "op": "_FusedConv2D", "input": ["model/tf.math.reduce_mean_4/Mean", "model/stack_4_block1_se_1_conv/Conv2D/ReadVariableOp", "model/stack_4_block1_se_1_conv/BiasAdd/ReadVariableOp"], "device": "/device:CPU:0", "attr": {"strides": {"list": {"i": ["1", "1", "1", "1"]}}, "data_format": {"s": "TkhXQw=="}, "epsilon": {"f": 0.0}, "T": {"type": "DT_FLOAT"}, "explicit_paddings": {"list": {}}, "fused_ops": {"list": {"s": ["Qmlhc0FkZA=="]}}, "use_cudnn_on_gpu": {"b": true}, "dilations": {"list": {"i": ["1", "1", "1", "1"]}}, "padding": {"s": "VkFMSUQ="}, "num_args": {"i": "1"}}}, {"name": "model/activation_8/Sigmoid", "op": "Sigmoid", "input": ["model/stack_4_block1_se_1_conv/BiasAdd"], "attr": {"T": {"type": "DT_FLOAT"}}}, {"name": "model/activation_8/mul_1", "op": "Mul", "input": ["model/stack_4_block1_se_1_conv/BiasAdd", "model/activation_8/Sigmoid"], "attr": {"T": {"type": "DT_FLOAT"}}}, {"name": "model/stack_4_block1_se_2_conv/BiasAdd", "op": "_FusedConv2D", "input": ["model/activation_8/mul_1", "model/stack_4_block1_se_2_conv/Conv2D/ReadVariableOp", "model/stack_4_block1_se_2_conv/BiasAdd/ReadVariableOp"], "device": "/device:CPU:0", "attr": {"explicit_paddings": {"list": {}}, "fused_ops": {"list": {"s": ["Qmlhc0FkZA=="]}}, "epsilon": {"f": 0.0}, "T": {"type": "DT_FLOAT"}, "strides": {"list": {"i": ["1", "1", "1", "1"]}}, "padding": {"s": "VkFMSUQ="}, "dilations": {"list": {"i": ["1", "1", "1", "1"]}}, "use_cudnn_on_gpu": {"b": true}, "num_args": {"i": "1"}, "data_format": {"s": "TkhXQw=="}}}, {"name": "model/activation_9/Sigmoid", "op": "Sigmoid", "input": ["model/stack_4_block1_se_2_conv/BiasAdd"], "attr": {"T": {"type": "DT_FLOAT"}}}, {"name": "model/multiply_4/mul", "op": "Mul", "input": ["model/stack_4_block1_MB_dw_swish/mul_1", "model/activation_9/Sigmoid"], "attr": {"T": {"type": "DT_FLOAT"}}}, {"name": "model/stack_4_block1_MB_pw_bn/FusedBatchNormV3", "op": "_FusedConv2D", "input": ["model/multiply_4/mul", "model/stack_4_block1_MB_pw_conv/Conv2D_weights", "model/stack_4_block1_MB_pw_conv/Conv2D_bn_offset"], "device": "/device:CPU:0", "attr": {"fused_ops": {"list": {"s": ["Qmlhc0FkZA=="]}}, "T": {"type": "DT_FLOAT"}, "epsilon": {"f": 0.0}, "padding": {"s": "VkFMSUQ="}, "num_args": {"i": "1"}, "strides": {"list": {"i": ["1", "1", "1", "1"]}}, "data_format": {"s": "TkhXQw=="}, "dilations": {"list": {"i": ["1", "1", "1", "1"]}}, "use_cudnn_on_gpu": {"b": true}, "explicit_paddings": {"list": {}}}}, {"name": "model/add_4/add", "op": "AddV2", "input": ["model/stack_4_block0_MB_pw_bn/FusedBatchNormV3", "model/stack_4_block1_MB_pw_bn/FusedBatchNormV3"], "attr": {"T": {"type": "DT_FLOAT"}}}, {"name": "model/stack_4_block2_sortcut_bn/FusedBatchNormV3", "op": "_FusedConv2D", "input": ["model/add_4/add", "model/stack_4_block2_sortcut_conv/Conv2D_weights", "model/stack_4_block2_sortcut_conv/Conv2D_bn_offset"], "device": "/device:CPU:0", "attr": {"num_args": {"i": "1"}, "fused_ops": {"list": {"s": ["Qmlhc0FkZA=="]}}, "epsilon": {"f": 0.0}, "strides": {"list": {"i": ["1", "1", "1", "1"]}}, "data_format": {"s": "TkhXQw=="}, "padding": {"s": "VkFMSUQ="}, "T": {"type": "DT_FLOAT"}, "use_cudnn_on_gpu": {"b": true}, "explicit_paddings": {"list": {}}, "dilations": {"list": {"i": ["1", "1", "1", "1"]}}}}, {"name": "model/stack_4_block2_sortcut_swish/Sigmoid", "op": "Sigmoid", "input": ["model/stack_4_block2_sortcut_bn/FusedBatchNormV3"], "attr": {"T": {"type": "DT_FLOAT"}}}, {"name": "model/stack_4_block2_sortcut_swish/mul_1", "op": "Mul", "input": ["model/stack_4_block2_sortcut_bn/FusedBatchNormV3", "model/stack_4_block2_sortcut_swish/Sigmoid"], "attr": {"T": {"type": "DT_FLOAT"}}}, {"name": "model/stack_4_block2_MB_dw_/depthwise", "op": "FusedDepthwiseConv2dNative", "input": ["model/stack_4_block2_sortcut_swish/mul_1", "model/stack_4_block2_MB_dw_/depthwise_weights", "model/stack_4_block2_MB_dw_/depthwise_bn_offset"], "attr": {"T": {"type": "DT_FLOAT"}, "strides": {"list": {"i": ["1", "1", "1", "1"]}}, "data_format": {"s": "TkhXQw=="}, "fused_ops": {"list": {"s": ["Qmlhc0FkZA=="]}}, "padding": {"s": "U0FNRQ=="}, "num_args": {"i": "1"}, "dilations": {"list": {"i": ["1", "1", "1", "1"]}}, "explicit_paddings": {"list": {}}}}, {"name": "model/stack_4_block2_MB_dw_swish/Sigmoid", "op": "Sigmoid", "input": ["model/stack_4_block2_MB_dw_/depthwise"], "attr": {"T": {"type": "DT_FLOAT"}}}, {"name": "model/stack_4_block2_MB_dw_swish/mul_1", "op": "Mul", "input": ["model/stack_4_block2_MB_dw_/depthwise", "model/stack_4_block2_MB_dw_swish/Sigmoid"], "attr": {"T": {"type": "DT_FLOAT"}}}, {"name": "model/tf.math.reduce_mean_5/Mean", "op": "Mean", "input": ["model/stack_4_block2_MB_dw_swish/mul_1", "model/tf.math.reduce_mean_5/Mean/reduction_indices"], "attr": {"T": {"type": "DT_FLOAT"}, "keep_dims": {"b": true}, "Tidx": {"type": "DT_INT32"}}}, {"name": "model/stack_4_block2_se_1_conv/BiasAdd", "op": "_FusedConv2D", "input": ["model/tf.math.reduce_mean_5/Mean", "model/stack_4_block2_se_1_conv/Conv2D/ReadVariableOp", "model/stack_4_block2_se_1_conv/BiasAdd/ReadVariableOp"], "device": "/device:CPU:0", "attr": {"T": {"type": "DT_FLOAT"}, "epsilon": {"f": 0.0}, "padding": {"s": "VkFMSUQ="}, "data_format": {"s": "TkhXQw=="}, "dilations": {"list": {"i": ["1", "1", "1", "1"]}}, "fused_ops": {"list": {"s": ["Qmlhc0FkZA=="]}}, "strides": {"list": {"i": ["1", "1", "1", "1"]}}, "num_args": {"i": "1"}, "use_cudnn_on_gpu": {"b": true}, "explicit_paddings": {"list": {}}}}, {"name": "model/activation_10/Sigmoid", "op": "Sigmoid", "input": ["model/stack_4_block2_se_1_conv/BiasAdd"], "attr": {"T": {"type": "DT_FLOAT"}}}, {"name": "model/activation_10/mul_1", "op": "Mul", "input": ["model/stack_4_block2_se_1_conv/BiasAdd", "model/activation_10/Sigmoid"], "attr": {"T": {"type": "DT_FLOAT"}}}, {"name": "model/stack_4_block2_se_2_conv/BiasAdd", "op": "_FusedConv2D", "input": ["model/activation_10/mul_1", "model/stack_4_block2_se_2_conv/Conv2D/ReadVariableOp", "model/stack_4_block2_se_2_conv/BiasAdd/ReadVariableOp"], "device": "/device:CPU:0", "attr": {"explicit_paddings": {"list": {}}, "epsilon": {"f": 0.0}, "dilations": {"list": {"i": ["1", "1", "1", "1"]}}, "strides": {"list": {"i": ["1", "1", "1", "1"]}}, "data_format": {"s": "TkhXQw=="}, "num_args": {"i": "1"}, "use_cudnn_on_gpu": {"b": true}, "fused_ops": {"list": {"s": ["Qmlhc0FkZA=="]}}, "padding": {"s": "VkFMSUQ="}, "T": {"type": "DT_FLOAT"}}}, {"name": "model/activation_11/Sigmoid", "op": "Sigmoid", "input": ["model/stack_4_block2_se_2_conv/BiasAdd"], "attr": {"T": {"type": "DT_FLOAT"}}}, {"name": "model/multiply_5/mul", "op": "Mul", "input": ["model/stack_4_block2_MB_dw_swish/mul_1", "model/activation_11/Sigmoid"], "attr": {"T": {"type": "DT_FLOAT"}}}, {"name": "model/stack_4_block2_MB_pw_bn/FusedBatchNormV3", "op": "_FusedConv2D", "input": ["model/multiply_5/mul", "model/stack_4_block2_MB_pw_conv/Conv2D_weights", "model/stack_4_block2_MB_pw_conv/Conv2D_bn_offset"], "device": "/device:CPU:0", "attr": {"strides": {"list": {"i": ["1", "1", "1", "1"]}}, "padding": {"s": "VkFMSUQ="}, "use_cudnn_on_gpu": {"b": true}, "data_format": {"s": "TkhXQw=="}, "num_args": {"i": "1"}, "fused_ops": {"list": {"s": ["Qmlhc0FkZA=="]}}, "T": {"type": "DT_FLOAT"}, "dilations": {"list": {"i": ["1", "1", "1", "1"]}}, "epsilon": {"f": 0.0}, "explicit_paddings": {"list": {}}}}, {"name": "model/add_5/add", "op": "AddV2", "input": ["model/add_4/add", "model/stack_4_block2_MB_pw_bn/FusedBatchNormV3"], "attr": {"T": {"type": "DT_FLOAT"}}}, {"name": "model/stack_4_block3_sortcut_bn/FusedBatchNormV3", "op": "_FusedConv2D", "input": ["model/add_5/add", "model/stack_4_block3_sortcut_conv/Conv2D_weights", "model/stack_4_block3_sortcut_conv/Conv2D_bn_offset"], "device": "/device:CPU:0", "attr": {"padding": {"s": "VkFMSUQ="}, "T": {"type": "DT_FLOAT"}, "data_format": {"s": "TkhXQw=="}, "epsilon": {"f": 0.0}, "explicit_paddings": {"list": {}}, "fused_ops": {"list": {"s": ["Qmlhc0FkZA=="]}}, "num_args": {"i": "1"}, "dilations": {"list": {"i": ["1", "1", "1", "1"]}}, "use_cudnn_on_gpu": {"b": true}, "strides": {"list": {"i": ["1", "1", "1", "1"]}}}}, {"name": "model/stack_4_block3_sortcut_swish/Sigmoid", "op": "Sigmoid", "input": ["model/stack_4_block3_sortcut_bn/FusedBatchNormV3"], "attr": {"T": {"type": "DT_FLOAT"}}}, {"name": "model/stack_4_block3_sortcut_swish/mul_1", "op": "Mul", "input": ["model/stack_4_block3_sortcut_bn/FusedBatchNormV3", "model/stack_4_block3_sortcut_swish/Sigmoid"], "attr": {"T": {"type": "DT_FLOAT"}}}, {"name": "model/stack_4_block3_MB_dw_/depthwise", "op": "FusedDepthwiseConv2dNative", "input": ["model/stack_4_block3_sortcut_swish/mul_1", "model/stack_4_block3_MB_dw_/depthwise_weights", "model/stack_4_block3_MB_dw_/depthwise_bn_offset"], "attr": {"fused_ops": {"list": {"s": ["Qmlhc0FkZA=="]}}, "data_format": {"s": "TkhXQw=="}, "dilations": {"list": {"i": ["1", "1", "1", "1"]}}, "explicit_paddings": {"list": {}}, "padding": {"s": "U0FNRQ=="}, "T": {"type": "DT_FLOAT"}, "num_args": {"i": "1"}, "strides": {"list": {"i": ["1", "1", "1", "1"]}}}}, {"name": "model/stack_4_block3_MB_dw_swish/Sigmoid", "op": "Sigmoid", "input": ["model/stack_4_block3_MB_dw_/depthwise"], "attr": {"T": {"type": "DT_FLOAT"}}}, {"name": "model/stack_4_block3_MB_dw_swish/mul_1", "op": "Mul", "input": ["model/stack_4_block3_MB_dw_/depthwise", "model/stack_4_block3_MB_dw_swish/Sigmoid"], "attr": {"T": {"type": "DT_FLOAT"}}}, {"name": "model/tf.math.reduce_mean_6/Mean", "op": "Mean", "input": ["model/stack_4_block3_MB_dw_swish/mul_1", "model/tf.math.reduce_mean_6/Mean/reduction_indices"], "attr": {"Tidx": {"type": "DT_INT32"}, "T": {"type": "DT_FLOAT"}, "keep_dims": {"b": true}}}, {"name": "model/stack_4_block3_se_1_conv/BiasAdd", "op": "_FusedConv2D", "input": ["model/tf.math.reduce_mean_6/Mean", "model/stack_4_block3_se_1_conv/Conv2D/ReadVariableOp", "model/stack_4_block3_se_1_conv/BiasAdd/ReadVariableOp"], "device": "/device:CPU:0", "attr": {"num_args": {"i": "1"}, "fused_ops": {"list": {"s": ["Qmlhc0FkZA=="]}}, "strides": {"list": {"i": ["1", "1", "1", "1"]}}, "explicit_paddings": {"list": {}}, "use_cudnn_on_gpu": {"b": true}, "T": {"type": "DT_FLOAT"}, "epsilon": {"f": 0.0}, "dilations": {"list": {"i": ["1", "1", "1", "1"]}}, "padding": {"s": "VkFMSUQ="}, "data_format": {"s": "TkhXQw=="}}}, {"name": "model/activation_12/Sigmoid", "op": "Sigmoid", "input": ["model/stack_4_block3_se_1_conv/BiasAdd"], "attr": {"T": {"type": "DT_FLOAT"}}}, {"name": "model/activation_12/mul_1", "op": "Mul", "input": ["model/stack_4_block3_se_1_conv/BiasAdd", "model/activation_12/Sigmoid"], "attr": {"T": {"type": "DT_FLOAT"}}}, {"name": "model/stack_4_block3_se_2_conv/BiasAdd", "op": "_FusedConv2D", "input": ["model/activation_12/mul_1", "model/stack_4_block3_se_2_conv/Conv2D/ReadVariableOp", "model/stack_4_block3_se_2_conv/BiasAdd/ReadVariableOp"], "device": "/device:CPU:0", "attr": {"T": {"type": "DT_FLOAT"}, "data_format": {"s": "TkhXQw=="}, "fused_ops": {"list": {"s": ["Qmlhc0FkZA=="]}}, "padding": {"s": "VkFMSUQ="}, "dilations": {"list": {"i": ["1", "1", "1", "1"]}}, "num_args": {"i": "1"}, "use_cudnn_on_gpu": {"b": true}, "explicit_paddings": {"list": {}}, "epsilon": {"f": 0.0}, "strides": {"list": {"i": ["1", "1", "1", "1"]}}}}, {"name": "model/activation_13/Sigmoid", "op": "Sigmoid", "input": ["model/stack_4_block3_se_2_conv/BiasAdd"], "attr": {"T": {"type": "DT_FLOAT"}}}, {"name": "model/multiply_6/mul", "op": "Mul", "input": ["model/stack_4_block3_MB_dw_swish/mul_1", "model/activation_13/Sigmoid"], "attr": {"T": {"type": "DT_FLOAT"}}}, {"name": "model/stack_4_block3_MB_pw_bn/FusedBatchNormV3", "op": "_FusedConv2D", "input": ["model/multiply_6/mul", "model/stack_4_block3_MB_pw_conv/Conv2D_weights", "model/stack_4_block3_MB_pw_conv/Conv2D_bn_offset"], "device": "/device:CPU:0", "attr": {"num_args": {"i": "1"}, "fused_ops": {"list": {"s": ["Qmlhc0FkZA=="]}}, "strides": {"list": {"i": ["1", "1", "1", "1"]}}, "epsilon": {"f": 0.0}, "use_cudnn_on_gpu": {"b": true}, "explicit_paddings": {"list": {}}, "T": {"type": "DT_FLOAT"}, "padding": {"s": "VkFMSUQ="}, "dilations": {"list": {"i": ["1", "1", "1", "1"]}}, "data_format": {"s": "TkhXQw=="}}}, {"name": "model/add_6/add", "op": "AddV2", "input": ["model/add_5/add", "model/stack_4_block3_MB_pw_bn/FusedBatchNormV3"], "attr": {"T": {"type": "DT_FLOAT"}}}, {"name": "model/stack_4_block4_sortcut_bn/FusedBatchNormV3", "op": "_FusedConv2D", "input": ["model/add_6/add", "model/stack_4_block4_sortcut_conv/Conv2D_weights", "model/stack_4_block4_sortcut_conv/Conv2D_bn_offset"], "device": "/device:CPU:0", "attr": {"dilations": {"list": {"i": ["1", "1", "1", "1"]}}, "fused_ops": {"list": {"s": ["Qmlhc0FkZA=="]}}, "data_format": {"s": "TkhXQw=="}, "T": {"type": "DT_FLOAT"}, "strides": {"list": {"i": ["1", "1", "1", "1"]}}, "use_cudnn_on_gpu": {"b": true}, "padding": {"s": "VkFMSUQ="}, "epsilon": {"f": 0.0}, "explicit_paddings": {"list": {}}, "num_args": {"i": "1"}}}, {"name": "model/stack_4_block4_sortcut_swish/Sigmoid", "op": "Sigmoid", "input": ["model/stack_4_block4_sortcut_bn/FusedBatchNormV3"], "attr": {"T": {"type": "DT_FLOAT"}}}, {"name": "model/stack_4_block4_sortcut_swish/mul_1", "op": "Mul", "input": ["model/stack_4_block4_sortcut_bn/FusedBatchNormV3", "model/stack_4_block4_sortcut_swish/Sigmoid"], "attr": {"T": {"type": "DT_FLOAT"}}}, {"name": "model/stack_4_block4_MB_dw_/depthwise", "op": "FusedDepthwiseConv2dNative", "input": ["model/stack_4_block4_sortcut_swish/mul_1", "model/stack_4_block4_MB_dw_/depthwise_weights", "model/stack_4_block4_MB_dw_/depthwise_bn_offset"], "attr": {"num_args": {"i": "1"}, "fused_ops": {"list": {"s": ["Qmlhc0FkZA=="]}}, "explicit_paddings": {"list": {}}, "padding": {"s": "U0FNRQ=="}, "strides": {"list": {"i": ["1", "1", "1", "1"]}}, "dilations": {"list": {"i": ["1", "1", "1", "1"]}}, "T": {"type": "DT_FLOAT"}, "data_format": {"s": "TkhXQw=="}}}, {"name": "model/stack_4_block4_MB_dw_swish/Sigmoid", "op": "Sigmoid", "input": ["model/stack_4_block4_MB_dw_/depthwise"], "attr": {"T": {"type": "DT_FLOAT"}}}, {"name": "model/stack_4_block4_MB_dw_swish/mul_1", "op": "Mul", "input": ["model/stack_4_block4_MB_dw_/depthwise", "model/stack_4_block4_MB_dw_swish/Sigmoid"], "attr": {"T": {"type": "DT_FLOAT"}}}, {"name": "model/tf.math.reduce_mean_7/Mean", "op": "Mean", "input": ["model/stack_4_block4_MB_dw_swish/mul_1", "model/tf.math.reduce_mean_7/Mean/reduction_indices"], "attr": {"Tidx": {"type": "DT_INT32"}, "keep_dims": {"b": true}, "T": {"type": "DT_FLOAT"}}}, {"name": "model/stack_4_block4_se_1_conv/BiasAdd", "op": "_FusedConv2D", "input": ["model/tf.math.reduce_mean_7/Mean", "model/stack_4_block4_se_1_conv/Conv2D/ReadVariableOp", "model/stack_4_block4_se_1_conv/BiasAdd/ReadVariableOp"], "device": "/device:CPU:0", "attr": {"strides": {"list": {"i": ["1", "1", "1", "1"]}}, "dilations": {"list": {"i": ["1", "1", "1", "1"]}}, "data_format": {"s": "TkhXQw=="}, "fused_ops": {"list": {"s": ["Qmlhc0FkZA=="]}}, "use_cudnn_on_gpu": {"b": true}, "epsilon": {"f": 0.0}, "num_args": {"i": "1"}, "explicit_paddings": {"list": {}}, "padding": {"s": "VkFMSUQ="}, "T": {"type": "DT_FLOAT"}}}, {"name": "model/activation_14/Sigmoid", "op": "Sigmoid", "input": ["model/stack_4_block4_se_1_conv/BiasAdd"], "attr": {"T": {"type": "DT_FLOAT"}}}, {"name": "model/activation_14/mul_1", "op": "Mul", "input": ["model/stack_4_block4_se_1_conv/BiasAdd", "model/activation_14/Sigmoid"], "attr": {"T": {"type": "DT_FLOAT"}}}, {"name": "model/stack_4_block4_se_2_conv/BiasAdd", "op": "_FusedConv2D", "input": ["model/activation_14/mul_1", "model/stack_4_block4_se_2_conv/Conv2D/ReadVariableOp", "model/stack_4_block4_se_2_conv/BiasAdd/ReadVariableOp"], "device": "/device:CPU:0", "attr": {"T": {"type": "DT_FLOAT"}, "explicit_paddings": {"list": {}}, "epsilon": {"f": 0.0}, "data_format": {"s": "TkhXQw=="}, "fused_ops": {"list": {"s": ["Qmlhc0FkZA=="]}}, "use_cudnn_on_gpu": {"b": true}, "num_args": {"i": "1"}, "dilations": {"list": {"i": ["1", "1", "1", "1"]}}, "padding": {"s": "VkFMSUQ="}, "strides": {"list": {"i": ["1", "1", "1", "1"]}}}}, {"name": "model/activation_15/Sigmoid", "op": "Sigmoid", "input": ["model/stack_4_block4_se_2_conv/BiasAdd"], "attr": {"T": {"type": "DT_FLOAT"}}}, {"name": "model/multiply_7/mul", "op": "Mul", "input": ["model/stack_4_block4_MB_dw_swish/mul_1", "model/activation_15/Sigmoid"], "attr": {"T": {"type": "DT_FLOAT"}}}, {"name": "model/stack_4_block4_MB_pw_bn/FusedBatchNormV3", "op": "_FusedConv2D", "input": ["model/multiply_7/mul", "model/stack_4_block4_MB_pw_conv/Conv2D_weights", "model/stack_4_block4_MB_pw_conv/Conv2D_bn_offset"], "device": "/device:CPU:0", "attr": {"strides": {"list": {"i": ["1", "1", "1", "1"]}}, "explicit_paddings": {"list": {}}, "fused_ops": {"list": {"s": ["Qmlhc0FkZA=="]}}, "use_cudnn_on_gpu": {"b": true}, "T": {"type": "DT_FLOAT"}, "epsilon": {"f": 0.0}, "padding": {"s": "VkFMSUQ="}, "num_args": {"i": "1"}, "dilations": {"list": {"i": ["1", "1", "1", "1"]}}, "data_format": {"s": "TkhXQw=="}}}, {"name": "model/add_7/add", "op": "AddV2", "input": ["model/add_6/add", "model/stack_4_block4_MB_pw_bn/FusedBatchNormV3"], "attr": {"T": {"type": "DT_FLOAT"}}}, {"name": "model/stack_5_block0_sortcut_bn/FusedBatchNormV3", "op": "_FusedConv2D", "input": ["model/add_7/add", "model/stack_5_block0_sortcut_conv/Conv2D_weights", "model/stack_5_block0_sortcut_conv/Conv2D_bn_offset"], "device": "/device:CPU:0", "attr": {"strides": {"list": {"i": ["1", "1", "1", "1"]}}, "num_args": {"i": "1"}, "explicit_paddings": {"list": {}}, "dilations": {"list": {"i": ["1", "1", "1", "1"]}}, "fused_ops": {"list": {"s": ["Qmlhc0FkZA=="]}}, "padding": {"s": "VkFMSUQ="}, "T": {"type": "DT_FLOAT"}, "data_format": {"s": "TkhXQw=="}, "epsilon": {"f": 0.0}, "use_cudnn_on_gpu": {"b": true}}}, {"name": "model/stack_5_block0_sortcut_swish/Sigmoid", "op": "Sigmoid", "input": ["model/stack_5_block0_sortcut_bn/FusedBatchNormV3"], "attr": {"T": {"type": "DT_FLOAT"}}}, {"name": "model/stack_5_block0_sortcut_swish/mul_1", "op": "Mul", "input": ["model/stack_5_block0_sortcut_bn/FusedBatchNormV3", "model/stack_5_block0_sortcut_swish/Sigmoid"], "attr": {"T": {"type": "DT_FLOAT"}}}, {"name": "model/stack_5_block0_MB_dw_/depthwise", "op": "FusedDepthwiseConv2dNative", "input": ["model/stack_5_block0_sortcut_swish/mul_1", "model/stack_5_block0_MB_dw_/depthwise_weights", "model/stack_5_block0_MB_dw_/depthwise_bn_offset"], "attr": {"strides": {"list": {"i": ["1", "2", "2", "1"]}}, "T": {"type": "DT_FLOAT"}, "num_args": {"i": "1"}, "data_format": {"s": "TkhXQw=="}, "dilations": {"list": {"i": ["1", "1", "1", "1"]}}, "fused_ops": {"list": {"s": ["Qmlhc0FkZA=="]}}, "padding": {"s": "U0FNRQ=="}, "explicit_paddings": {"list": {}}}}, {"name": "model/stack_5_block0_MB_dw_swish/Sigmoid", "op": "Sigmoid", "input": ["model/stack_5_block0_MB_dw_/depthwise"], "attr": {"T": {"type": "DT_FLOAT"}}}, {"name": "model/stack_5_block0_MB_dw_swish/mul_1", "op": "Mul", "input": ["model/stack_5_block0_MB_dw_/depthwise", "model/stack_5_block0_MB_dw_swish/Sigmoid"], "attr": {"T": {"type": "DT_FLOAT"}}}, {"name": "model/tf.math.reduce_mean_8/Mean", "op": "Mean", "input": ["model/stack_5_block0_MB_dw_swish/mul_1", "model/tf.math.reduce_mean_8/Mean/reduction_indices"], "attr": {"keep_dims": {"b": true}, "Tidx": {"type": "DT_INT32"}, "T": {"type": "DT_FLOAT"}}}, {"name": "model/stack_5_block0_se_1_conv/BiasAdd", "op": "_FusedConv2D", "input": ["model/tf.math.reduce_mean_8/Mean", "model/stack_5_block0_se_1_conv/Conv2D/ReadVariableOp", "model/stack_5_block0_se_1_conv/BiasAdd/ReadVariableOp"], "device": "/device:CPU:0", "attr": {"padding": {"s": "VkFMSUQ="}, "use_cudnn_on_gpu": {"b": true}, "epsilon": {"f": 0.0}, "T": {"type": "DT_FLOAT"}, "num_args": {"i": "1"}, "explicit_paddings": {"list": {}}, "strides": {"list": {"i": ["1", "1", "1", "1"]}}, "data_format": {"s": "TkhXQw=="}, "dilations": {"list": {"i": ["1", "1", "1", "1"]}}, "fused_ops": {"list": {"s": ["Qmlhc0FkZA=="]}}}}, {"name": "model/activation_16/Sigmoid", "op": "Sigmoid", "input": ["model/stack_5_block0_se_1_conv/BiasAdd"], "attr": {"T": {"type": "DT_FLOAT"}}}, {"name": "model/activation_16/mul_1", "op": "Mul", "input": ["model/stack_5_block0_se_1_conv/BiasAdd", "model/activation_16/Sigmoid"], "attr": {"T": {"type": "DT_FLOAT"}}}, {"name": "model/stack_5_block0_se_2_conv/BiasAdd", "op": "_FusedConv2D", "input": ["model/activation_16/mul_1", "model/stack_5_block0_se_2_conv/Conv2D/ReadVariableOp", "model/stack_5_block0_se_2_conv/BiasAdd/ReadVariableOp"], "device": "/device:CPU:0", "attr": {"fused_ops": {"list": {"s": ["Qmlhc0FkZA=="]}}, "padding": {"s": "VkFMSUQ="}, "use_cudnn_on_gpu": {"b": true}, "data_format": {"s": "TkhXQw=="}, "num_args": {"i": "1"}, "epsilon": {"f": 0.0}, "T": {"type": "DT_FLOAT"}, "strides": {"list": {"i": ["1", "1", "1", "1"]}}, "explicit_paddings": {"list": {}}, "dilations": {"list": {"i": ["1", "1", "1", "1"]}}}}, {"name": "model/activation_17/Sigmoid", "op": "Sigmoid", "input": ["model/stack_5_block0_se_2_conv/BiasAdd"], "attr": {"T": {"type": "DT_FLOAT"}}}, {"name": "model/multiply_8/mul", "op": "Mul", "input": ["model/stack_5_block0_MB_dw_swish/mul_1", "model/activation_17/Sigmoid"], "attr": {"T": {"type": "DT_FLOAT"}}}, {"name": "model/stack_5_block0_MB_pw_bn/FusedBatchNormV3", "op": "_FusedConv2D", "input": ["model/multiply_8/mul", "model/stack_5_block0_MB_pw_conv/Conv2D_weights", "model/stack_5_block0_MB_pw_conv/Conv2D_bn_offset"], "device": "/device:CPU:0", "attr": {"use_cudnn_on_gpu": {"b": true}, "data_format": {"s": "TkhXQw=="}, "T": {"type": "DT_FLOAT"}, "strides": {"list": {"i": ["1", "1", "1", "1"]}}, "padding": {"s": "VkFMSUQ="}, "explicit_paddings": {"list": {}}, "fused_ops": {"list": {"s": ["Qmlhc0FkZA=="]}}, "dilations": {"list": {"i": ["1", "1", "1", "1"]}}, "num_args": {"i": "1"}, "epsilon": {"f": 0.0}}}, {"name": "model/stack_5_block1_sortcut_bn/FusedBatchNormV3", "op": "_FusedConv2D", "input": ["model/stack_5_block0_MB_pw_bn/FusedBatchNormV3", "model/stack_5_block1_sortcut_conv/Conv2D_weights", "model/stack_5_block1_sortcut_conv/Conv2D_bn_offset"], "device": "/device:CPU:0", "attr": {"data_format": {"s": "TkhXQw=="}, "explicit_paddings": {"list": {}}, "strides": {"list": {"i": ["1", "1", "1", "1"]}}, "fused_ops": {"list": {"s": ["Qmlhc0FkZA=="]}}, "dilations": {"list": {"i": ["1", "1", "1", "1"]}}, "use_cudnn_on_gpu": {"b": true}, "epsilon": {"f": 0.0}, "num_args": {"i": "1"}, "T": {"type": "DT_FLOAT"}, "padding": {"s": "VkFMSUQ="}}}, {"name": "model/stack_5_block1_sortcut_swish/Sigmoid", "op": "Sigmoid", "input": ["model/stack_5_block1_sortcut_bn/FusedBatchNormV3"], "attr": {"T": {"type": "DT_FLOAT"}}}, {"name": "model/stack_5_block1_sortcut_swish/mul_1", "op": "Mul", "input": ["model/stack_5_block1_sortcut_bn/FusedBatchNormV3", "model/stack_5_block1_sortcut_swish/Sigmoid"], "attr": {"T": {"type": "DT_FLOAT"}}}, {"name": "model/stack_5_block1_MB_dw_/depthwise", "op": "FusedDepthwiseConv2dNative", "input": ["model/stack_5_block1_sortcut_swish/mul_1", "model/stack_5_block1_MB_dw_/depthwise_weights", "model/stack_5_block1_MB_dw_/depthwise_bn_offset"], "attr": {"T": {"type": "DT_FLOAT"}, "data_format": {"s": "TkhXQw=="}, "dilations": {"list": {"i": ["1", "1", "1", "1"]}}, "explicit_paddings": {"list": {}}, "fused_ops": {"list": {"s": ["Qmlhc0FkZA=="]}}, "strides": {"list": {"i": ["1", "1", "1", "1"]}}, "num_args": {"i": "1"}, "padding": {"s": "U0FNRQ=="}}}, {"name": "model/stack_5_block1_MB_dw_swish/Sigmoid", "op": "Sigmoid", "input": ["model/stack_5_block1_MB_dw_/depthwise"], "attr": {"T": {"type": "DT_FLOAT"}}}, {"name": "model/stack_5_block1_MB_dw_swish/mul_1", "op": "Mul", "input": ["model/stack_5_block1_MB_dw_/depthwise", "model/stack_5_block1_MB_dw_swish/Sigmoid"], "attr": {"T": {"type": "DT_FLOAT"}}}, {"name": "model/tf.math.reduce_mean_9/Mean", "op": "Mean", "input": ["model/stack_5_block1_MB_dw_swish/mul_1", "model/tf.math.reduce_mean_9/Mean/reduction_indices"], "attr": {"keep_dims": {"b": true}, "Tidx": {"type": "DT_INT32"}, "T": {"type": "DT_FLOAT"}}}, {"name": "model/stack_5_block1_se_1_conv/BiasAdd", "op": "_FusedConv2D", "input": ["model/tf.math.reduce_mean_9/Mean", "model/stack_5_block1_se_1_conv/Conv2D/ReadVariableOp", "model/stack_5_block1_se_1_conv/BiasAdd/ReadVariableOp"], "device": "/device:CPU:0", "attr": {"T": {"type": "DT_FLOAT"}, "epsilon": {"f": 0.0}, "fused_ops": {"list": {"s": ["Qmlhc0FkZA=="]}}, "dilations": {"list": {"i": ["1", "1", "1", "1"]}}, "use_cudnn_on_gpu": {"b": true}, "num_args": {"i": "1"}, "padding": {"s": "VkFMSUQ="}, "explicit_paddings": {"list": {}}, "data_format": {"s": "TkhXQw=="}, "strides": {"list": {"i": ["1", "1", "1", "1"]}}}}, {"name": "model/activation_18/Sigmoid", "op": "Sigmoid", "input": ["model/stack_5_block1_se_1_conv/BiasAdd"], "attr": {"T": {"type": "DT_FLOAT"}}}, {"name": "model/activation_18/mul_1", "op": "Mul", "input": ["model/stack_5_block1_se_1_conv/BiasAdd", "model/activation_18/Sigmoid"], "attr": {"T": {"type": "DT_FLOAT"}}}, {"name": "model/stack_5_block1_se_2_conv/BiasAdd", "op": "_FusedConv2D", "input": ["model/activation_18/mul_1", "model/stack_5_block1_se_2_conv/Conv2D/ReadVariableOp", "model/stack_5_block1_se_2_conv/BiasAdd/ReadVariableOp"], "device": "/device:CPU:0", "attr": {"padding": {"s": "VkFMSUQ="}, "fused_ops": {"list": {"s": ["Qmlhc0FkZA=="]}}, "T": {"type": "DT_FLOAT"}, "data_format": {"s": "TkhXQw=="}, "explicit_paddings": {"list": {}}, "use_cudnn_on_gpu": {"b": true}, "dilations": {"list": {"i": ["1", "1", "1", "1"]}}, "epsilon": {"f": 0.0}, "strides": {"list": {"i": ["1", "1", "1", "1"]}}, "num_args": {"i": "1"}}}, {"name": "model/activation_19/Sigmoid", "op": "Sigmoid", "input": ["model/stack_5_block1_se_2_conv/BiasAdd"], "attr": {"T": {"type": "DT_FLOAT"}}}, {"name": "model/multiply_9/mul", "op": "Mul", "input": ["model/stack_5_block1_MB_dw_swish/mul_1", "model/activation_19/Sigmoid"], "attr": {"T": {"type": "DT_FLOAT"}}}, {"name": "model/stack_5_block1_MB_pw_bn/FusedBatchNormV3", "op": "_FusedConv2D", "input": ["model/multiply_9/mul", "model/stack_5_block1_MB_pw_conv/Conv2D_weights", "model/stack_5_block1_MB_pw_conv/Conv2D_bn_offset"], "device": "/device:CPU:0", "attr": {"dilations": {"list": {"i": ["1", "1", "1", "1"]}}, "epsilon": {"f": 0.0}, "explicit_paddings": {"list": {}}, "num_args": {"i": "1"}, "T": {"type": "DT_FLOAT"}, "use_cudnn_on_gpu": {"b": true}, "fused_ops": {"list": {"s": ["Qmlhc0FkZA=="]}}, "strides": {"list": {"i": ["1", "1", "1", "1"]}}, "data_format": {"s": "TkhXQw=="}, "padding": {"s": "VkFMSUQ="}}}, {"name": "model/add_8/add", "op": "AddV2", "input": ["model/stack_5_block0_MB_pw_bn/FusedBatchNormV3", "model/stack_5_block1_MB_pw_bn/FusedBatchNormV3"], "attr": {"T": {"type": "DT_FLOAT"}}}, {"name": "model/stack_5_block2_sortcut_bn/FusedBatchNormV3", "op": "_FusedConv2D", "input": ["model/add_8/add", "model/stack_5_block2_sortcut_conv/Conv2D_weights", "model/stack_5_block2_sortcut_conv/Conv2D_bn_offset"], "device": "/device:CPU:0", "attr": {"data_format": {"s": "TkhXQw=="}, "T": {"type": "DT_FLOAT"}, "num_args": {"i": "1"}, "fused_ops": {"list": {"s": ["Qmlhc0FkZA=="]}}, "explicit_paddings": {"list": {}}, "use_cudnn_on_gpu": {"b": true}, "strides": {"list": {"i": ["1", "1", "1", "1"]}}, "dilations": {"list": {"i": ["1", "1", "1", "1"]}}, "padding": {"s": "VkFMSUQ="}, "epsilon": {"f": 0.0}}}, {"name": "model/stack_5_block2_sortcut_swish/Sigmoid", "op": "Sigmoid", "input": ["model/stack_5_block2_sortcut_bn/FusedBatchNormV3"], "attr": {"T": {"type": "DT_FLOAT"}}}, {"name": "model/stack_5_block2_sortcut_swish/mul_1", "op": "Mul", "input": ["model/stack_5_block2_sortcut_bn/FusedBatchNormV3", "model/stack_5_block2_sortcut_swish/Sigmoid"], "attr": {"T": {"type": "DT_FLOAT"}}}, {"name": "model/stack_5_block2_MB_dw_/depthwise", "op": "FusedDepthwiseConv2dNative", "input": ["model/stack_5_block2_sortcut_swish/mul_1", "model/stack_5_block2_MB_dw_/depthwise_weights", "model/stack_5_block2_MB_dw_/depthwise_bn_offset"], "attr": {"num_args": {"i": "1"}, "data_format": {"s": "TkhXQw=="}, "dilations": {"list": {"i": ["1", "1", "1", "1"]}}, "explicit_paddings": {"list": {}}, "T": {"type": "DT_FLOAT"}, "strides": {"list": {"i": ["1", "1", "1", "1"]}}, "fused_ops": {"list": {"s": ["Qmlhc0FkZA=="]}}, "padding": {"s": "U0FNRQ=="}}}, {"name": "model/stack_5_block2_MB_dw_swish/Sigmoid", "op": "Sigmoid", "input": ["model/stack_5_block2_MB_dw_/depthwise"], "attr": {"T": {"type": "DT_FLOAT"}}}, {"name": "model/stack_5_block2_MB_dw_swish/mul_1", "op": "Mul", "input": ["model/stack_5_block2_MB_dw_/depthwise", "model/stack_5_block2_MB_dw_swish/Sigmoid"], "attr": {"T": {"type": "DT_FLOAT"}}}, {"name": "model/tf.math.reduce_mean_10/Mean", "op": "Mean", "input": ["model/stack_5_block2_MB_dw_swish/mul_1", "model/tf.math.reduce_mean_10/Mean/reduction_indices"], "attr": {"T": {"type": "DT_FLOAT"}, "keep_dims": {"b": true}, "Tidx": {"type": "DT_INT32"}}}, {"name": "model/stack_5_block2_se_1_conv/BiasAdd", "op": "_FusedConv2D", "input": ["model/tf.math.reduce_mean_10/Mean", "model/stack_5_block2_se_1_conv/Conv2D/ReadVariableOp", "model/stack_5_block2_se_1_conv/BiasAdd/ReadVariableOp"], "device": "/device:CPU:0", "attr": {"use_cudnn_on_gpu": {"b": true}, "padding": {"s": "VkFMSUQ="}, "data_format": {"s": "TkhXQw=="}, "explicit_paddings": {"list": {}}, "num_args": {"i": "1"}, "dilations": {"list": {"i": ["1", "1", "1", "1"]}}, "epsilon": {"f": 0.0}, "fused_ops": {"list": {"s": ["Qmlhc0FkZA=="]}}, "strides": {"list": {"i": ["1", "1", "1", "1"]}}, "T": {"type": "DT_FLOAT"}}}, {"name": "model/activation_20/Sigmoid", "op": "Sigmoid", "input": ["model/stack_5_block2_se_1_conv/BiasAdd"], "attr": {"T": {"type": "DT_FLOAT"}}}, {"name": "model/activation_20/mul_1", "op": "Mul", "input": ["model/stack_5_block2_se_1_conv/BiasAdd", "model/activation_20/Sigmoid"], "attr": {"T": {"type": "DT_FLOAT"}}}, {"name": "model/stack_5_block2_se_2_conv/BiasAdd", "op": "_FusedConv2D", "input": ["model/activation_20/mul_1", "model/stack_5_block2_se_2_conv/Conv2D/ReadVariableOp", "model/stack_5_block2_se_2_conv/BiasAdd/ReadVariableOp"], "device": "/device:CPU:0", "attr": {"strides": {"list": {"i": ["1", "1", "1", "1"]}}, "explicit_paddings": {"list": {}}, "epsilon": {"f": 0.0}, "T": {"type": "DT_FLOAT"}, "padding": {"s": "VkFMSUQ="}, "use_cudnn_on_gpu": {"b": true}, "dilations": {"list": {"i": ["1", "1", "1", "1"]}}, "data_format": {"s": "TkhXQw=="}, "num_args": {"i": "1"}, "fused_ops": {"list": {"s": ["Qmlhc0FkZA=="]}}}}, {"name": "model/activation_21/Sigmoid", "op": "Sigmoid", "input": ["model/stack_5_block2_se_2_conv/BiasAdd"], "attr": {"T": {"type": "DT_FLOAT"}}}, {"name": "model/multiply_10/mul", "op": "Mul", "input": ["model/stack_5_block2_MB_dw_swish/mul_1", "model/activation_21/Sigmoid"], "attr": {"T": {"type": "DT_FLOAT"}}}, {"name": "model/stack_5_block2_MB_pw_bn/FusedBatchNormV3", "op": "_FusedConv2D", "input": ["model/multiply_10/mul", "model/stack_5_block2_MB_pw_conv/Conv2D_weights", "model/stack_5_block2_MB_pw_conv/Conv2D_bn_offset"], "device": "/device:CPU:0", "attr": {"use_cudnn_on_gpu": {"b": true}, "epsilon": {"f": 0.0}, "strides": {"list": {"i": ["1", "1", "1", "1"]}}, "data_format": {"s": "TkhXQw=="}, "padding": {"s": "VkFMSUQ="}, "num_args": {"i": "1"}, "T": {"type": "DT_FLOAT"}, "fused_ops": {"list": {"s": ["Qmlhc0FkZA=="]}}, "dilations": {"list": {"i": ["1", "1", "1", "1"]}}, "explicit_paddings": {"list": {}}}}, {"name": "model/add_9/add", "op": "AddV2", "input": ["model/add_8/add", "model/stack_5_block2_MB_pw_bn/FusedBatchNormV3"], "attr": {"T": {"type": "DT_FLOAT"}}}, {"name": "model/stack_5_block3_sortcut_bn/FusedBatchNormV3", "op": "_FusedConv2D", "input": ["model/add_9/add", "model/stack_5_block3_sortcut_conv/Conv2D_weights", "model/stack_5_block3_sortcut_conv/Conv2D_bn_offset"], "device": "/device:CPU:0", "attr": {"explicit_paddings": {"list": {}}, "fused_ops": {"list": {"s": ["Qmlhc0FkZA=="]}}, "num_args": {"i": "1"}, "data_format": {"s": "TkhXQw=="}, "use_cudnn_on_gpu": {"b": true}, "T": {"type": "DT_FLOAT"}, "dilations": {"list": {"i": ["1", "1", "1", "1"]}}, "strides": {"list": {"i": ["1", "1", "1", "1"]}}, "epsilon": {"f": 0.0}, "padding": {"s": "VkFMSUQ="}}}, {"name": "model/stack_5_block3_sortcut_swish/Sigmoid", "op": "Sigmoid", "input": ["model/stack_5_block3_sortcut_bn/FusedBatchNormV3"], "attr": {"T": {"type": "DT_FLOAT"}}}, {"name": "model/stack_5_block3_sortcut_swish/mul_1", "op": "Mul", "input": ["model/stack_5_block3_sortcut_bn/FusedBatchNormV3", "model/stack_5_block3_sortcut_swish/Sigmoid"], "attr": {"T": {"type": "DT_FLOAT"}}}, {"name": "model/stack_5_block3_MB_dw_/depthwise", "op": "FusedDepthwiseConv2dNative", "input": ["model/stack_5_block3_sortcut_swish/mul_1", "model/stack_5_block3_MB_dw_/depthwise_weights", "model/stack_5_block3_MB_dw_/depthwise_bn_offset"], "attr": {"fused_ops": {"list": {"s": ["Qmlhc0FkZA=="]}}, "dilations": {"list": {"i": ["1", "1", "1", "1"]}}, "padding": {"s": "U0FNRQ=="}, "explicit_paddings": {"list": {}}, "num_args": {"i": "1"}, "data_format": {"s": "TkhXQw=="}, "strides": {"list": {"i": ["1", "1", "1", "1"]}}, "T": {"type": "DT_FLOAT"}}}, {"name": "model/stack_5_block3_MB_dw_swish/Sigmoid", "op": "Sigmoid", "input": ["model/stack_5_block3_MB_dw_/depthwise"], "attr": {"T": {"type": "DT_FLOAT"}}}, {"name": "model/stack_5_block3_MB_dw_swish/mul_1", "op": "Mul", "input": ["model/stack_5_block3_MB_dw_/depthwise", "model/stack_5_block3_MB_dw_swish/Sigmoid"], "attr": {"T": {"type": "DT_FLOAT"}}}, {"name": "model/tf.math.reduce_mean_11/Mean", "op": "Mean", "input": ["model/stack_5_block3_MB_dw_swish/mul_1", "model/tf.math.reduce_mean_11/Mean/reduction_indices"], "attr": {"Tidx": {"type": "DT_INT32"}, "keep_dims": {"b": true}, "T": {"type": "DT_FLOAT"}}}, {"name": "model/stack_5_block3_se_1_conv/BiasAdd", "op": "_FusedConv2D", "input": ["model/tf.math.reduce_mean_11/Mean", "model/stack_5_block3_se_1_conv/Conv2D/ReadVariableOp", "model/stack_5_block3_se_1_conv/BiasAdd/ReadVariableOp"], "device": "/device:CPU:0", "attr": {"padding": {"s": "VkFMSUQ="}, "dilations": {"list": {"i": ["1", "1", "1", "1"]}}, "T": {"type": "DT_FLOAT"}, "explicit_paddings": {"list": {}}, "num_args": {"i": "1"}, "strides": {"list": {"i": ["1", "1", "1", "1"]}}, "epsilon": {"f": 0.0}, "data_format": {"s": "TkhXQw=="}, "fused_ops": {"list": {"s": ["Qmlhc0FkZA=="]}}, "use_cudnn_on_gpu": {"b": true}}}, {"name": "model/activation_22/Sigmoid", "op": "Sigmoid", "input": ["model/stack_5_block3_se_1_conv/BiasAdd"], "attr": {"T": {"type": "DT_FLOAT"}}}, {"name": "model/activation_22/mul_1", "op": "Mul", "input": ["model/stack_5_block3_se_1_conv/BiasAdd", "model/activation_22/Sigmoid"], "attr": {"T": {"type": "DT_FLOAT"}}}, {"name": "model/stack_5_block3_se_2_conv/BiasAdd", "op": "_FusedConv2D", "input": ["model/activation_22/mul_1", "model/stack_5_block3_se_2_conv/Conv2D/ReadVariableOp", "model/stack_5_block3_se_2_conv/BiasAdd/ReadVariableOp"], "device": "/device:CPU:0", "attr": {"fused_ops": {"list": {"s": ["Qmlhc0FkZA=="]}}, "explicit_paddings": {"list": {}}, "data_format": {"s": "TkhXQw=="}, "use_cudnn_on_gpu": {"b": true}, "dilations": {"list": {"i": ["1", "1", "1", "1"]}}, "T": {"type": "DT_FLOAT"}, "num_args": {"i": "1"}, "epsilon": {"f": 0.0}, "padding": {"s": "VkFMSUQ="}, "strides": {"list": {"i": ["1", "1", "1", "1"]}}}}, {"name": "model/activation_23/Sigmoid", "op": "Sigmoid", "input": ["model/stack_5_block3_se_2_conv/BiasAdd"], "attr": {"T": {"type": "DT_FLOAT"}}}, {"name": "model/multiply_11/mul", "op": "Mul", "input": ["model/stack_5_block3_MB_dw_swish/mul_1", "model/activation_23/Sigmoid"], "attr": {"T": {"type": "DT_FLOAT"}}}, {"name": "model/stack_5_block3_MB_pw_bn/FusedBatchNormV3", "op": "_FusedConv2D", "input": ["model/multiply_11/mul", "model/stack_5_block3_MB_pw_conv/Conv2D_weights", "model/stack_5_block3_MB_pw_conv/Conv2D_bn_offset"], "device": "/device:CPU:0", "attr": {"T": {"type": "DT_FLOAT"}, "dilations": {"list": {"i": ["1", "1", "1", "1"]}}, "epsilon": {"f": 0.0}, "fused_ops": {"list": {"s": ["Qmlhc0FkZA=="]}}, "num_args": {"i": "1"}, "padding": {"s": "VkFMSUQ="}, "explicit_paddings": {"list": {}}, "strides": {"list": {"i": ["1", "1", "1", "1"]}}, "use_cudnn_on_gpu": {"b": true}, "data_format": {"s": "TkhXQw=="}}}, {"name": "model/add_10/add", "op": "AddV2", "input": ["model/add_9/add", "model/stack_5_block3_MB_pw_bn/FusedBatchNormV3"], "attr": {"T": {"type": "DT_FLOAT"}}}, {"name": "model/stack_5_block4_sortcut_bn/FusedBatchNormV3", "op": "_FusedConv2D", "input": ["model/add_10/add", "model/stack_5_block4_sortcut_conv/Conv2D_weights", "model/stack_5_block4_sortcut_conv/Conv2D_bn_offset"], "device": "/device:CPU:0", "attr": {"num_args": {"i": "1"}, "T": {"type": "DT_FLOAT"}, "dilations": {"list": {"i": ["1", "1", "1", "1"]}}, "fused_ops": {"list": {"s": ["Qmlhc0FkZA=="]}}, "strides": {"list": {"i": ["1", "1", "1", "1"]}}, "padding": {"s": "VkFMSUQ="}, "explicit_paddings": {"list": {}}, "epsilon": {"f": 0.0}, "use_cudnn_on_gpu": {"b": true}, "data_format": {"s": "TkhXQw=="}}}, {"name": "model/stack_5_block4_sortcut_swish/Sigmoid", "op": "Sigmoid", "input": ["model/stack_5_block4_sortcut_bn/FusedBatchNormV3"], "attr": {"T": {"type": "DT_FLOAT"}}}, {"name": "model/stack_5_block4_sortcut_swish/mul_1", "op": "Mul", "input": ["model/stack_5_block4_sortcut_bn/FusedBatchNormV3", "model/stack_5_block4_sortcut_swish/Sigmoid"], "attr": {"T": {"type": "DT_FLOAT"}}}, {"name": "model/stack_5_block4_MB_dw_/depthwise", "op": "FusedDepthwiseConv2dNative", "input": ["model/stack_5_block4_sortcut_swish/mul_1", "model/stack_5_block4_MB_dw_/depthwise_weights", "model/stack_5_block4_MB_dw_/depthwise_bn_offset"], "attr": {"padding": {"s": "U0FNRQ=="}, "strides": {"list": {"i": ["1", "1", "1", "1"]}}, "explicit_paddings": {"list": {}}, "fused_ops": {"list": {"s": ["Qmlhc0FkZA=="]}}, "data_format": {"s": "TkhXQw=="}, "T": {"type": "DT_FLOAT"}, "dilations": {"list": {"i": ["1", "1", "1", "1"]}}, "num_args": {"i": "1"}}}, {"name": "model/stack_5_block4_MB_dw_swish/Sigmoid", "op": "Sigmoid", "input": ["model/stack_5_block4_MB_dw_/depthwise"], "attr": {"T": {"type": "DT_FLOAT"}}}, {"name": "model/stack_5_block4_MB_dw_swish/mul_1", "op": "Mul", "input": ["model/stack_5_block4_MB_dw_/depthwise", "model/stack_5_block4_MB_dw_swish/Sigmoid"], "attr": {"T": {"type": "DT_FLOAT"}}}, {"name": "model/tf.math.reduce_mean_12/Mean", "op": "Mean", "input": ["model/stack_5_block4_MB_dw_swish/mul_1", "model/tf.math.reduce_mean_12/Mean/reduction_indices"], "attr": {"keep_dims": {"b": true}, "Tidx": {"type": "DT_INT32"}, "T": {"type": "DT_FLOAT"}}}, {"name": "model/stack_5_block4_se_1_conv/BiasAdd", "op": "_FusedConv2D", "input": ["model/tf.math.reduce_mean_12/Mean", "model/stack_5_block4_se_1_conv/Conv2D/ReadVariableOp", "model/stack_5_block4_se_1_conv/BiasAdd/ReadVariableOp"], "device": "/device:CPU:0", "attr": {"T": {"type": "DT_FLOAT"}, "fused_ops": {"list": {"s": ["Qmlhc0FkZA=="]}}, "use_cudnn_on_gpu": {"b": true}, "strides": {"list": {"i": ["1", "1", "1", "1"]}}, "padding": {"s": "VkFMSUQ="}, "explicit_paddings": {"list": {}}, "num_args": {"i": "1"}, "epsilon": {"f": 0.0}, "dilations": {"list": {"i": ["1", "1", "1", "1"]}}, "data_format": {"s": "TkhXQw=="}}}, {"name": "model/activation_24/Sigmoid", "op": "Sigmoid", "input": ["model/stack_5_block4_se_1_conv/BiasAdd"], "attr": {"T": {"type": "DT_FLOAT"}}}, {"name": "model/activation_24/mul_1", "op": "Mul", "input": ["model/stack_5_block4_se_1_conv/BiasAdd", "model/activation_24/Sigmoid"], "attr": {"T": {"type": "DT_FLOAT"}}}, {"name": "model/stack_5_block4_se_2_conv/BiasAdd", "op": "_FusedConv2D", "input": ["model/activation_24/mul_1", "model/stack_5_block4_se_2_conv/Conv2D/ReadVariableOp", "model/stack_5_block4_se_2_conv/BiasAdd/ReadVariableOp"], "device": "/device:CPU:0", "attr": {"dilations": {"list": {"i": ["1", "1", "1", "1"]}}, "T": {"type": "DT_FLOAT"}, "num_args": {"i": "1"}, "padding": {"s": "VkFMSUQ="}, "explicit_paddings": {"list": {}}, "fused_ops": {"list": {"s": ["Qmlhc0FkZA=="]}}, "data_format": {"s": "TkhXQw=="}, "epsilon": {"f": 0.0}, "use_cudnn_on_gpu": {"b": true}, "strides": {"list": {"i": ["1", "1", "1", "1"]}}}}, {"name": "model/activation_25/Sigmoid", "op": "Sigmoid", "input": ["model/stack_5_block4_se_2_conv/BiasAdd"], "attr": {"T": {"type": "DT_FLOAT"}}}, {"name": "model/multiply_12/mul", "op": "Mul", "input": ["model/stack_5_block4_MB_dw_swish/mul_1", "model/activation_25/Sigmoid"], "attr": {"T": {"type": "DT_FLOAT"}}}, {"name": "model/stack_5_block4_MB_pw_bn/FusedBatchNormV3", "op": "_FusedConv2D", "input": ["model/multiply_12/mul", "model/stack_5_block4_MB_pw_conv/Conv2D_weights", "model/stack_5_block4_MB_pw_conv/Conv2D_bn_offset"], "device": "/device:CPU:0", "attr": {"data_format": {"s": "TkhXQw=="}, "dilations": {"list": {"i": ["1", "1", "1", "1"]}}, "epsilon": {"f": 0.0}, "strides": {"list": {"i": ["1", "1", "1", "1"]}}, "num_args": {"i": "1"}, "fused_ops": {"list": {"s": ["Qmlhc0FkZA=="]}}, "use_cudnn_on_gpu": {"b": true}, "padding": {"s": "VkFMSUQ="}, "explicit_paddings": {"list": {}}, "T": {"type": "DT_FLOAT"}}}, {"name": "model/add_11/add", "op": "AddV2", "input": ["model/add_10/add", "model/stack_5_block4_MB_pw_bn/FusedBatchNormV3"], "attr": {"T": {"type": "DT_FLOAT"}}}, {"name": "model/stack_5_block5_sortcut_bn/FusedBatchNormV3", "op": "_FusedConv2D", "input": ["model/add_11/add", "model/stack_5_block5_sortcut_conv/Conv2D_weights", "model/stack_5_block5_sortcut_conv/Conv2D_bn_offset"], "device": "/device:CPU:0", "attr": {"data_format": {"s": "TkhXQw=="}, "dilations": {"list": {"i": ["1", "1", "1", "1"]}}, "use_cudnn_on_gpu": {"b": true}, "strides": {"list": {"i": ["1", "1", "1", "1"]}}, "num_args": {"i": "1"}, "fused_ops": {"list": {"s": ["Qmlhc0FkZA=="]}}, "epsilon": {"f": 0.0}, "explicit_paddings": {"list": {}}, "T": {"type": "DT_FLOAT"}, "padding": {"s": "VkFMSUQ="}}}, {"name": "model/stack_5_block5_sortcut_swish/Sigmoid", "op": "Sigmoid", "input": ["model/stack_5_block5_sortcut_bn/FusedBatchNormV3"], "attr": {"T": {"type": "DT_FLOAT"}}}, {"name": "model/stack_5_block5_sortcut_swish/mul_1", "op": "Mul", "input": ["model/stack_5_block5_sortcut_bn/FusedBatchNormV3", "model/stack_5_block5_sortcut_swish/Sigmoid"], "attr": {"T": {"type": "DT_FLOAT"}}}, {"name": "model/stack_5_block5_MB_dw_/depthwise", "op": "FusedDepthwiseConv2dNative", "input": ["model/stack_5_block5_sortcut_swish/mul_1", "model/stack_5_block5_MB_dw_/depthwise_weights", "model/stack_5_block5_MB_dw_/depthwise_bn_offset"], "attr": {"strides": {"list": {"i": ["1", "1", "1", "1"]}}, "T": {"type": "DT_FLOAT"}, "num_args": {"i": "1"}, "fused_ops": {"list": {"s": ["Qmlhc0FkZA=="]}}, "explicit_paddings": {"list": {}}, "dilations": {"list": {"i": ["1", "1", "1", "1"]}}, "data_format": {"s": "TkhXQw=="}, "padding": {"s": "U0FNRQ=="}}}, {"name": "model/stack_5_block5_MB_dw_swish/Sigmoid", "op": "Sigmoid", "input": ["model/stack_5_block5_MB_dw_/depthwise"], "attr": {"T": {"type": "DT_FLOAT"}}}, {"name": "model/stack_5_block5_MB_dw_swish/mul_1", "op": "Mul", "input": ["model/stack_5_block5_MB_dw_/depthwise", "model/stack_5_block5_MB_dw_swish/Sigmoid"], "attr": {"T": {"type": "DT_FLOAT"}}}, {"name": "model/tf.math.reduce_mean_13/Mean", "op": "Mean", "input": ["model/stack_5_block5_MB_dw_swish/mul_1", "model/tf.math.reduce_mean_13/Mean/reduction_indices"], "attr": {"T": {"type": "DT_FLOAT"}, "keep_dims": {"b": true}, "Tidx": {"type": "DT_INT32"}}}, {"name": "model/stack_5_block5_se_1_conv/BiasAdd", "op": "_FusedConv2D", "input": ["model/tf.math.reduce_mean_13/Mean", "model/stack_5_block5_se_1_conv/Conv2D/ReadVariableOp", "model/stack_5_block5_se_1_conv/BiasAdd/ReadVariableOp"], "device": "/device:CPU:0", "attr": {"strides": {"list": {"i": ["1", "1", "1", "1"]}}, "num_args": {"i": "1"}, "T": {"type": "DT_FLOAT"}, "epsilon": {"f": 0.0}, "fused_ops": {"list": {"s": ["Qmlhc0FkZA=="]}}, "explicit_paddings": {"list": {}}, "use_cudnn_on_gpu": {"b": true}, "dilations": {"list": {"i": ["1", "1", "1", "1"]}}, "padding": {"s": "VkFMSUQ="}, "data_format": {"s": "TkhXQw=="}}}, {"name": "model/activation_26/Sigmoid", "op": "Sigmoid", "input": ["model/stack_5_block5_se_1_conv/BiasAdd"], "attr": {"T": {"type": "DT_FLOAT"}}}, {"name": "model/activation_26/mul_1", "op": "Mul", "input": ["model/stack_5_block5_se_1_conv/BiasAdd", "model/activation_26/Sigmoid"], "attr": {"T": {"type": "DT_FLOAT"}}}, {"name": "model/stack_5_block5_se_2_conv/BiasAdd", "op": "_FusedConv2D", "input": ["model/activation_26/mul_1", "model/stack_5_block5_se_2_conv/Conv2D/ReadVariableOp", "model/stack_5_block5_se_2_conv/BiasAdd/ReadVariableOp"], "device": "/device:CPU:0", "attr": {"num_args": {"i": "1"}, "padding": {"s": "VkFMSUQ="}, "strides": {"list": {"i": ["1", "1", "1", "1"]}}, "fused_ops": {"list": {"s": ["Qmlhc0FkZA=="]}}, "epsilon": {"f": 0.0}, "T": {"type": "DT_FLOAT"}, "dilations": {"list": {"i": ["1", "1", "1", "1"]}}, "data_format": {"s": "TkhXQw=="}, "use_cudnn_on_gpu": {"b": true}, "explicit_paddings": {"list": {}}}}, {"name": "model/activation_27/Sigmoid", "op": "Sigmoid", "input": ["model/stack_5_block5_se_2_conv/BiasAdd"], "attr": {"T": {"type": "DT_FLOAT"}}}, {"name": "model/multiply_13/mul", "op": "Mul", "input": ["model/stack_5_block5_MB_dw_swish/mul_1", "model/activation_27/Sigmoid"], "attr": {"T": {"type": "DT_FLOAT"}}}, {"name": "model/stack_5_block5_MB_pw_bn/FusedBatchNormV3", "op": "_FusedConv2D", "input": ["model/multiply_13/mul", "model/stack_5_block5_MB_pw_conv/Conv2D_weights", "model/stack_5_block5_MB_pw_conv/Conv2D_bn_offset"], "device": "/device:CPU:0", "attr": {"data_format": {"s": "TkhXQw=="}, "padding": {"s": "VkFMSUQ="}, "fused_ops": {"list": {"s": ["Qmlhc0FkZA=="]}}, "num_args": {"i": "1"}, "strides": {"list": {"i": ["1", "1", "1", "1"]}}, "explicit_paddings": {"list": {}}, "epsilon": {"f": 0.0}, "dilations": {"list": {"i": ["1", "1", "1", "1"]}}, "use_cudnn_on_gpu": {"b": true}, "T": {"type": "DT_FLOAT"}}}, {"name": "model/add_12/add", "op": "AddV2", "input": ["model/add_11/add", "model/stack_5_block5_MB_pw_bn/FusedBatchNormV3"], "attr": {"T": {"type": "DT_FLOAT"}}}, {"name": "model/stack_5_block6_sortcut_bn/FusedBatchNormV3", "op": "_FusedConv2D", "input": ["model/add_12/add", "model/stack_5_block6_sortcut_conv/Conv2D_weights", "model/stack_5_block6_sortcut_conv/Conv2D_bn_offset"], "device": "/device:CPU:0", "attr": {"T": {"type": "DT_FLOAT"}, "fused_ops": {"list": {"s": ["Qmlhc0FkZA=="]}}, "dilations": {"list": {"i": ["1", "1", "1", "1"]}}, "strides": {"list": {"i": ["1", "1", "1", "1"]}}, "use_cudnn_on_gpu": {"b": true}, "num_args": {"i": "1"}, "data_format": {"s": "TkhXQw=="}, "explicit_paddings": {"list": {}}, "epsilon": {"f": 0.0}, "padding": {"s": "VkFMSUQ="}}}, {"name": "model/stack_5_block6_sortcut_swish/Sigmoid", "op": "Sigmoid", "input": ["model/stack_5_block6_sortcut_bn/FusedBatchNormV3"], "attr": {"T": {"type": "DT_FLOAT"}}}, {"name": "model/stack_5_block6_sortcut_swish/mul_1", "op": "Mul", "input": ["model/stack_5_block6_sortcut_bn/FusedBatchNormV3", "model/stack_5_block6_sortcut_swish/Sigmoid"], "attr": {"T": {"type": "DT_FLOAT"}}}, {"name": "model/stack_5_block6_MB_dw_/depthwise", "op": "FusedDepthwiseConv2dNative", "input": ["model/stack_5_block6_sortcut_swish/mul_1", "model/stack_5_block6_MB_dw_/depthwise_weights", "model/stack_5_block6_MB_dw_/depthwise_bn_offset"], "attr": {"fused_ops": {"list": {"s": ["Qmlhc0FkZA=="]}}, "padding": {"s": "U0FNRQ=="}, "explicit_paddings": {"list": {}}, "T": {"type": "DT_FLOAT"}, "strides": {"list": {"i": ["1", "1", "1", "1"]}}, "num_args": {"i": "1"}, "data_format": {"s": "TkhXQw=="}, "dilations": {"list": {"i": ["1", "1", "1", "1"]}}}}, {"name": "model/stack_5_block6_MB_dw_swish/Sigmoid", "op": "Sigmoid", "input": ["model/stack_5_block6_MB_dw_/depthwise"], "attr": {"T": {"type": "DT_FLOAT"}}}, {"name": "model/stack_5_block6_MB_dw_swish/mul_1", "op": "Mul", "input": ["model/stack_5_block6_MB_dw_/depthwise", "model/stack_5_block6_MB_dw_swish/Sigmoid"], "attr": {"T": {"type": "DT_FLOAT"}}}, {"name": "model/tf.math.reduce_mean_14/Mean", "op": "Mean", "input": ["model/stack_5_block6_MB_dw_swish/mul_1", "model/tf.math.reduce_mean_14/Mean/reduction_indices"], "attr": {"keep_dims": {"b": true}, "Tidx": {"type": "DT_INT32"}, "T": {"type": "DT_FLOAT"}}}, {"name": "model/stack_5_block6_se_1_conv/BiasAdd", "op": "_FusedConv2D", "input": ["model/tf.math.reduce_mean_14/Mean", "model/stack_5_block6_se_1_conv/Conv2D/ReadVariableOp", "model/stack_5_block6_se_1_conv/BiasAdd/ReadVariableOp"], "device": "/device:CPU:0", "attr": {"data_format": {"s": "TkhXQw=="}, "explicit_paddings": {"list": {}}, "T": {"type": "DT_FLOAT"}, "strides": {"list": {"i": ["1", "1", "1", "1"]}}, "use_cudnn_on_gpu": {"b": true}, "num_args": {"i": "1"}, "epsilon": {"f": 0.0}, "dilations": {"list": {"i": ["1", "1", "1", "1"]}}, "padding": {"s": "VkFMSUQ="}, "fused_ops": {"list": {"s": ["Qmlhc0FkZA=="]}}}}, {"name": "model/activation_28/Sigmoid", "op": "Sigmoid", "input": ["model/stack_5_block6_se_1_conv/BiasAdd"], "attr": {"T": {"type": "DT_FLOAT"}}}, {"name": "model/activation_28/mul_1", "op": "Mul", "input": ["model/stack_5_block6_se_1_conv/BiasAdd", "model/activation_28/Sigmoid"], "attr": {"T": {"type": "DT_FLOAT"}}}, {"name": "model/stack_5_block6_se_2_conv/BiasAdd", "op": "_FusedConv2D", "input": ["model/activation_28/mul_1", "model/stack_5_block6_se_2_conv/Conv2D/ReadVariableOp", "model/stack_5_block6_se_2_conv/BiasAdd/ReadVariableOp"], "device": "/device:CPU:0", "attr": {"padding": {"s": "VkFMSUQ="}, "fused_ops": {"list": {"s": ["Qmlhc0FkZA=="]}}, "epsilon": {"f": 0.0}, "T": {"type": "DT_FLOAT"}, "use_cudnn_on_gpu": {"b": true}, "num_args": {"i": "1"}, "data_format": {"s": "TkhXQw=="}, "dilations": {"list": {"i": ["1", "1", "1", "1"]}}, "strides": {"list": {"i": ["1", "1", "1", "1"]}}, "explicit_paddings": {"list": {}}}}, {"name": "model/activation_29/Sigmoid", "op": "Sigmoid", "input": ["model/stack_5_block6_se_2_conv/BiasAdd"], "attr": {"T": {"type": "DT_FLOAT"}}}, {"name": "model/multiply_14/mul", "op": "Mul", "input": ["model/stack_5_block6_MB_dw_swish/mul_1", "model/activation_29/Sigmoid"], "attr": {"T": {"type": "DT_FLOAT"}}}, {"name": "model/stack_5_block6_MB_pw_bn/FusedBatchNormV3", "op": "_FusedConv2D", "input": ["model/multiply_14/mul", "model/stack_5_block6_MB_pw_conv/Conv2D_weights", "model/stack_5_block6_MB_pw_conv/Conv2D_bn_offset"], "device": "/device:CPU:0", "attr": {"explicit_paddings": {"list": {}}, "T": {"type": "DT_FLOAT"}, "epsilon": {"f": 0.0}, "use_cudnn_on_gpu": {"b": true}, "fused_ops": {"list": {"s": ["Qmlhc0FkZA=="]}}, "num_args": {"i": "1"}, "strides": {"list": {"i": ["1", "1", "1", "1"]}}, "padding": {"s": "VkFMSUQ="}, "dilations": {"list": {"i": ["1", "1", "1", "1"]}}, "data_format": {"s": "TkhXQw=="}}}, {"name": "model/add_13/add", "op": "AddV2", "input": ["model/add_12/add", "model/stack_5_block6_MB_pw_bn/FusedBatchNormV3"], "attr": {"T": {"type": "DT_FLOAT"}}}, {"name": "model/stack_5_block7_sortcut_bn/FusedBatchNormV3", "op": "_FusedConv2D", "input": ["model/add_13/add", "model/stack_5_block7_sortcut_conv/Conv2D_weights", "model/stack_5_block7_sortcut_conv/Conv2D_bn_offset"], "device": "/device:CPU:0", "attr": {"strides": {"list": {"i": ["1", "1", "1", "1"]}}, "dilations": {"list": {"i": ["1", "1", "1", "1"]}}, "data_format": {"s": "TkhXQw=="}, "num_args": {"i": "1"}, "fused_ops": {"list": {"s": ["Qmlhc0FkZA=="]}}, "epsilon": {"f": 0.0}, "T": {"type": "DT_FLOAT"}, "padding": {"s": "VkFMSUQ="}, "explicit_paddings": {"list": {}}, "use_cudnn_on_gpu": {"b": true}}}, {"name": "model/stack_5_block7_sortcut_swish/Sigmoid", "op": "Sigmoid", "input": ["model/stack_5_block7_sortcut_bn/FusedBatchNormV3"], "attr": {"T": {"type": "DT_FLOAT"}}}, {"name": "model/stack_5_block7_sortcut_swish/mul_1", "op": "Mul", "input": ["model/stack_5_block7_sortcut_bn/FusedBatchNormV3", "model/stack_5_block7_sortcut_swish/Sigmoid"], "attr": {"T": {"type": "DT_FLOAT"}}}, {"name": "model/stack_5_block7_MB_dw_/depthwise", "op": "FusedDepthwiseConv2dNative", "input": ["model/stack_5_block7_sortcut_swish/mul_1", "model/stack_5_block7_MB_dw_/depthwise_weights", "model/stack_5_block7_MB_dw_/depthwise_bn_offset"], "attr": {"data_format": {"s": "TkhXQw=="}, "fused_ops": {"list": {"s": ["Qmlhc0FkZA=="]}}, "num_args": {"i": "1"}, "dilations": {"list": {"i": ["1", "1", "1", "1"]}}, "explicit_paddings": {"list": {}}, "T": {"type": "DT_FLOAT"}, "padding": {"s": "U0FNRQ=="}, "strides": {"list": {"i": ["1", "1", "1", "1"]}}}}, {"name": "model/stack_5_block7_MB_dw_swish/Sigmoid", "op": "Sigmoid", "input": ["model/stack_5_block7_MB_dw_/depthwise"], "attr": {"T": {"type": "DT_FLOAT"}}}, {"name": "model/stack_5_block7_MB_dw_swish/mul_1", "op": "Mul", "input": ["model/stack_5_block7_MB_dw_/depthwise", "model/stack_5_block7_MB_dw_swish/Sigmoid"], "attr": {"T": {"type": "DT_FLOAT"}}}, {"name": "model/tf.math.reduce_mean_15/Mean", "op": "Mean", "input": ["model/stack_5_block7_MB_dw_swish/mul_1", "model/tf.math.reduce_mean_15/Mean/reduction_indices"], "attr": {"T": {"type": "DT_FLOAT"}, "keep_dims": {"b": true}, "Tidx": {"type": "DT_INT32"}}}, {"name": "model/stack_5_block7_se_1_conv/BiasAdd", "op": "_FusedConv2D", "input": ["model/tf.math.reduce_mean_15/Mean", "model/stack_5_block7_se_1_conv/Conv2D/ReadVariableOp", "model/stack_5_block7_se_1_conv/BiasAdd/ReadVariableOp"], "device": "/device:CPU:0", "attr": {"num_args": {"i": "1"}, "data_format": {"s": "TkhXQw=="}, "dilations": {"list": {"i": ["1", "1", "1", "1"]}}, "strides": {"list": {"i": ["1", "1", "1", "1"]}}, "use_cudnn_on_gpu": {"b": true}, "fused_ops": {"list": {"s": ["Qmlhc0FkZA=="]}}, "T": {"type": "DT_FLOAT"}, "epsilon": {"f": 0.0}, "padding": {"s": "VkFMSUQ="}, "explicit_paddings": {"list": {}}}}, {"name": "model/activation_30/Sigmoid", "op": "Sigmoid", "input": ["model/stack_5_block7_se_1_conv/BiasAdd"], "attr": {"T": {"type": "DT_FLOAT"}}}, {"name": "model/activation_30/mul_1", "op": "Mul", "input": ["model/stack_5_block7_se_1_conv/BiasAdd", "model/activation_30/Sigmoid"], "attr": {"T": {"type": "DT_FLOAT"}}}, {"name": "model/stack_5_block7_se_2_conv/BiasAdd", "op": "_FusedConv2D", "input": ["model/activation_30/mul_1", "model/stack_5_block7_se_2_conv/Conv2D/ReadVariableOp", "model/stack_5_block7_se_2_conv/BiasAdd/ReadVariableOp"], "device": "/device:CPU:0", "attr": {"padding": {"s": "VkFMSUQ="}, "num_args": {"i": "1"}, "use_cudnn_on_gpu": {"b": true}, "epsilon": {"f": 0.0}, "dilations": {"list": {"i": ["1", "1", "1", "1"]}}, "data_format": {"s": "TkhXQw=="}, "T": {"type": "DT_FLOAT"}, "strides": {"list": {"i": ["1", "1", "1", "1"]}}, "explicit_paddings": {"list": {}}, "fused_ops": {"list": {"s": ["Qmlhc0FkZA=="]}}}}, {"name": "model/activation_31/Sigmoid", "op": "Sigmoid", "input": ["model/stack_5_block7_se_2_conv/BiasAdd"], "attr": {"T": {"type": "DT_FLOAT"}}}, {"name": "model/multiply_15/mul", "op": "Mul", "input": ["model/stack_5_block7_MB_dw_swish/mul_1", "model/activation_31/Sigmoid"], "attr": {"T": {"type": "DT_FLOAT"}}}, {"name": "model/stack_5_block7_MB_pw_bn/FusedBatchNormV3", "op": "_FusedConv2D", "input": ["model/multiply_15/mul", "model/stack_5_block7_MB_pw_conv/Conv2D_weights", "model/stack_5_block7_MB_pw_conv/Conv2D_bn_offset"], "device": "/device:CPU:0", "attr": {"num_args": {"i": "1"}, "data_format": {"s": "TkhXQw=="}, "use_cudnn_on_gpu": {"b": true}, "T": {"type": "DT_FLOAT"}, "dilations": {"list": {"i": ["1", "1", "1", "1"]}}, "explicit_paddings": {"list": {}}, "fused_ops": {"list": {"s": ["Qmlhc0FkZA=="]}}, "epsilon": {"f": 0.0}, "padding": {"s": "VkFMSUQ="}, "strides": {"list": {"i": ["1", "1", "1", "1"]}}}}, {"name": "model/add_14/add", "op": "AddV2", "input": ["model/add_13/add", "model/stack_5_block7_MB_pw_bn/FusedBatchNormV3"], "attr": {"T": {"type": "DT_FLOAT"}}}, {"name": "model/global_average_pooling2d/Mean", "op": "Mean", "input": ["model/add_14/add", "model/global_average_pooling2d/Mean/reduction_indices"], "attr": {"Tidx": {"type": "DT_INT32"}, "keep_dims": {"b": false}, "T": {"type": "DT_FLOAT"}}}, {"name": "model/aspp1_depthwise/depthwise/SpaceToBatchND", "op": "SpaceToBatchND", "input": ["model/add_14/add", "model/aspp1_depthwise/depthwise/SpaceToBatchND/block_shape", "model/aspp1_depthwise/depthwise/SpaceToBatchND/paddings"], "attr": {"Tblock_shape": {"type": "DT_INT32"}, "Tpaddings": {"type": "DT_INT32"}, "T": {"type": "DT_FLOAT"}}}, {"name": "model/aspp2_depthwise/depthwise/SpaceToBatchND", "op": "SpaceToBatchND", "input": ["model/add_14/add", "model/aspp2_depthwise/depthwise/SpaceToBatchND/block_shape", "model/aspp2_depthwise/depthwise/SpaceToBatchND/paddings"], "attr": {"T": {"type": "DT_FLOAT"}, "Tpaddings": {"type": "DT_INT32"}, "Tblock_shape": {"type": "DT_INT32"}}}, {"name": "model/aspp3_depthwise/depthwise/SpaceToBatchND", "op": "SpaceToBatchND", "input": ["model/add_14/add", "model/aspp3_depthwise/depthwise/SpaceToBatchND/block_shape", "model/aspp3_depthwise/depthwise/SpaceToBatchND/paddings"], "attr": {"Tpaddings": {"type": "DT_INT32"}, "Tblock_shape": {"type": "DT_INT32"}, "T": {"type": "DT_FLOAT"}}}, {"name": "model/aspp0_BN/FusedBatchNormV3", "op": "_FusedConv2D", "input": ["model/add_14/add", "model/aspp0/Conv2D_weights", "model/aspp0/Conv2D_bn_offset"], "device": "/device:CPU:0", "attr": {"explicit_paddings": {"list": {}}, "padding": {"s": "U0FNRQ=="}, "dilations": {"list": {"i": ["1", "1", "1", "1"]}}, "strides": {"list": {"i": ["1", "1", "1", "1"]}}, "T": {"type": "DT_FLOAT"}, "data_format": {"s": "TkhXQw=="}, "epsilon": {"f": 0.0}, "fused_ops": {"list": {"s": ["Qmlhc0FkZA=="]}}, "num_args": {"i": "1"}, "use_cudnn_on_gpu": {"b": true}}}, {"name": "model/reshape/Shape", "op": "Shape", "input": ["model/global_average_pooling2d/Mean"], "attr": {"out_type": {"type": "DT_INT32"}, "T": {"type": "DT_FLOAT"}}}, {"name": "model/aspp1_depthwise/depthwise", "op": "DepthwiseConv2dNative", "input": ["model/aspp1_depthwise/depthwise/SpaceToBatchND", "model/aspp1_depthwise/depthwise/ReadVariableOp"], "attr": {"padding": {"s": "VkFMSUQ="}, "strides": {"list": {"i": ["1", "1", "1", "1"]}}, "T": {"type": "DT_FLOAT"}, "dilations": {"list": {"i": ["1", "1", "1", "1"]}}, "data_format": {"s": "TkhXQw=="}, "explicit_paddings": {"list": {}}}}, {"name": "model/aspp2_depthwise/depthwise", "op": "DepthwiseConv2dNative", "input": ["model/aspp2_depthwise/depthwise/SpaceToBatchND", "model/aspp2_depthwise/depthwise/ReadVariableOp"], "attr": {"data_format": {"s": "TkhXQw=="}, "explicit_paddings": {"list": {}}, "padding": {"s": "VkFMSUQ="}, "dilations": {"list": {"i": ["1", "1", "1", "1"]}}, "strides": {"list": {"i": ["1", "1", "1", "1"]}}, "T": {"type": "DT_FLOAT"}}}, {"name": "model/aspp3_depthwise/depthwise", "op": "DepthwiseConv2dNative", "input": ["model/aspp3_depthwise/depthwise/SpaceToBatchND", "model/aspp3_depthwise/depthwise/ReadVariableOp"], "attr": {"data_format": {"s": "TkhXQw=="}, "explicit_paddings": {"list": {}}, "strides": {"list": {"i": ["1", "1", "1", "1"]}}, "padding": {"s": "VkFMSUQ="}, "dilations": {"list": {"i": ["1", "1", "1", "1"]}}, "T": {"type": "DT_FLOAT"}}}, {"name": "model/aspp0_activation/Sigmoid", "op": "Sigmoid", "input": ["model/aspp0_BN/FusedBatchNormV3"], "attr": {"T": {"type": "DT_FLOAT"}}}, {"name": "model/reshape/strided_slice", "op": "StridedSlice", "input": ["model/reshape/Shape", "model/reshape/strided_slice/stack", "model/reshape/strided_slice/stack_1", "model/reshape/strided_slice/stack_2"], "attr": {"ellipsis_mask": {"i": "0"}, "new_axis_mask": {"i": "0"}, "T": {"type": "DT_INT32"}, "Index": {"type": "DT_INT32"}, "end_mask": {"i": "0"}, "shrink_axis_mask": {"i": "1"}, "begin_mask": {"i": "0"}}}, {"name": "model/aspp1_depthwise/depthwise/BatchToSpaceND", "op": "BatchToSpaceND", "input": ["model/aspp1_depthwise/depthwise", "model/aspp1_depthwise/depthwise/BatchToSpaceND/block_shape", "model/aspp1_depthwise/depthwise/BatchToSpaceND/crops"], "attr": {"Tblock_shape": {"type": "DT_INT32"}, "Tcrops": {"type": "DT_INT32"}, "T": {"type": "DT_FLOAT"}}}, {"name": "model/aspp2_depthwise/depthwise/BatchToSpaceND", "op": "BatchToSpaceND", "input": ["model/aspp2_depthwise/depthwise", "model/aspp2_depthwise/depthwise/BatchToSpaceND/block_shape", "model/aspp2_depthwise/depthwise/BatchToSpaceND/crops"], "attr": {"Tblock_shape": {"type": "DT_INT32"}, "Tcrops": {"type": "DT_INT32"}, "T": {"type": "DT_FLOAT"}}}, {"name": "model/aspp3_depthwise/depthwise/BatchToSpaceND", "op": "BatchToSpaceND", "input": ["model/aspp3_depthwise/depthwise", "model/aspp3_depthwise/depthwise/BatchToSpaceND/block_shape", "model/aspp3_depthwise/depthwise/BatchToSpaceND/crops"], "attr": {"Tblock_shape": {"type": "DT_INT32"}, "T": {"type": "DT_FLOAT"}, "Tcrops": {"type": "DT_INT32"}}}, {"name": "model/aspp0_activation/mul_1", "op": "Mul", "input": ["model/aspp0_BN/FusedBatchNormV3", "model/aspp0_activation/Sigmoid"], "attr": {"T": {"type": "DT_FLOAT"}}}, {"name": "model/reshape/Reshape/shape", "op": "Pack", "input": ["model/reshape/strided_slice", "model/reshape/Reshape/shape/1", "model/reshape/Reshape/shape/2", "model/reshape/Reshape/shape/3"], "attr": {"T": {"type": "DT_INT32"}, "N": {"i": "4"}, "axis": {"i": "0"}}}, {"name": "model/aspp1_depthwise_BN/FusedBatchNormV3/Mul", "op": "Mul", "input": ["model/aspp1_depthwise/depthwise/BatchToSpaceND", "model/aspp1_depthwise_BN/FusedBatchNormV3/Scaled"], "attr": {"T": {"type": "DT_FLOAT"}}}, {"name": "model/aspp2_depthwise_BN/FusedBatchNormV3/Mul", "op": "Mul", "input": ["model/aspp2_depthwise/depthwise/BatchToSpaceND", "model/aspp2_depthwise_BN/FusedBatchNormV3/Scaled"], "attr": {"T": {"type": "DT_FLOAT"}}}, {"name": "model/aspp3_depthwise_BN/FusedBatchNormV3/Mul", "op": "Mul", "input": ["model/aspp3_depthwise/depthwise/BatchToSpaceND", "model/aspp3_depthwise_BN/FusedBatchNormV3/Scaled"], "attr": {"T": {"type": "DT_FLOAT"}}}, {"name": "model/reshape/Reshape", "op": "Reshape", "input": ["model/global_average_pooling2d/Mean", "model/reshape/Reshape/shape"], "attr": {"Tshape": {"type": "DT_INT32"}, "T": {"type": "DT_FLOAT"}}}, {"name": "model/aspp1_depthwise_BN/FusedBatchNormV3", "op": "Add", "input": ["model/aspp1…
NormV3", "model/activation_37/Sigmoid"], "attr": {"T": {"type": "DT_FLOAT"}}}, {"name": "model/activation_32/mul_1", "op": "Mul", "input": ["model/image_pooling_BN/FusedBatchNormV3", "model/activation_32/Sigmoid"], "attr": {"T": {"type": "DT_FLOAT"}}}, {"name": "model/aspp1_pointwise_BN/FusedBatchNormV3", "op": "_FusedConv2D", "input": ["model/activation_33/mul_1", "model/aspp1_pointwise/Conv2D_weights", "model/aspp1_pointwise/Conv2D_bn_offset"], "device": "/device:CPU:0", "attr": {"strides": {"list": {"i": ["1", "1", "1", "1"]}}, "data_format": {"s": "TkhXQw=="}, "explicit_paddings": {"list": {}}, "padding": {"s": "U0FNRQ=="}, "fused_ops": {"list": {"s": ["Qmlhc0FkZA=="]}}, "use_cudnn_on_gpu": {"b": true}, "T": {"type": "DT_FLOAT"}, "epsilon": {"f": 0.0}, "num_args": {"i": "1"}, "dilations": {"list": {"i": ["1", "1", "1", "1"]}}}}, {"name": "model/aspp2_pointwise_BN/FusedBatchNormV3", "op": "_FusedConv2D", "input": ["model/activation_35/mul_1", "model/aspp2_pointwise/Conv2D_weights", "model/aspp2_pointwise/Conv2D_bn_offset"], "device": "/device:CPU:0", "attr": {"dilations": {"list": {"i": ["1", "1", "1", "1"]}}, "T": {"type": "DT_FLOAT"}, "padding": {"s": "U0FNRQ=="}, "fused_ops": {"list": {"s": ["Qmlhc0FkZA=="]}}, "explicit_paddings": {"list": {}}, "use_cudnn_on_gpu": {"b": true}, "data_format": {"s": "TkhXQw=="}, "epsilon": {"f": 0.0}, "strides": {"list": {"i": ["1", "1", "1", "1"]}}, "num_args": {"i": "1"}}}, {"name": "model/aspp3_pointwise_BN/FusedBatchNormV3", "op": "_FusedConv2D", "input": ["model/activation_37/mul_1", "model/aspp3_pointwise/Conv2D_weights", "model/aspp3_pointwise/Conv2D_bn_offset"], "device": "/device:CPU:0", "attr": {"data_format": {"s": "TkhXQw=="}, "dilations": {"list": {"i": ["1", "1", "1", "1"]}}, "num_args": {"i": "1"}, "explicit_paddings": {"list": {}}, "fused_ops": {"list": {"s": ["Qmlhc0FkZA=="]}}, "padding": {"s": "U0FNRQ=="}, "epsilon": {"f": 0.0}, "use_cudnn_on_gpu": {"b": true}, "strides": {"list": {"i": ["1", "1", "1", "1"]}}, "T": {"type": "DT_FLOAT"}}}, {"name": "model/resizing/resize/ResizeBilinear", "op": "ResizeBilinear", "input": ["model/activation_32/mul_1", "model/resizing/resize/size"], "attr": {"T": {"type": "DT_FLOAT"}, "half_pixel_centers": {"b": true}, "align_corners": {"b": false}}}, {"name": "model/activation_34/Sigmoid", "op": "Sigmoid", "input": ["model/aspp1_pointwise_BN/FusedBatchNormV3"], "attr": {"T": {"type": "DT_FLOAT"}}}, {"name": "model/activation_36/Sigmoid", "op": "Sigmoid", "input": ["model/aspp2_pointwise_BN/FusedBatchNormV3"], "attr": {"T": {"type": "DT_FLOAT"}}}, {"name": "model/activation_38/Sigmoid", "op": "Sigmoid", "input": ["model/aspp3_pointwise_BN/FusedBatchNormV3"], "attr": {"T": {"type": "DT_FLOAT"}}}, {"name": "model/activation_34/mul_1", "op": "Mul", "input": ["model/aspp1_pointwise_BN/FusedBatchNormV3", "model/activation_34/Sigmoid"], "attr": {"T": {"type": "DT_FLOAT"}}}, {"name": "model/activation_36/mul_1", "op": "Mul", "input": ["model/aspp2_pointwise_BN/FusedBatchNormV3", "model/activation_36/Sigmoid"], "attr": {"T": {"type": "DT_FLOAT"}}}, {"name": "model/activation_38/mul_1", "op": "Mul", "input": ["model/aspp3_pointwise_BN/FusedBatchNormV3", "model/activation_38/Sigmoid"], "attr": {"T": {"type": "DT_FLOAT"}}}, {"name": "model/concatenate/concat", "op": "ConcatV2", "input": ["model/resizing/resize/ResizeBilinear", "model/aspp0_activation/mul_1", "model/activation_34/mul_1", "model/activation_36/mul_1", "model/activation_38/mul_1", "model/concatenate/concat/axis"], "attr": {"Tidx": {"type": "DT_INT32"}, "T": {"type": "DT_FLOAT"}, "N": {"i": "5"}}}, {"name": "model/concat_projection_BN/FusedBatchNormV3", "op": "_FusedConv2D", "input": ["model/concatenate/concat", "model/concat_projection/Conv2D_weights", "model/concat_projection/Conv2D_bn_offset"], "device": "/device:CPU:0", "attr": {"explicit_paddings": {"list": {}}, "num_args": {"i": "1"}, "data_format": {"s": "TkhXQw=="}, "epsilon": {"f": 0.0}, "dilations": {"list": {"i": ["1", "1", "1", "1"]}}, "strides": {"list": {"i": ["1", "1", "1", "1"]}}, "T": {"type": "DT_FLOAT"}, "use_cudnn_on_gpu": {"b": true}, "fused_ops": {"list": {"s": ["Qmlhc0FkZA=="]}}, "padding": {"s": "U0FNRQ=="}}}, {"name": "model/activation_39/Sigmoid", "op": "Sigmoid", "input": ["model/concat_projection_BN/FusedBatchNormV3"], "attr": {"T": {"type": "DT_FLOAT"}}}, {"name": "model/activation_39/mul_1", "op": "Mul", "input": ["model/concat_projection_BN/FusedBatchNormV3", "model/activation_39/Sigmoid"], "attr": {"T": {"type": "DT_FLOAT"}}}, {"name": "model/resizing_1/resize/ResizeBilinear", "op": "ResizeBilinear", "input": ["model/activation_39/mul_1", "model/resizing_1/resize/size"], "attr": {"align_corners": {"b": false}, "half_pixel_centers": {"b": true}, "T": {"type": "DT_FLOAT"}}}, {"name": "model/concatenate_1/concat", "op": "ConcatV2", "input": ["model/resizing_1/resize/ResizeBilinear", "model/activation_40/mul_1", "model/concatenate_1/concat/axis"], "attr": {"N": {"i": "2"}, "Tidx": {"type": "DT_INT32"}, "T": {"type": "DT_FLOAT"}}}, {"name": "model/decoder_conv0_depthwise/depthwise", "op": "FusedDepthwiseConv2dNative", "input": ["model/concatenate_1/concat", "model/decoder_conv0_depthwise/depthwise_weights", "model/decoder_conv0_depthwise/depthwise_bn_offset"], "attr": {"padding": {"s": "U0FNRQ=="}, "fused_ops": {"list": {"s": ["Qmlhc0FkZA=="]}}, "num_args": {"i": "1"}, "data_format": {"s": "TkhXQw=="}, "strides": {"list": {"i": ["1", "1", "1", "1"]}}, "T": {"type": "DT_FLOAT"}, "dilations": {"list": {"i": ["1", "1", "1", "1"]}}, "explicit_paddings": {"list": {}}}}, {"name": "model/activation_41/Sigmoid", "op": "Sigmoid", "input": ["model/decoder_conv0_depthwise/depthwise"], "attr": {"T": {"type": "DT_FLOAT"}}}, {"name": "model/activation_41/mul_1", "op": "Mul", "input": ["model/decoder_conv0_depthwise/depthwise", "model/activation_41/Sigmoid"], "attr": {"T": {"type": "DT_FLOAT"}}}, {"name": "model/decoder_conv0_pointwise_BN/FusedBatchNormV3", "op": "_FusedConv2D", "input": ["model/activation_41/mul_1", "model/decoder_conv0_pointwise/Conv2D_weights", "model/decoder_conv0_pointwise/Conv2D_bn_offset"], "device": "/device:CPU:0", "attr": {"padding": {"s": "U0FNRQ=="}, "epsilon": {"f": 0.0}, "strides": {"list": {"i": ["1", "1", "1", "1"]}}, "dilations": {"list": {"i": ["1", "1", "1", "1"]}}, "fused_ops": {"list": {"s": ["Qmlhc0FkZA=="]}}, "num_args": {"i": "1"}, "data_format": {"s": "TkhXQw=="}, "explicit_paddings": {"list": {}}, "T": {"type": "DT_FLOAT"}, "use_cudnn_on_gpu": {"b": true}}}, {"name": "model/activation_42/Sigmoid", "op": "Sigmoid", "input": ["model/decoder_conv0_pointwise_BN/FusedBatchNormV3"], "attr": {"T": {"type": "DT_FLOAT"}}}, {"name": "model/activation_42/mul_1", "op": "Mul", "input": ["model/decoder_conv0_pointwise_BN/FusedBatchNormV3", "model/activation_42/Sigmoid"], "attr": {"T": {"type": "DT_FLOAT"}}}, {"name": "model/decoder_conv1_depthwise/depthwise", "op": "FusedDepthwiseConv2dNative", "input": ["model/activation_42/mul_1", "model/decoder_conv1_depthwise/depthwise_weights", "model/decoder_conv1_depthwise/depthwise_bn_offset"], "attr": {"dilations": {"list": {"i": ["1", "1", "1", "1"]}}, "fused_ops": {"list": {"s": ["Qmlhc0FkZA=="]}}, "data_format": {"s": "TkhXQw=="}, "T": {"type": "DT_FLOAT"}, "strides": {"list": {"i": ["1", "1", "1", "1"]}}, "padding": {"s": "U0FNRQ=="}, "explicit_paddings": {"list": {}}, "num_args": {"i": "1"}}}, {"name": "model/activation_43/Sigmoid", "op": "Sigmoid", "input": ["model/decoder_conv1_depthwise/depthwise"], "attr": {"T": {"type": "DT_FLOAT"}}}, {"name": "model/activation_43/mul_1", "op": "Mul", "input": ["model/decoder_conv1_depthwise/depthwise", "model/activation_43/Sigmoid"], "attr": {"T": {"type": "DT_FLOAT"}}}, {"name": "model/decoder_conv1_pointwise_BN/FusedBatchNormV3", "op": "_FusedConv2D", "input": ["model/activation_43/mul_1", "model/decoder_conv1_pointwise/Conv2D_weights", "model/decoder_conv1_pointwise/Conv2D_bn_offset"], "device": "/device:CPU:0", "attr": {"padding": {"s": "U0FNRQ=="}, "data_format": {"s": "TkhXQw=="}, "epsilon": {"f": 0.0}, "fused_ops": {"list": {"s": ["Qmlhc0FkZA=="]}}, "explicit_paddings": {"list": {}}, "use_cudnn_on_gpu": {"b": true}, "num_args": {"i": "1"}, "T": {"type": "DT_FLOAT"}, "dilations": {"list": {"i": ["1", "1", "1", "1"]}}, "strides": {"list": {"i": ["1", "1", "1", "1"]}}}}, {"name": "model/activation_44/Sigmoid", "op": "Sigmoid", "input": ["model/decoder_conv1_pointwise_BN/FusedBatchNormV3"], "attr": {"T": {"type": "DT_FLOAT"}}}, {"name": "model/activation_44/mul_1", "op": "Mul", "input": ["model/decoder_conv1_pointwise_BN/FusedBatchNormV3", "model/activation_44/Sigmoid"], "attr": {"T": {"type": "DT_FLOAT"}}}, {"name": "model/conv2d/BiasAdd", "op": "_FusedConv2D", "input": ["model/activation_44/mul_1", "model/conv2d/Conv2D/ReadVariableOp", "model/conv2d/BiasAdd/ReadVariableOp"], "device": "/device:CPU:0", "attr": {"padding": {"s": "VkFMSUQ="}, "strides": {"list": {"i": ["1", "1", "1", "1"]}}, "num_args": {"i": "1"}, "fused_ops": {"list": {"s": ["Qmlhc0FkZA=="]}}, "epsilon": {"f": 0.0}, "data_format": {"s": "TkhXQw=="}, "T": {"type": "DT_FLOAT"}, "dilations": {"list": {"i": ["1", "1", "1", "1"]}}, "explicit_paddings": {"list": {}}, "use_cudnn_on_gpu": {"b": true}}}, {"name": "model/output/resize/ResizeBilinear", "op": "ResizeBilinear", "input": ["model/conv2d/BiasAdd", "model/output/mul"], "attr": {"half_pixel_centers": {"b": true}, "align_corners": {"b": false}, "T": {"type": "DT_FLOAT"}}}, {"name": "model/tf.math.argmax/ArgMax", "op": "ArgMax", "input": ["model/output/resize/ResizeBilinear", "model/tf.math.argmax/ArgMax/dimension"], "attr": {"Tidx": {"type": "DT_INT32"}, "output_type": {"type": "DT_INT64"}, "T": {"type": "DT_FLOAT"}}}, {"name": "Identity", "op": "Identity", "input": ["model/tf.math.argmax/ArgMax"], "attr": {"T": {"type": "DT_INT64"}}}], "library": {}, "versions": {"producer": 808}}, "weightsManifest": [{"paths": ["group1-shard1of3.bin", "group1-shard2of3.bin", "group1-shard3of3.bin"], "weights": [{"name": "model/global_average_pooling2d/Mean/reduction_indices", "shape": [2], "dtype": "int32"}, {"name": "model/reshape/strided_slice/stack", "shape": [1], "dtype": "int32"}, {"name": "model/reshape/strided_slice/stack_1", "shape": [1], "dtype": "int32"}, {"name": "model/reshape/strided_slice/stack_2", "shape": [1], "dtype": "int32"}, {"name": "model/reshape/Reshape/shape/1", "shape": [], "dtype": "int32"}, {"name": "model/reshape/Reshape/shape/2", "shape": [], "dtype": "int32"}, {"name": "model/reshape/Reshape/shape/3", "shape": [], "dtype": "int32"}, {"name": "model/resizing/resize/size", "shape": [2], "dtype": "int32"}, {"name": "model/aspp1_depthwise/depthwise/SpaceToBatchND/block_shape", "shape": [2], "dtype": "int32"}, {"name": "model/aspp1_depthwise/depthwise/SpaceToBatchND/paddings", "shape": [2, 2], "dtype": "int32"}, {"name": "model/aspp1_depthwise/depthwise/ReadVariableOp", "shape": [3, 3, 192, 1], "dtype": "float32", "quantization": {"dtype": "float16", "original_dtype": "float32"}}, {"name": "model/aspp1_depthwise/depthwise/BatchToSpaceND/block_shape", "shape": [2], "dtype": "int32"}, {"name": "model/aspp1_depthwise/depthwise/BatchToSpaceND/crops", "shape": [2, 2], "dtype": "int32"}, {"name": "model/aspp2_depthwise/depthwise/SpaceToBatchND/block_shape", "shape": [2], "dtype": "int32"}, {"name": "model/aspp2_depthwise/depthwise/SpaceToBatchND/paddings", "shape": [2, 2], "dtype": "int32"}, {"name": "model/aspp2_depthwise/depthwise/ReadVariableOp", "shape": [3, 3, 192, 1], "dtype": "float32", "quantization": {"dtype": "float16", "original_dtype": "float32"}}, {"name": "model/aspp2_depthwise/depthwise/BatchToSpaceND/block_shape", "shape": [2], "dtype": "int32"}, {"name": "model/aspp2_depthwise/depthwise/BatchToSpaceND/crops", "shape": [2, 2], "dtype": "int32"}, {"name": "model/tf.math.reduce_mean/Mean/reduction_indices", "shape": [2], "dtype": "int32"}, {"name": "model/stack_3_block0_se_1_conv/Conv2D/ReadVariableOp", "shape": [1, 1, 192, 12], "dtype": "float32", "quantization": {"dtype": "float16", "original_dtype": "float32"}}, {"name": "model/stack_3_block0_se_1_conv/BiasAdd/ReadVariableOp", "shape": [12], "dtype": "float32", "quantization": {"dtype": "float16", "original_dtype": "float32"}}, {"name": "model/stack_3_block0_se_2_conv/Conv2D/ReadVariableOp", "shape": [1, 1, 12, 192], "dtype": "float32", "quantization": {"dtype": "float16", "original_dtype": "float32"}}, {"name": "model/stack_3_block0_se_2_conv/BiasAdd/ReadVariableOp", "shape": [192], "dtype": "float32", "quantization": {"dtype": "float16", "original_dtype": "float32"}}, {"name": "model/tf.math.reduce_mean_1/Mean/reduction_indices", "shape": [2], "dtype": "int32"}, {"name": "model/stack_3_block1_se_1_conv/Conv2D/ReadVariableOp", "shape": [1, 1, 384, 24], "dtype": "float32", "quantization": {"dtype": "float16", "original_dtype": "float32"}}, {"name": "model/stack_3_block1_se_1_conv/BiasAdd/ReadVariableOp", "shape": [24], "dtype": "float32", "quantization": {"dtype": "float16", "original_dtype": "float32"}}, {"name": "model/stack_3_block1_se_2_conv/Conv2D/ReadVariableOp", "shape": [1, 1, 24, 384], "dtype": "float32", "quantization": {"dtype": "float16", "original_dtype": "float32"}}, {"name": "model/stack_3_block1_se_2_conv/BiasAdd/ReadVariableOp", "shape": [384], "dtype": "float32", "quantization": {"dtype": "float16", "original_dtype": "float32"}}, {"name": "model/tf.math.reduce_mean_2/Mean/reduction_indices", "shape": [2], "dtype": "int32"}, {"name": "model/stack_3_block2_se_1_conv/Conv2D/ReadVariableOp", "shape": [1, 1, 384, 24], "dtype": "float32", "quantization": {"dtype": "float16", "original_dtype": "float32"}}, {"name": "model/stack_3_block2_se_1_conv/BiasAdd/ReadVariableOp", "shape": [24], "dtype": "float32", "quantization": {"dtype": "float16", "original_dtype": "float32"}}, {"name": "model/stack_3_block2_se_2_conv/Conv2D/ReadVariableOp", "shape": [1, 1, 24, 384], "dtype": "float32", "quantization": {"dtype": "float16", "original_dtype": "float32"}}, {"name": "model/stack_3_block2_se_2_conv/BiasAdd/ReadVariableOp", "shape": [384], "dtype": "float32", "quantization": {"dtype": "float16", "original_dtype": "float32"}}, {"name": "model/tf.math.reduce_mean_3/Mean/reduction_indices", "shape": [2], "dtype": "int32"}, {"name": "model/stack_4_block0_se_1_conv/Conv2D/ReadVariableOp", "shape": [1, 1, 576, 24], "dtype": "float32", "quantization": {"dtype": "float16", "original_dtype": "float32"}}, {"name": "model/stack_4_block0_se_1_conv/BiasAdd/ReadVariableOp", "shape": [24], "dtype": "float32", "quantization": {"dtype": "float16", "original_dtype": "float32"}}, {"name": "model/stack_4_block0_se_2_conv/Conv2D/ReadVariableOp", "shape": [1, 1, 24, 576], "dtype": "float32", "quantization": {"dtype": "float16", "original_dtype": "float32"}}, {"name": "model/stack_4_block0_se_2_conv/BiasAdd/ReadVariableOp", "shape": [576], "dtype": "float32", "quantization": {"dtype": "float16", "original_dtype": "float32"}}, {"name": "model/tf.math.reduce_mean_4/Mean/reduction_indices", "shape": [2], "dtype": "int32"}, {"name": "model/stack_4_block1_se_1_conv/Conv2D/ReadVariableOp", "shape": [1, 1, 672, 28], "dtype": "float32", "quantization": {"dtype": "float16", "original_dtype": "float32"}}, {"name": "model/stack_4_block1_se_1_conv/BiasAdd/ReadVariableOp", "shape": [28], "dtype": "float32", "quantization": {"dtype": "float16", "original_dtype": "float32"}}, {"name": "model/stack_4_block1_se_2_conv/Conv2D/ReadVariableOp", "shape": [1, 1, 28, 672], "dtype": "float32", "quantization": {"dtype": "float16", "original_dtype": "float32"}}, {"name": "model/stack_4_block1_se_2_conv/BiasAdd/ReadVariableOp", "shape": [672], "dtype": "float32", "quantization": {"dtype": "float16", "original_dtype": "float32"}}, {"name": "model/tf.math.reduce_mean_5/Mean/reduction_indices", "shape": [2], "dtype": "int32"}, {"name": "model/stack_4_block2_se_1_conv/Conv2D/ReadVariableOp", "shape": [1, 1, 672, 28], "dtype": "float32", "quantization": {"dtype": "float16", "original_dtype": "float32"}}, {"name": "model/stack_4_block2_se_1_conv/BiasAdd/ReadVariableOp", "shape": [28], "dtype": "float32", "quantization": {"dtype": "float16", "original_dtype": "float32"}}, {"name": "model/stack_4_block2_se_2_conv/Conv2D/ReadVariableOp", "shape": [1, 1, 28, 672], "dtype": "float32", "quantization": {"dtype": "float16", "original_dtype": "float32"}}, {"name": "model/stack_4_block2_se_2_conv/BiasAdd/ReadVariableOp", "shape": [672], "dtype": "float32", "quantization": {"dtype": "float16", "original_dtype": "float32"}}, {"name": "model/tf.math.reduce_mean_6/Mean/reduction_indices", "shape": [2], "dtype": "int32"}, {"name": "model/stack_4_block3_se_1_conv/Conv2D/ReadVariableOp", "shape": [1, 1, 672, 28], "dtype": "float32", "quantization": {"dtype": "float16", "original_dtype": "float32"}}, {"name": "model/stack_4_block3_se_1_conv/BiasAdd/ReadVariableOp", "shape": [28], "dtype": "float32", "quantization": {"dtype": "float16", "original_dtype": "float32"}}, {"name": "model/stack_4_block3_se_2_conv/Conv2D/ReadVariableOp", "shape": [1, 1, 28, 672], "dtype": "float32", "quantization": {"dtype": "float16", "original_dtype": "float32"}}, {"name": "model/stack_4_block3_se_2_conv/BiasAdd/ReadVariableOp", "shape": [672], "dtype": "float32", "quantization": {"dtype": "float16", "original_dtype": "float32"}}, {"name": "model/tf.math.reduce_mean_7/Mean/reduction_indices", "shape": [2], "dtype": "int32"}, {"name": "model/stack_4_block4_se_1_conv/Conv2D/ReadVariableOp", "shape": [1, 1, 672, 28], "dtype": "float32", "quantization": {"dtype": "float16", "original_dtype": "float32"}}, {"name": "model/stack_4_block4_se_1_conv/BiasAdd/ReadVariableOp", "shape": [28], "dtype": "float32", "quantization": {"dtype": "float16", "original_dtype": "float32"}}, {"name": "model/stack_4_block4_se_2_conv/Conv2D/ReadVariableOp", "shape": [1, 1, 28, 672], "dtype": "float32", "quantization": {"dtype": "float16", "original_dtype": "float32"}}, {"name": "model/stack_4_block4_se_2_conv/BiasAdd/ReadVariableOp", "shape": [672], "dtype": "float32", "quantization": {"dtype": "float16", "original_dtype": "float32"}}, {"name": "model/tf.math.reduce_mean_8/Mean/reduction_indices", "shape": [2], "dtype": "int32"}, {"name": "model/stack_5_block0_se_1_conv/Conv2D/ReadVariableOp", "shape": [1, 1, 672, 28], "dtype": "float32", "quantization": {"dtype": "float16", "original_dtype": "float32"}}, {"name": "model/stack_5_block0_se_1_conv/BiasAdd/ReadVariableOp", "shape": [28], "dtype": "float32", "quantization": {"dtype": "float16", "original_dtype": "float32"}}, {"name": "model/stack_5_block0_se_2_conv/Conv2D/ReadVariableOp", "shape": [1, 1, 28, 672], "dtype": "float32", "quantization": {"dtype": "float16", "original_dtype": "float32"}}, {"name": "model/stack_5_block0_se_2_conv/BiasAdd/ReadVariableOp", "shape": [672], "dtype": "float32", "quantization": {"dtype": "float16", "original_dtype": "float32"}}, {"name": "model/tf.math.reduce_mean_9/Mean/reduction_indices", "shape": [2], "dtype": "int32"}, {"name": "model/stack_5_block1_se_1_conv/Conv2D/ReadVariableOp", "shape": [1, 1, 1152, 48], "dtype": "float32", "quantization": {"dtype": "float16", "original_dtype": "float32"}}, {"name": "model/stack_5_block1_se_1_conv/BiasAdd/ReadVariableOp", "shape": [48], "dtype": "float32", "quantization": {"dtype": "float16", "original_dtype": "float32"}}, {"name": "model/stack_5_block1_se_2_conv/Conv2D/ReadVariableOp", "shape": [1, 1, 48, 1152], "dtype": "float32", "quantization": {"dtype": "float16", "original_dtype": "float32"}}, {"name": "model/stack_5_block1_se_2_conv/BiasAdd/ReadVariableOp", "shape": [1152], "dtype": "float32", "quantization": {"dtype": "float16", "original_dtype": "float32"}}, {"name": "model/tf.math.reduce_mean_10/Mean/reduction_indices", "shape": [2], "dtype": "int32"}, {"name": "model/stack_5_block2_se_1_conv/Conv2D/ReadVariableOp", "shape": [1, 1, 1152, 48], "dtype": "float32", "quantization": {"dtype": "float16", "original_dtype": "float32"}}, {"name": "model/stack_5_block2_se_1_conv/BiasAdd/ReadVariableOp", "shape": [48], "dtype": "float32", "quantization": {"dtype": "float16", "original_dtype": "float32"}}, {"name": "model/stack_5_block2_se_2_conv/Conv2D/ReadVariableOp", "shape": [1, 1, 48, 1152], "dtype": "float32", "quantization": {"dtype": "float16", "original_dtype": "float32"}}, {"name": "model/stack_5_block2_se_2_conv/BiasAdd/ReadVariableOp", "shape": [1152], "dtype": "float32", "quantization": {"dtype": "float16", "original_dtype": "float32"}}, {"name": "model/tf.math.reduce_mean_11/Mean/reduction_indices", "shape": [2], "dtype": "int32"}, {"name": "model/stack_5_block3_se_1_conv/Conv2D/ReadVariableOp", "shape": [1, 1, 1152, 48], "dtype": "float32", "quantization": {"dtype": "float16", "original_dtype": "float32"}}, {"name": "model/stack_5_block3_se_1_conv/BiasAdd/ReadVariableOp", "shape": [48], "dtype": "float32", "quantization": {"dtype": "float16", "original_dtype": "float32"}}, {"name": "model/stack_5_block3_se_2_conv/Conv2D/ReadVariableOp", "shape": [1, 1, 48, 1152], "dtype": "float32", "quantization": {"dtype": "float16", "original_dtype": "float32"}}, {"name": "model/stack_5_block3_se_2_conv/BiasAdd/ReadVariableOp", "shape": [1152], "dtype": "float32", "quantization": {"dtype": "float16", "original_dtype": "float32"}}, {"name": "model/tf.math.reduce_mean_12/Mean/reduction_indices", "shape": [2], "dtype": "int32"}, {"name": "model/stack_5_block4_se_1_conv/Conv2D/ReadVariableOp", "shape": [1, 1, 1152, 48], "dtype": "float32", "quantization": {"dtype": "float16", "original_dtype": "float32"}}, {"name": "model/stack_5_block4_se_1_conv/BiasAdd/ReadVariableOp", "shape": [48], "dtype": "float32", "quantization": {"dtype": "float16", "original_dtype": "float32"}}, {"name": "model/stack_5_block4_se_2_conv/Conv2D/ReadVariableOp", "shape": [1, 1, 48, 1152], "dtype": "float32", "quantization": {"dtype": "float16", "original_dtype": "float32"}}, {"name": "model/stack_5_block4_se_2_conv/BiasAdd/ReadVariableOp", "shape": [1152], "dtype": "float32", "quantization": {"dtype": "float16", "original_dtype": "float32"}}, {"name": "model/tf.math.reduce_mean_13/Mean/reduction_indices", "shape": [2], "dtype": "int32"}, {"name": "model/stack_5_block5_se_1_conv/Conv2D/ReadVariableOp", "shape": [1, 1, 1152, 48], "dtype": "float32", "quantization": {"dtype": "float16", "original_dtype": "float32"}}, {"name": "model/stack_5_block5_se_1_conv/BiasAdd/ReadVariableOp", "shape": [48], "dtype": "float32", "quantization": {"dtype": "float16", "original_dtype": "float32"}}, {"name": "model/stack_5_block5_se_2_conv/Conv2D/ReadVariableOp", "shape": [1, 1, 48, 1152], "dtype": "float32", "quantization": {"dtype": "float16", "original_dtype": "float32"}}, {"name": "model/stack_5_block5_se_2_conv/BiasAdd/ReadVariableOp", "shape": [1152], "dtype": "float32", "quantization": {"dtype": "float16", "original_dtype": "float32"}}, {"name": "model/tf.math.reduce_mean_14/Mean/reduction_indices", "shape": [2], "dtype": "int32"}, {"name": "model/stack_5_block6_se_1_conv/Conv2D/ReadVariableOp", "shape": [1, 1, 1152, 48], "dtype": "float32", "quantization": {"dtype": "float16", "original_dtype": "float32"}}, {"name": "model/stack_5_block6_se_1_conv/BiasAdd/ReadVariableOp", "shape": [48], "dtype": "float32", "quantization": {"dtype": "float16", "original_dtype": "float32"}}, {"name": "model/stack_5_block6_se_2_conv/Conv2D/ReadVariableOp", "shape": [1, 1, 48, 1152], "dtype": "float32", "quantization": {"dtype": "float16", "original_dtype": "float32"}}, {"name": "model/stack_5_block6_se_2_conv/BiasAdd/ReadVariableOp", "shape": [1152], "dtype": "float32", "quantization": {"dtype": "float16", "original_dtype": "float32"}}, {"name": "model/tf.math.reduce_mean_15/Mean/reduction_indices", "shape": [2], "dtype": "int32"}, {"name": "model/stack_5_block7_se_1_conv/Conv2D/ReadVariableOp", "shape": [1, 1, 1152, 48], "dtype": "float32", "quantization": {"dtype": "float16", "original_dtype": "float32"}}, {"name": "model/stack_5_block7_se_1_conv/BiasAdd/ReadVariableOp", "shape": [48], "dtype": "float32", "quantization": {"dtype": "float16", "original_dtype": "float32"}}, {"name": "model/stack_5_block7_se_2_conv/Conv2D/ReadVariableOp", "shape": [1, 1, 48, 1152], "dtype": "float32", "quantization": {"dtype": "float16", "original_dtype": "float32"}}, {"name": "model/stack_5_block7_se_2_conv/BiasAdd/ReadVariableOp", "shape": [1152], "dtype": "float32", "quantization": {"dtype": "float16", "original_dtype": "float32"}}, {"name": "model/aspp3_depthwise/depthwise/SpaceToBatchND/block_shape", "shape": [2], "dtype": "int32"}, {"name": "model/aspp3_depthwise/depthwise/SpaceToBatchND/paddings", "shape": [2, 2], "dtype": "int32"}, {"name": "model/aspp3_depthwise/depthwise/ReadVariableOp", "shape": [3, 3, 192, 1], "dtype": "float32", "quantization": {"dtype": "float16", "original_dtype": "float32"}}, {"name": "model/aspp3_depthwise/depthwise/BatchToSpaceND/block_shape", "shape": [2], "dtype": "int32"}, {"name": "model/aspp3_depthwise/depthwise/BatchToSpaceND/crops", "shape": [2, 2], "dtype": "int32"}, {"name": "model/concatenate/concat/axis", "shape": [], "dtype": "int32"}, {"name": "model/resizing_1/resize/size", "shape": [2], "dtype": "int32"}, {"name": "model/concatenate_1/concat/axis", "shape": [], "dtype": "int32"}, {"name": "model/conv2d/Conv2D/ReadVariableOp", "shape": [1, 1, 128, 2], "dtype": "float32", "quantization": {"dtype": "float16", "original_dtype": "float32"}}, {"name": "model/conv2d/BiasAdd/ReadVariableOp", "shape": [2], "dtype": "float32", "quantization": {"dtype": "float16", "original_dtype": "float32"}}, {"name": "model/output/mul", "shape": [2], "dtype": "int32"}, {"name": "model/tf.math.argmax/ArgMax/dimension", "shape": [], "dtype": "int32"}, {"name": "model/stem_conv/Conv2D_weights", "shape": [3, 3, 3, 32], "dtype": "float32", "quantization": {"dtype": "float16", "original_dtype": "float32"}}, {"name": "model/image_pooling/Conv2D_weights", "shape": [1, 1, 192, 128], "dtype": "float32", "quantization": {"dtype": "float16", "original_dtype": "float32"}}, {"name": "model/stem_conv/Conv2D_bn_offset", "shape": [32], "dtype": "float32", "quantization": {"dtype": "float16", "original_dtype": "float32"}}, {"name": "model/stack_0_block0_fu_conv/Conv2D_weights", "shape": [3, 3, 32, 16], "dtype": "float32", "quantization": {"dtype": "float16", "original_dtype": "float32"}}, {"name": "model/aspp2_depthwise_BN/FusedBatchNormV3/Offset", "shape": [192], "dtype": "float32", "quantization": {"dtype": "float16", "original_dtype": "float32"}}, {"name": "model/stack_0_block0_fu_conv/Conv2D_bn_offset", "shape": [16], "dtype": "float32", "quantization": {"dtype": "float16", "original_dtype": "float32"}}, {"name": "model/stack_1_block0_sortcut_conv/Conv2D_weights", "shape": [3, 3, 16, 64], "dtype": "float32", "quantization": {"dtype": "float16", "original_dtype": "float32"}}, {"name": "model/image_pooling/Conv2D_bn_offset", "shape": [128], "dtype": "float32", "quantization": {"dtype": "float16", "original_dtype": "float32"}}, {"name": "model/stack_1_block0_sortcut_conv/Conv2D_bn_offset", "shape": [64], "dtype": "float32", "quantization": {"dtype": "float16", "original_dtype": "float32"}}, {"name": "model/stack_1_block0_MB_pw_conv/Conv2D_weights", "shape": [1, 1, 64, 32], "dtype": "float32", "quantization": {"dtype": "float16", "original_dtype": "float32"}}, {"name": "model/stack_1_block0_MB_pw_conv/Conv2D_bn_offset", "shape": [32], "dtype": "float32", "quantization": {"dtype": "float16", "original_dtype": "float32"}}, {"name": "model/stack_1_block1_sortcut_conv/Conv2D_weights", "shape": [3, 3, 32, 128], "dtype": "float32", "quantization": {"dtype": "float16", "original_dtype": "float32"}}, {"name": "model/stack_1_block1_sortcut_conv/Conv2D_bn_offset", "shape": [128], "dtype": "float32", "quantization": {"dtype": "float16", "original_dtype": "float32"}}, {"name": "model/stack_1_block1_MB_pw_conv/Conv2D_weights", "shape": [1, 1, 128, 32], "dtype": "float32", "quantization": {"dtype": "float16", "original_dtype": "float32"}}, {"name": "model/stack_1_block1_MB_pw_conv/Conv2D_bn_offset", "shape": [32], "dtype": "float32", "quantization": {"dtype": "float16", "original_dtype": "float32"}}, {"name": "model/stack_2_block0_sortcut_conv/Conv2D_weights", "shape": [3, 3, 32, 128], "dtype": "float32", "quantization": {"dtype": "float16", "original_dtype": "float32"}}, {"name": "model/stack_2_block0_sortcut_conv/Conv2D_bn_offset", "shape": [128], "dtype": "float32", "quantization": {"dtype": "float16", "original_dtype": "float32"}}, {"name": "model/stack_2_block0_MB_pw_conv/Conv2D_weights", "shape": [1, 1, 128, 48], "dtype": "float32", "quantization": {"dtype": "float16", "original_dtype": "float32"}}, {"name": "model/aspp1_pointwise/Conv2D_weights", "shape": [1, 1, 192, 128], "dtype": "float32", "quantization": {"dtype": "float16", "original_dtype": "float32"}}, {"name": "model/stack_2_block0_MB_pw_conv/Conv2D_bn_offset", "shape": [48], "dtype": "float32", "quantization": {"dtype": "float16", "original_dtype": "float32"}}, {"name": "model/stack_2_block1_sortcut_conv/Conv2D_weights", "shape": [3, 3, 48, 192], "dtype": "float32", "quantization": {"dtype": "float16", "original_dtype": "float32"}}, {"name": "model/stack_2_block1_sortcut_conv/Conv2D_bn_offset", "shape": [192], "dtype": "float32", "quantization": {"dtype": "float16", "original_dtype": "float32"}}, {"name": "model/stack_2_block1_MB_pw_conv/Conv2D_weights", "shape": [1, 1, 192, 48], "dtype": "float32", "quantization": {"dtype": "float16", "original_dtype": "float32"}}, {"name": "model/aspp1_pointwise/Conv2D_bn_offset", "shape": [128], "dtype": "float32", "quantization": {"dtype": "float16", "original_dtype": "float32"}}, {"name": "model/stack_2_block1_MB_pw_conv/Conv2D_bn_offset", "shape": [48], "dtype": "float32", "quantization": {"dtype": "float16", "original_dtype": "float32"}}, {"name": "model/stack_3_block0_sortcut_conv/Conv2D_weights", "shape": [1, 1, 48, 192], "dtype": "float32", "quantization": {"dtype": "float16", "original_dtype": "float32"}}, {"name": "model/stack_3_block0_sortcut_conv/Conv2D_bn_offset", "shape": [192], "dtype": "float32", "quantization": {"dtype": "float16", "original_dtype": "float32"}}, {"name": "model/feature_projection0/Conv2D_weights", "shape": [1, 1, 48, 48], "dtype": "float32", "quantization": {"dtype": "float16", "original_dtype": "float32"}}, {"name": "model/feature_projection0/Conv2D_bn_offset", "shape": [48], "dtype": "float32", "quantization": {"dtype": "float16", "original_dtype": "float32"}}, {"name": "model/stack_3_block0_MB_dw_/depthwise_weights", "shape": [3, 3, 192, 1], "dtype": "float32", "quantization": {"dtype": "float16", "original_dtype": "float32"}}, {"name": "model/stack_3_block0_MB_dw_/depthwise_bn_offset", "shape": [192], "dtype": "float32", "quantization": {"dtype": "float16", "original_dtype": "float32"}}, {"name": "model/aspp2_pointwise/Conv2D_weights", "shape": [1, 1, 192, 128], "dtype": "float32", "quantization": {"dtype": "float16", "original_dtype": "float32"}}, {"name": "model/stack_3_block0_MB_pw_conv/Conv2D_weights", "shape": [1, 1, 192, 96], "dtype": "float32", "quantization": {"dtype": "float16", "original_dtype": "float32"}}, {"name": "model/stack_3_block0_MB_pw_conv/Conv2D_bn_offset", "shape": [96], "dtype": "float32", "quantization": {"dtype": "float16", "original_dtype": "float32"}}, {"name": "model/stack_3_block1_sortcut_conv/Conv2D_weights", "shape": [1, 1, 96, 384], "dtype": "float32", "quantization": {"dtype": "float16", "original_dtype": "float32"}}, {"name": "model/aspp2_pointwise/Conv2D_bn_offset", "shape": [128], "dtype": "float32", "quantization": {"dtype": "float16", "original_dtype": "float32"}}, {"name": "model/stack_3_block1_sortcut_conv/Conv2D_bn_offset", "shape": [384], "dtype": "float32", "quantization": {"dtype": "float16", "original_dtype": "float32"}}, {"name": "model/stack_3_block1_MB_dw_/depthwise_weights", "shape": [3, 3, 384, 1], "dtype": "float32", "quantization": {"dtype": "float16", "original_dtype": "float32"}}, {"name": "model/stack_3_block1_MB_dw_/depthwise_bn_offset", "shape": [384], "dtype": "float32", "quantization": {"dtype": "float16", "original_dtype": "float32"}}, {"name": "model/stack_3_block1_MB_pw_conv/Conv2D_weights", "shape": [1, 1, 384, 96], "dtype": "float32", "quantization": {"dtype": "float16", "original_dtype": "float32"}}, {"name": "model/stack_3_block1_MB_pw_conv/Conv2D_bn_offset", "shape": [96], "dtype": "float32", "quantization": {"dtype": "float16", "original_dtype": "float32"}}, {"name": "model/stack_3_block2_sortcut_conv/Conv2D_weights", "shape": [1, 1, 96, 384], "dtype": "float32", "quantization": {"dtype": "float16", "original_dtype": "float32"}}, {"name": "model/aspp3_pointwise/Conv2D_weights", "shape": [1, 1, 192, 128], "dtype": "float32", "quantization": {"dtype": "float16", "original_dtype": "float32"}}, {"name": "model/stack_3_block2_sortcut_conv/Conv2D_bn_offset", "shape": [384], "dtype": "float32", "quantization": {"dtype": "float16", "original_dtype": "float32"}}, {"name": "model/stack_3_block2_MB_dw_/depthwise_weights", "shape": [3, 3, 384, 1], "dtype": "float32", "quantization": {"dtype": "float16", "original_dtype": "float32"}}, {"name": "model/stack_3_block2_MB_dw_/depthwise_bn_offset", "shape": [384], "dtype": "float32", "quantization": {"dtype": "float16", "original_dtype": "float32"}}, {"name": "model/aspp3_pointwise/Conv2D_bn_offset", "shape": [128], "dtype": "float32", "quantization": {"dtype": "float16", "original_dtype": "float32"}}, {"name": "model/stack_3_block2_MB_pw_conv/Conv2D_weights", "shape": [1, 1, 384, 96], "dtype": "float32", "quantization": {"dtype": "float16", "original_dtype": "float32"}}, {"name": "model/stack_3_block2_MB_pw_conv/Conv2D_bn_offset", "shape": [96], "dtype": "float32", "quantization": {"dtype": "float16", "original_dtype": "float32"}}, {"name": "model/stack_4_block0_sortcut_conv/Conv2D_weights", "shape": [1, 1, 96, 576], "dtype": "float32", "quantization": {"dtype": "float16", "original_dtype": "float32"}}, {"name": "model/stack_4_block0_sortcut_conv/Conv2D_bn_offset", "shape": [576], "dtype": "float32", "quantization": {"dtype": "float16", "original_dtype": "float32"}}, {"name": "model/stack_4_block0_MB_dw_/depthwise_weights", "shape": [3, 3, 576, 1], "dtype": "float32", "quantization": {"dtype": "float16", "original_dtype": "float32"}}, {"name": "model/stack_4_block0_MB_dw_/depthwise_bn_offset", "shape": [576], "dtype": "float32", "quantization": {"dtype": "float16", "original_dtype": "float32"}}, {"name": "model/stack_4_block0_MB_pw_conv/Conv2D_weights", "shape": [1, 1, 576, 112], "dtype": "float32", "quantization": {"dtype": "float16", "original_dtype": "float32"}}, {"name": "model/concat_projection/Conv2D_weights", "shape": [1, 1, 640, 128], "dtype": "float32", "quantization": {"dtype": "float16", "original_dtype": "float32"}}, {"name": "model/stack_4_block0_MB_pw_conv/Conv2D_bn_offset", "shape": [112], "dtype": "float32", "quantization": {"dtype": "float16", "original_dtype": "float32"}}, {"name": "model/stack_4_block1_sortcut_conv/Conv2D_weights", "shape": [1, 1, 112, 672], "dtype": "float32", "quantization": {"dtype": "float16", "original_dtype": "float32"}}, {"name": "model/aspp1_depthwise_BN/FusedBatchNormV3/Scaled", "shape": [192], "dtype": "float32", "quantization": {"dtype": "float16", "original_dtype": "float32"}}, {"name": "model/stack_4_block1_sortcut_conv/Conv2D_bn_offset", "shape": [672], "dtype": "float32", "quantization": {"dtype": "float16", "original_dtype": "float32"}}, {"name": "model/stack_4_block1_MB_dw_/depthwise_weights", "shape": [3, 3, 672, 1], "dtype": "float32", "quantization": {"dtype": "float16", "original_dtype": "float32"}}, {"name": "model/stack_4_block1_MB_dw_/depthwise_bn_offset", "shape": [672], "dtype": "float32", "quantization": {"dtype": "float16", "original_dtype": "float32"}}, {"name": "model/concat_projection/Conv2D_bn_offset", "shape": [128], "dtype": "float32", "quantization": {"dtype": "float16", "original_dtype": "float32"}}, {"name": "model/stack_4_block1_MB_pw_conv/Conv2D_weights", "shape": [1, 1, 672, 112], "dtype": "float32", "quantization": {"dtype": "float16", "original_dtype": "float32"}}, {"name": "model/stack_4_block1_MB_pw_conv/Conv2D_bn_offset", "shape": [112], "dtype": "float32", "quantization": {"dtype": "float16", "original_dtype": "float32"}}, {"name": "model/stack_4_block2_sortcut_conv/Conv2D_weights", "shape": [1, 1, 112, 672], "dtype": "float32", "quantization": {"dtype": "float16", "original_dtype": "float32"}}, {"name": "model/stack_4_block2_sortcut_conv/Conv2D_bn_offset", "shape": [672], "dtype": "float32", "quantization": {"dtype": "float16", "original_dtype": "float32"}}, {"name": "model/stack_4_block2_MB_dw_/depthwise_weights", "shape": [3, 3, 672, 1], "dtype": "float32", "quantization": {"dtype": "float16", "original_dtype": "float32"}}, {"name": "model/stack_4_block2_MB_dw_/depthwise_bn_offset", "shape": [672], "dtype": "float32", "quantization": {"dtype": "float16", "original_dtype": "float32"}}, {"name": "model/stack_4_block2_MB_pw_conv/Conv2D_weights", "shape": [1, 1, 672, 112], "dtype": "float32", "quantization": {"dtype": "float16", "original_dtype": "float32"}}, {"name": "model/decoder_conv0_depthwise/depthwise_weights", "shape": [3, 3, 176, 1], "dtype": "float32", "quantization": {"dtype": "float16", "original_dtype": "float32"}}, {"name": "model/stack_4_block2_MB_pw_conv/Conv2D_bn_offset", "shape": [112], "dtype": "float32", "quantization": {"dtype": "float16", "original_dtype": "float32"}}, {"name": "model/stack_4_block3_sortcut_conv/Conv2D_weights", "shape": [1, 1, 112, 672], "dtype": "float32", "quantization": {"dtype": "float16", "original_dtype": "float32"}}, {"name": "model/stack_4_block3_sortcut_conv/Conv2D_bn_offset", "shape": [672], "dtype": "float32", "quantization": {"dtype": "float16", "original_dtype": "float32"}}, {"name": "model/stack_4_block3_MB_dw_/depthwise_weights", "shape": [3, 3, 672, 1], "dtype": "float32", "quantization": {"dtype": "float16", "original_dtype": "float32"}}, {"name": "model/stack_4_block3_MB_dw_/depthwise_bn_offset", "shape": [672], "dtype": "float32", "quantization": {"dtype": "float16", "original_dtype": "float32"}}, {"name": "model/decoder_conv0_depthwise/depthwise_bn_offset", "shape": [176], "dtype": "float32", "quantization": {"dtype": "float16", "original_dtype": "float32"}}, {"name": "model/stack_4_block3_MB_pw_conv/Conv2D_weights", "shape": [1, 1, 672, 112], "dtype": "float32", "quantization": {"dtype": "float16", "original_dtype": "float32"}}, {"name": "model/stack_4_block3_MB_pw_conv/Conv2D_bn_offset", "shape": [112], "dtype": "float32", "quantization": {"dtype": "float16", "original_dtype": "float32"}}, {"name": "model/stack_4_block4_sortcut_conv/Conv2D_weights", "shape": [1, 1, 112, 672], "dtype": "float32", "quantization": {"dtype": "float16", "original_dtype": "float32"}}, {"name": "model/stack_4_block4_sortcut_conv/Conv2D_bn_offset", "shape": [672], "dtype": "float32", "quantization": {"dtype": "float16", "original_dtype": "float32"}}, {"name": "model/stack_4_block4_MB_dw_/depthwise_weights", "shape": [3, 3, 672, 1], "dtype": "float32", "quantization": {"dtype": "float16", "original_dtype": "float32"}}, {"name": "model/stack_4_block4_MB_dw_/depthwise_bn_offset", "shape": [672], "dtype": "float32", "quantization": {"dtype": "float16", "original_dtype": "float32"}}, {"name": "model/decoder_conv0_pointwise/Conv2D_weights", "shape": [1, 1, 176, 128], "dtype": "float32", "quantization": {"dtype": "float16", "original_dtype": "float32"}}, {"name": "model/stack_4_block4_MB_pw_conv/Conv2D_weights", "shape": [1, 1, 672, 112], "dtype": "float32", "quantization": {"dtype": "float16", "original_dtype": "float32"}}, {"name": "model/decoder_conv0_pointwise/Conv2D_bn_offset", "shape": [128], "dtype": "float32", "quantization": {"dtype": "float16", "original_dtype": "float32"}}, {"name": "model/stack_4_block4_MB_pw_conv/Conv2D_bn_offset", "shape": [112], "dtype": "float32", "quantization": {"dtype": "float16", "original_dtype": "float32"}}, {"name": "model/stack_5_block0_sortcut_conv/Conv2D_weights", "shape": [1, 1, 112, 672], "dtype": "float32", "quantization": {"dtype": "float16", "original_dtype": "float32"}}, {"name": "model/stack_5_block0_sortcut_conv/Conv2D_bn_offset", "shape": [672], "dtype": "float32", "quantization": {"dtype": "float16", "original_dtype": "float32"}}, {"name": "model/stack_5_block0_MB_dw_/depthwise_weights", "shape": [3, 3, 672, 1], "dtype": "float32", "quantization": {"dtype": "float16", "original_dtype": "float32"}}, {"name": "model/stack_5_block0_MB_dw_/depthwise_bn_offset", "shape": [672], "dtype": "float32", "quantization": {"dtype": "float16", "original_dtype": "float32"}}, {"name": "model/stack_5_block0_MB_pw_conv/Conv2D_weights", "shape": [1, 1, 672, 192], "dtype": "float32", "quantization": {"dtype": "float16", "original_dtype": "float32"}}, {"name": "model/decoder_conv1_depthwise/depthwise_weights", "shape": [3, 3, 128, 1], "dtype": "float32", "quantization": {"dtype": "float16", "original_dtype": "float32"}}, {"name": "model/stack_5_block0_MB_pw_conv/Conv2D_bn_offset", "shape": [192], "dtype": "float32", "quantization": {"dtype": "float16", "original_dtype": "float32"}}, {"name": "model/stack_5_block1_sortcut_conv/Conv2D_weights", "shape": [1, 1, 192, 1152], "dtype": "float32", "quantization": {"dtype": "float16", "original_dtype": "float32"}}, {"name": "model/stack_5_block1_sortcut_conv/Conv2D_bn_offset", "shape": [1152], "dtype": "float32", "quantization": {"dtype": "float16", "original_dtype": "float32"}}, {"name": "model/stack_5_block1_MB_dw_/depthwise_weights", "shape": [3, 3, 1152, 1], "dtype": "float32", "quantization": {"dtype": "float16", "original_dtype": "float32"}}, {"name": "model/stack_5_block1_MB_dw_/depthwise_bn_offset", "shape": [1152], "dtype": "float32", "quantization": {"dtype": "float16", "original_dtype": "float32"}}, {"name": "model/decoder_conv1_depthwise/depthwise_bn_offset", "shape": [128], "dtype": "float32", "quantization": {"dtype": "float16", "original_dtype": "float32"}}, {"name": "model/stack_5_block1_MB_pw_conv/Conv2D_weights", "shape": [1, 1, 1152, 192], "dtype": "float32", "quantization": {"dtype": "float16", "original_dtype": "float32"}}, {"name": "model/stack_5_block1_MB_pw_conv/Conv2D_bn_offset", "shape": [192], "dtype": "float32", "quantization": {"dtype": "float16", "original_dtype": "float32"}}, {"name": "model/stack_5_block2_sortcut_conv/Conv2D_weights", "shape": [1, 1, 192, 1152], "dtype": "float32", "quantization": {"dtype": "float16", "original_dtype": "float32"}}, {"name": "model/stack_5_block2_sortcut_conv/Conv2D_bn_offset", "shape": [1152], "dtype": "float32", "quantization": {"dtype": "float16", "original_dtype": "float32"}}, {"name": "model/stack_5_block2_MB_dw_/depthwise_weights", "shape": [3, 3, 1152, 1], "dtype": "float32", "quantization": {"dtype": "float16", "original_dtype": "float32"}}, {"name": "model/stack_5_block2_MB_dw_/depthwise_bn_offset", "shape": [1152], "dtype": "float32", "quantization": {"dtype": "float16", "original_dtype": "float32"}}, {"name": "model/decoder_conv1_pointwise/Conv2D_weights", "shape": [1, 1, 128, 128], "dtype": "float32", "quantization": {"dtype": "float16", "original_dtype": "float32"}}, {"name": "model/stack_5_block2_MB_pw_conv/Conv2D_weights", "shape": [1, 1, 1152, 192], "dtype": "float32", "quantization": {"dtype": "float16", "original_dtype": "float32"}}, {"name": "model/decoder_conv1_pointwise/Conv2D_bn_offset", "shape": [128], "dtype": "float32", "quantization": {"dtype": "float16", "original_dtype": "float32"}}, {"name": "model/stack_5_block2_MB_pw_conv/Conv2D_bn_offset", "shape": [192], "dtype": "float32", "quantization": {"dtype": "float16", "original_dtype": "float32"}}, {"name": "model/stack_5_block3_sortcut_conv/Conv2D_weights", "shape": [1, 1, 192, 1152], "dtype": "float32", "quantization": {"dtype": "float16", "original_dtype": "float32"}}, {"name": "model/stack_5_block3_sortcut_conv/Conv2D_bn_offset", "shape": [1152], "dtype": "float32", "quantization": {"dtype": "float16", "original_dtype": "float32"}}, {"name": "model/stack_5_block3_MB_dw_/depthwise_weights", "shape": [3, 3, 1152, 1], "dtype": "float32", "quantization": {"dtype": "float16", "original_dtype": "float32"}}, {"name": "model/stack_5_block3_MB_dw_/depthwise_bn_offset", "shape": [1152], "dtype": "float32", "quantization": {"dtype": "float16", "original_dtype": "float32"}}, {"name": "model/stack_5_block3_MB_pw_conv/Conv2D_weights", "shape": [1, 1, 1152, 192], "dtype": "float32", "quantization": {"dtype": "float16", "original_dtype": "float32"}}, {"name": "model/aspp1_depthwise_BN/FusedBatchNormV3/Offset", "shape": [192], "dtype": "float32", "quantization": {"dtype": "float16", "original_dtype": "float32"}}, {"name": "model/stack_5_block3_MB_pw_conv/Conv2D_bn_offset", "shape": [192], "dtype": "float32", "quantization": {"dtype": "float16", "original_dtype": "float32"}}, {"name": "model/stack_5_block4_sortcut_conv/Conv2D_weights", "shape": [1, 1, 192, 1152], "dtype": "float32", "quantization": {"dtype": "float16", "original_dtype": "float32"}}, {"name": "model/stack_5_block4_sortcut_conv/Conv2D_bn_offset", "shape": [1152], "dtype": "float32", "quantization": {"dtype": "float16", "original_dtype": "float32"}}, {"name": "model/stack_5_block4_MB_dw_/depthwise_weights", "shape": [3, 3, 1152, 1], "dtype": "float32", "quantization": {"dtype": "float16", "original_dtype": "float32"}}, {"name": "model/stack_5_block4_MB_dw_/depthwise_bn_offset", "shape": [1152], "dtype": "float32", "quantization": {"dtype": "float16", "original_dtype": "float32"}}, {"name": "model/stack_5_block4_MB_pw_conv/Conv2D_weights", "shape": [1, 1, 1152, 192], "dtype": "float32", "quantization": {"dtype": "float16", "original_dtype": "float32"}}, {"name": "model/stack_5_block4_MB_pw_conv/Conv2D_bn_offset", "shape": [192], "dtype": "float32", "quantization": {"dtype": "float16", "original_dtype": "float32"}}, {"name": "model/stack_5_block5_sortcut_conv/Conv2D_weights", "shape": [1, 1, 192, 1152], "dtype": "float32", "quantization": {"dtype": "float16", "original_dtype": "float32"}}, {"name": "model/stack_5_block5_sortcut_conv/Conv2D_bn_offset", "shape": [1152], "dtype": "float32", "quantization": {"dtype": "float16", "original_dtype": "float32"}}, {"name": "model/stack_5_block5_MB_dw_/depthwise_weights", "shape": [3, 3, 1152, 1], "dtype": "float32", "quantization": {"dtype": "float16", "original_dtype": "float32"}}, {"name": "model/stack_5_block5_MB_dw_/depthwise_bn_offset", "shape": [1152], "dtype": "float32", "quantization": {"dtype": "float16", "original_dtype": "float32"}}, {"name": "model/stack_5_block5_MB_pw_conv/Conv2D_weights", "shape": [1, 1, 1152, 192], "dtype": "float32", "quantization": {"dtype": "float16", "original_dtype": "float32"}}, {"name": "model/aspp3_depthwise_BN/FusedBatchNormV3/Scaled", "shape": [192], "dtype": "float32", "quantization": {"dtype": "float16", "original_dtype": "float32"}}, {"name": "model/stack_5_block5_MB_pw_conv/Conv2D_bn_offset", "shape": [192], "dtype": "float32", "quantization": {"dtype": "float16", "original_dtype": "float32"}}, {"name": "model/stack_5_block6_sortcut_conv/Conv2D_weights", "shape": [1, 1, 192, 1152], "dtype": "float32", "quantization": {"dtype": "float16", "original_dtype": "float32"}}, {"name": "model/stack_5_block6_sortcut_conv/Conv2D_bn_offset", "shape": [1152], "dtype": "float32", "quantization": {"dtype": "float16", "original_dtype": "float32"}}, {"name": "model/stack_5_block6_MB_dw_/depthwise_weights", "shape": [3, 3, 1152, 1], "dtype": "float32", "quantization": {"dtype": "float16", "original_dtype": "float32"}}, {"name": "model/stack_5_block6_MB_dw_/depthwise_bn_offset", "shape": [1152], "dtype": "float32", "quantization": {"dtype": "float16", "original_dtype": "float32"}}, {"name": "model/aspp3_depthwise_BN/FusedBatchNormV3/Offset", "shape": [192], "dtype": "float32", "quantization": {"dtype": "float16", "original_dtype": "float32"}}, {"name": "model/stack_5_block6_MB_pw_conv/Conv2D_weights", "shape": [1, 1, 1152, 192], "dtype": "float32", "quantization": {"dtype": "float16", "original_dtype": "float32"}}, {"name": "model/stack_5_block6_MB_pw_conv/Conv2D_bn_offset", "shape": [192], "dtype": "float32", "quantization": {"dtype": "float16", "original_dtype": "float32"}}, {"name": "model/stack_5_block7_sortcut_conv/Conv2D_weights", "shape": [1, 1, 192, 1152], "dtype": "float32", "quantization": {"dtype": "float16", "original_dtype": "float32"}}, {"name": "model/stack_5_block7_sortcut_conv/Conv2D_bn_offset", "shape": [1152], "dtype": "float32", "quantization": {"dtype": "float16", "original_dtype": "float32"}}, {"name": "model/stack_5_block7_MB_dw_/depthwise_weights", "shape": [3, 3, 1152, 1], "dtype": "float32", "quantization": {"dtype": "float16", "original_dtype": "float32"}}, {"name": "model/stack_5_block7_MB_dw_/depthwise_bn_offset", "shape": [1152], "dtype": "float32", "quantization": {"dtype": "float16", "original_dtype": "float32"}}, {"name": "model/aspp2_depthwise_BN/FusedBatchNormV3/Scaled", "shape": [192], "dtype": "float32", "quantization": {"dtype": "float16", "original_dtype": "float32"}}, {"name": "model/stack_5_block7_MB_pw_conv/Conv2D_weights", "shape": [1, 1, 1152, 192], "dtype": "float32", "quantization": {"dtype": "float16", "original_dtype": "float32"}}, {"name": "model/stack_5_block7_MB_pw_conv/Conv2D_bn_offset", "shape": [192], "dtype": "float32", "quantization": {"dtype": "float16", "original_dtype": "float32"}}, {"name": "model/aspp0/Conv2D_weights", "shape": [1, 1, 192, 128], "dtype": "float32", "quantization": {"dtype": "float16", "original_dtype": "float32"}}, {"name": "model/aspp0/Conv2D_bn_offset", "shape": [128], "dtype": "float32", "quantization": {"dtype": "float16", "original_dtype": "float32"}}]}]}